model-doom2.pth (torch, 77325 bytes, 27 tensors)

weight f4 [8, 1, 3, 3]
00000000: 6d0a 0d3e a70c a83d bd07 2abf 1c43 d93e
00000010: cfe6 fcbe 9871 4ebf 3697 bfbf cc52 803e
00000020: 811c 6a3e 7c92 d13e 8e4b efbe 324c a83f
00000030: ff36 b3be 48b7 5dbf 8b24 39bf d37b 06c0
00000040: 7c9d 91bf 958e 033f 9407 88be 52f9 fabd
00000050: aa52 0b3e d277 ac3f 1ddc aa3f e13a 1b3f
00000060: af6e a2bf d973 233e 6582 8d3e d9f5 b83f
00000070: 8e7c d1be b501 b9bf 1db0 c83f da3d d1bf
00000080: 8911 36be ada7 2a3f fe15 5cbf d0c1 6f3f
00000090: 6d40 1b3f afd1 c7bf b68d b0be 3c36 9b3f
000000a0: 8a7b 80bf 123a 92bf 3ec9 51bf d7c6 223f
000000b0: 6982 153f 0f33 633f e39f 153f 6ebd e73f
000000c0: e47c 533e 2ea3 d53e aa68 c6bb d4d7 95bf
000000d0: def3 ff3d 41c4 e2bf 0023 1abf 1a3c 71bf
000000e0: 3203 80be 1c8d 2bbf 1b1a 9dbd 6e5f 51bf
000000f0: 1b5e 8e3e edfc 0e40 4251 3abf ef84 d83f
00000100: 1001 cb3e 3e04 583f 598e 06bf 5c99 10c0
00000110: 3fc0 943e 689e d33f 3d18 3d3c c7b5 503f
0.13773508 0.08205538 -0.6641806 0.42434013 -0.49394843 -0.8064208 -1.4968021 0.2506317
0.22862436 0.4093207 -0.4673733 1.3148253 -0.35002896 -0.8660779 -0.72321385 -2.1013076
-1.1376185 0.5138944 -0.26568282 -0.12254585 0.13605753 1.3474066 1.3348423 0.6063672
-1.2690028 0.15962161 0.27638546 1.4450027 -0.4091534 -1.4453646 1.5678746 -1.6347001
-0.17780127 0.666621 -0.8597106 0.9365511 0.6064518 -1.5610865 -0.34483117 1.2125926
-1.0037701 -1.1423972 -0.81947696 0.63584656 0.58402115 0.88749784 0.5844709 1.8104684
0.2065311 0.4172606 -0.0060549574 -1.170649 0.12497686 -1.7716142 -0.60209656 -0.9423233
-0.25002438 -0.6701219 -0.07670995 -0.8178624 0.27806172 2.2341874 -0.7278024 1.6915568
0.39649248 0.84381473 -0.52560955 -2.2593603 0.29052922 1.6532717 0.011541423 0.8152737

weight f4 [8]
00000000: 4ca5 2040 5d0a 1e40 ada6 fd3f ad64 a43f
00000010: 9c68 0440 5868 c63f c8e9 0140 da90 c93f
2.510089 2.4693825 1.981649 1.2843224 2.0688848 1.5500593 2.0298939 1.574733

bias f4 [8]
00000000: 44c8 6ebf 4e1d 24bf 708c 89bf 40c2 22bf
00000010: 3876 86be b9e3 b4be 2398 84be 4032 46be
-0.9327433 -0.64107215 -1.0745983 -0.6357765 -0.2626207 -0.3532999 -0.2589732 -0.19355106

running_mean f4 [8]
00000000: bb72 5ebf 1e81 a1bf 0fb2 523f 2b24 533c
00000010: 606d 30bf 1f51 cd3e 83b8 14bf 6c96 893f
-0.86893815 -1.2617528 0.82302946 0.012887041 -0.68916893 0.40100953 -0.5809404 1.074903

running_var f4 [8]
00000000: 1497 d03d a734 933e 6c04 fe3d 70ad 603d
00000010: 6ae8 ce3d a3a9 053e 88ef c33d c569 1c3e
0.10185066 0.28751108 0.12403187 0.054852903 0.10102923 0.13052993 0.09567171 0.15274723

weight f4 [8, 8, 3, 3]
00000000: a527 ce3e 0c14 e8be 3a9c 2abe bc68 afbc
00000010: 2624 273e cc94 02bf 5815 afbe 72ab 183f
00000020: 7a50 45bf 7979 c1bd e1bc 1fbf 1840 1b3f
00000030: eb9e 54be a00f fe3b 2561 ab3c 9413 07bf
00000040: 7e7a cd3f 72b7 cfbc 4a79 71bd f338 14bf
00000050: aa37 81bd da4a e33d 4b33 60be 73a9 8d3e
00000060: f3a6 2ebe 786c 9fbd a775 09bf 12bd 83be
00000070: 1a76 123f ec9e d23e c422 c2bd 7cbe e63e
00000080: edac ea3e c31d 45bf 4f7e 06bf 9f31 14be
00000090: cf07 43be d4f1 98be dc50 3d3e d8fd 023c
000000a0: e34f f3be d6d9 083d 41d4 febe 7471 43bc
000000b0: 23e0 3abf 739e 35be ee2a 03bf 3a1b 1cbe
000000c0: 548d cf3e 27c6 1cbe f127 a7be 58db 893e
000000d0: 61c6 173f 50fd 2c3e fb2e 593f 165f cebe
000000e0: bfd0 89be f64b a4be 6679 e23e ee81 543c
000000f0: dca2 cebe 1a63 2abf b772 55bf 48cb 0f3f
00000100: e770 563f b0fd ecbe d18d 8dbe ef2e b73e
00000110: d330 8dbe 414b 6dbf f759 4dbf 136f ea3e
00000120: 84a5 16be 0283 efbe 2b5a 533f f32d 0ebf
00000130: 8cd9 ea3d 5adb 9cbd 449d 85bd f0e9 05bf
00000140: fa2e 833e e019 303f c1ef 4cbe cccc ff3e
00000150: b66d 703f 6abd 283d f76e 44bf 7955 41bf
00000160: cb29 30bf 2018 35bf c9b5 52bf 5a62 ab3e
00000170: ec6c 8abf 7ec3 4e3f 9d17 b7be 7953 f03e
00000180: 4274 073e 6c92 a6be b7a9 983d bbf3 9cbe
00000190: 23ee 62bf 5cbb f53e b3f6 e13d 7f9a 333f
000001a0: c938 82be 1bb2 57be 260b 2b3f 1949 3ebf
000001b0: a2e3 4abb 78c9 74bf 8ec3 fd3e b2ba 253d
000001c0: 5115 c93e 1804 58bf 6419 023f 269d 323d
000001d0: 9d56 283f a21a 9b3e 0852 993f 2eaa 043f
000001e0: 7016 9e3e 8cf3 eb3e a9f9 10bf 8040 10bd
000001f0: c50f c7be f0f1 06be ddc8 85be 16bf 0dbe
00000200: cc30 ec3e acf9 2ebf a373 bd3e 5a8a 38bf
00000210: cbab 9b3e 0866 633e 7c82 2e3f 4012 523d
00000220: 77fc 5b3e 2d1a 923f 1ca5 f8be 8155 7a3f
00000230: cff2 1ebf 8338 73be bd81 493f 17d4 7f3d
00000240: 791c f73e b6ee 823e b07c 13be 031a 9cbe
00000250: 69cd 13bc 337e 7c3f cec7 d1be c00a 47be
00000260: 7abb 1dbf 7ce6 79bc fa74 4ebf 3076 e43e
00000270: b0a0 55bf 970b cebe c242 263f 913d 4ebf
00000280: f165 35bf 36a8 073f 8e98 4d3f 3210 6c3e
00000290: 56d8 7bbf b96d d3be 5233 13be fcec fc3e
000002a0: cb91 d9bd 0f78 61bf 72f8 4cbf 477d 3cbf
000002b0: 1aa4 b03e 8d31 47bf 3aa3 91bb 7a0f e2be
000002c0: 41b8 123e 1d7c f1be 0344 5f3f 7ab2 973e
000002d0: b410 13bd 7d90 1c3f f52f 29bf ef23 cbbe
000002e0: 0740 4bbf e3cd d63e 9ad4 5abf 5b3a 8fbd
000002f0: 602f 823e c109 323f 18b1 d1bd c0f1 01be
00000300: 3fd1 40be 266e 3abe 2b88 2abf f9fc 18bf
00000310: 28b3 54be 0a1e 813f bd16 eebd ff36 d73e
00000320: d9f7 ba3e e63e cdbd b505 66bf ccf3 8ebe
00000330: 9d01 4fbe 1b09 97be 5510 143e f2c5 88be
00000340: c0d6 d8bc 3ca0 033f dd07 e5be fa64 f33e
00000350: 0070 da3e e65a bd3e 4953 4cbf 5785 ecbe
00000360: 8c06 a4be bd70 35be aa6a fabc 7c73 303e
00000370: 3010 15bf bf05 b7bd 85e1 6b3d 410d e73d
00000380: 7de8 d8be 5ea3 6abf b892 d9be 7459 8fbe
00000390: 992b 273f 7296 b73e 0b63 8a3e 5616 f83e
000003a0: 6c2e 923e da52 da3e 62f6 293f f94f 583f
000003b0: b7cd ddbe 4f93 1b3e 86d4 3bbc 39ce 97be
000003c0: 51db bbbd 3968 73be c498 7b3d 801c e03e
000003d0: 7dfb 42bf 5788 a1be 80ae c6be 7ca9 81be
000003e0: 1de5 153f 9fc0 193f d6f4 21bf 9a16 87be
000003f0: 2b70 583d 3afd 9cbd a754 d63e c8db 173e
0.4026462 -0.45327795 -0.16661158 -0.021412246 0.16322383 -0.51008296 -0.3419597 0.59636605
-0.7707592 -0.09446997 -0.6239758 0.60644674 -0.20763747 0.0077533275 0.020920346 -0.5276425
1.6053007 -0.025356028 -0.05895356 -0.578994 -0.06309445 0.11098261 -0.21894567 0.27668342
-0.17055874 -0.07784361 -0.5369515 -0.25730187 0.5721146 0.41136873 -0.09479287 0.45067203
0.45835057 -0.7699854 -0.5253648 -0.14472054 -0.19045947 -0.29872 0.18487877 0.007995091
-0.47521886 0.03341087 -0.49771312 -0.011928905 -0.72998255 -0.17736225 -0.5123738 -0.15244761
0.40537512 -0.15309964 -0.3264766 0.26925159 0.5928708 0.16893506 0.8483731 -0.4030692
-0.26917073 -0.32089204 0.44233245 0.012970431 -0.40358627 -0.66557467 -0.83378166 0.5616956
0.83766025 -0.46287298 -0.2764726 0.35777995 -0.27576312 -0.92692953 -0.802154 0.45787868
-0.14711577 -0.4677964 0.8255946 -0.5553886 0.11467275 -0.076590255 -0.06524137 -0.52310085
0.25621778 0.6878948 -0.20013334 0.49960935 0.93917406 0.041196264 -0.7673182 -0.75521046
-0.6881377 -0.70739937 -0.8230863 0.33473474 -1.081449 0.8076705 -0.35760203 0.46938685
0.13227943 -0.32533586 0.074542455 -0.30654702 -0.8864462 0.47994506 0.11033382 0.7015762
-0.2543395 -0.21064036 0.66813886 -0.7433029 -0.0030958434 -0.95619917 0.4956326 0.04046125
0.39274076 -0.84381247 0.50819993 0.0436069 0.6575716 0.30293757 1.1978159 0.51822174
0.30876493 0.4608425 -0.5663095 -0.035217762 -0.3887922 -0.1317823 -0.2612981 -0.13842425
0.4613098 -0.6834972 0.37002286 -0.7208611 0.30404505 0.2220689 0.68167853 0.051286936
0.21483026 1.1414238 -0.48563468 0.9778672 -0.62089247 -0.23752026 0.7871359 0.062458124
0.4826391 0.25572747 -0.14403033 -0.30488595 -0.009021142 0.98630065 -0.4097275 -0.19437695
-0.6161419 -0.015252706 -0.8064724 0.4462142 -0.83448315 -0.40243217 0.64945614 -0.8056269
-0.70858675 0.52991045 0.80310905 0.23053053 -0.9837698 -0.4129465 -0.14375046 0.49399555
-0.10623511 -0.8807382 -0.800666 -0.7362866 0.345002 -0.77809983 -0.004444507 -0.44152433
0.143281 -0.47165003 0.8721315 0.29628354 -0.0359046 0.6115797 -0.660888 -0.39675853
-0.7939457 0.41953954 -0.85480654 -0.06993552 0.2542677 0.69546133 -0.10238856 -0.12689877
-0.18829821 -0.18206081 -0.66614026 -0.59761006 -0.20771468 1.0087292 -0.11625431 0.42034146
0.36517218 -0.100217625 -0.8985246 -0.27920377 -0.20215459 -0.29499134 0.14459355 -0.2671352
-0.026469588 0.51416373 -0.44732562 0.47537977 0.42663574 0.36983413 -0.79814583 -0.4619548
-0.32036245 -0.17718787 -0.03056844 0.17231554 -0.58227825 -0.08936643 0.05758812 0.11281825
-0.42364874 -0.9165553 -0.4249475 -0.27997935 0.653009 0.35856968 0.2702869 0.4845454
0.28551042 0.42641336 0.66391575 0.8449703 -0.4332101 0.15192913 -0.011464244 -0.29649523
-0.09172691 -0.23770227 0.061424986 0.43771744 -0.7616499 -0.31549332 -0.38805008 -0.2532462
0.58552724 0.6005954 -0.63264215 -0.2638443 0.052841347 -0.07665487 0.4186146 0.14829934

weight f4 [8]
00000000: 2479 a53f d8c8 d13f 1b72 0440 ca6a ca3f
00000010: bbbe dd3f 89b5 0440 9b61 d53f 0b7a d43f
1.2927594 1.6389418 2.0694644 1.581384 1.7323831 2.07358 1.6670412 1.6599745

bias f4 [8]
00000000: 5f8f 643e 28c0 0a3d 9e89 60bf 0267 c1be
00000010: 9822 96bd 3ece 89be db07 c53e 1910 3d3e
0.22320317 0.03387466 -0.8770999 -0.377739 -0.07330817 -0.26915163 0.38482556 0.18463172

running_mean f4 [8]
00000000: b456 13c0 9f8b dfbe 2a77 93c0 89a6 b13e
00000010: 15f9 d0c0 2cfe 7cc0 f6a5 6340 6b45 61c0
-2.302167 -0.4366121 -4.6082964 0.3469737 -6.5304055 -3.9530134 3.5570045 -3.519862

running_var f4 [8]
00000000: 530c 3741 576e 6b41 5797 4a41 8ab2 7941
00000010: 1035 8b41 6ccf 7b41 2bd7 9941 2610 b341
11.440509 14.714438 12.661948 15.606089 17.40091 15.73814 19.230062 22.382885

weight f4 [8, 8, 3, 3]
00000000: f2d2 c23e dc5c c73e 4fce febe 2835 e33c
00000010: 7172 393f ad31 cbbe 5d48 8dbc 119d c2bd
00000020: 2ee8 993d 389f 6abf 1511 47bf 2d12 053f
00000030: 38fe 063e d45e 223f d916 b73c 6538 b63e
00000040: ed25 bbbe 4ebb 16bf 8d42 98be 5b5f ca3e
00000050: 6207 1abf 5423 223f d7f1 d8be a00c 09bf
00000060: a7a2 1d3e 4a9f b5bd ab00 203f b6c6 7e3d
00000070: cc77 01bf 737f ccbe 65c0 20be b4bf f0be
00000080: c979 21bf 5261 ab3d 40ae 23bf 0203 07be
00000090: d645 cd3d f836 b9bd 6da2 643d 7edd 8bbf
000000a0: 160a d63d cbb2 2a3e 06d8 e73e 8d0c f1be
000000b0: e192 babe 8e03 0a3e dedf 193f 54d4 6b3d
000000c0: 8f86 1e3f 8b64 47bf c93f f9be 313d 413f
000000d0: 38a0 c73d eefc fe3e eef9 c5be a609 5d3e
000000e0: e271 28bf 6bb2 92be 7ade cebe 9a8f 7dbf
000000f0: 3af4 debe 242a 2bbf b369 b3bc 44ad 233f
00000100: bf26 51bc 9a04 2abf 798c 94be 1179 59bf
00000110: e6ef d13e 4c18 57bf d085 213f 9da6 7c3e
00000120: 1150 d1be a24b a9bd a5a6 4a3f 461b 92be
00000130: 2513 d93e 1595 ab3c a882 05be 9fd3 e73e
00000140: da33 9ebe 7570 223f b6fc a63e e76b 1a3f
00000150: 3023 2cbf 243c 0c3d 2857 aa3c 7c85 b23d
00000160: 5f43 16bf 44bf 343f f508 5d3e a76d 043f
00000170: 620c 043d 54a6 d83e 6e64 f63e 87bf 213c
00000180: ac5d 8fbe 1eea 5abd a082 233f 581e 94bf
00000190: 08fe 9c3e 9b20 e2be 6eee 173e 113c ec3e
000001a0: ec30 5bbf 2207 2ebf 23c0 46be 10b4 e7be
000001b0: 3527 3c3f c4c9 b53e 107d 7fbd bbe9 be3e
000001c0: cf48 9e3e 88b4 39be 675c 27bd 7772 1d3d
000001d0: 403a bf3e 8a7b 25bf 78e7 4c3f 761c 3c3f
000001e0: f266 f9be db58 44be b001 10bf f8fd babd
000001f0: 0717 293e 7e21 24bd a048 bb3e 027b e9be
00000200: 9306 9ebe ffcb 683e 407e e03d 7ca2 913e
00000210: 631d a8be da96 3dbf 45b8 85be 166c 583f
00000220: ca2c 953e d720 50bb fa7a e93e e431 01bf
00000230: 3b54 2bbe 625f dd3d 846b fc3d 080c fd3e
00000240: f267 df3e f8a6 dc3e 8a77 c33e 0340 b03d
00000250: 73c4 e93e b8c2 f83d 6eee b33d 55c7 a5bd
00000260: b065 4a3f 0365 3abf 42fa 3f3f c1fb 81be
00000270: 01eb c7be b366 613c f693 b2bd f6be 84be
00000280: d71a 34be 87dc 83bf 31b2 0fbf 51b2 4f3f
00000290: c5a0 b93e ece3 2bbe 7957 b4be 6cf3 fdbe
000002a0: 8ceb ebbe 11bb db3e b837 e03e 5a6d b93e
000002b0: 562a 99be 0dbd 79be e373 b43f 793a acbf
000002c0: 4174 0ebe 4bde 9bbf 19a3 da3d dc63 ef3d
000002d0: d6ec 3ebf 091d 63bf 80a6 c8be 0698 dcbe
000002e0: 239a 02bf ac14 443e 8a9c ebbe 1401 91bb
000002f0: af51 09bf 3473 133f 1f02 fa3c 904f 3cbf
00000300: 3678 12bf 9e3a 6abe 75f5 d43e 5feb 94be
00000310: 594c 223f 2ea5 7b3e bf11 7fbe c5e1 dcbd
00000320: 4bda c33e 6c02 91be be66 b2be 95a6 00bf
00000330: 8a32 a8be b9cf 8dbe 8fc6 963e 6b79 03bf
00000340: adf0 0b3e f52c d7be 938b 76be 261c 16bf
00000350: 9973 b1be da1a 35bf bb54 313e e119 7f3e
00000360: c0ba 97be 0b4f 493d a0b4 8cbe ee5e 84bd
00000370: 7312 0e3f fa73 343e df2b 803f f159 bd3e
00000380: e317 3f3f c695 7a3d 5c21 ea3d 2d3c 8cbe
00000390: 0a17 57bf 7746 ea3d 169e f9be 5ee9 02bf
000003a0: 4cdd 943d 238f fbbe c1fd e73e 22ae a7be
000003b0: 01cc 98be d1b8 ba3c d4db b43e 0016 8d3e
000003c0: 2950 213f a7f0 0c3e 6547 5e3f 795b 003f
000003d0: 0443 4dbd ae0b 353f b3c9 e9be 6643 df3e
000003e0: dcea f93e ab79 803e 442a 3f3d 2c01 113d
000003f0: 1fbd d73e 53d2 19bf 0bf3 113f d7ff 0a3f
0.38051564 0.38938034 -0.49766776 0.027735308 0.7244025 -0.39686337 -0.01724642 -0.09502614
0.07514988 -0.916492 -0.7776044 0.5198086 0.13182914 0.63425946 0.022349762 0.355899
-0.36552373 -0.58879554 -0.29738274 0.39525875 -0.60167515 0.63335156 -0.4237201 -0.5353489
0.15394078 -0.088682726 0.6250102 0.062201224 -0.5057342 -0.39940986 -0.15698393 -0.47021258
-0.63076454 0.08368172 -0.6393776 -0.13184741 0.10023086 -0.090436876 0.055818964 -1.0926969
0.104511425 0.16669767 0.45282 -0.47079888 -0.36440185 0.13477919 0.6010722 0.05757554
0.6192407 -0.7788779 -0.48681477 0.75483996 0.09747356 0.49802345 -0.38667244 0.21585712
-0.6579877 -0.28651747 -0.4040411 -0.99047244 -0.43545705 -0.66861176 -0.021900987 0.6393626
-0.012765585 -0.6641327 -0.29013422 -0.8495036 0.4100334 -0.8402145 0.63094807 0.24672933
-0.40881398 -0.08266379 0.7916053 -0.28536433 0.4239742 0.020945111 -0.13038123 0.45278642
-0.30898935 0.63452846 0.32614678 0.60320896 -0.6724119 0.034237042 0.020793512 0.087168664
-0.5869655 0.7060435 0.21585448 0.51729816 0.03223837 0.42314398 0.48123497 0.009872324
-0.28001153 -0.053445928 0.6387119 -1.157176 0.3066256 -0.441655 0.14837047 0.46139577
-0.85621524 -0.67979634 -0.19409232 -0.45254564 0.73497325 0.35505497 -0.06237513 0.37287697
0.30914924 -0.18135273 -0.040859606 0.03843924 0.3734913 -0.6464163 0.80040693 0.7348093
-0.48711354 -0.1917452 -0.56252575 -0.09130472 0.1651269 -0.040071003 0.36578846 -0.4560166
-0.3086439 0.22734068 0.1096158 0.28444278 -0.3283492 -0.74058306 -0.2611715 0.84539926
0.29135734 -0.0031757855 0.45601636 -0.5046675 -0.1673135 0.108092085 0.123251945 0.49423242
0.4363399 0.43096137 0.3817714 0.08605959 0.4565769 0.12146515 0.08785711 -0.0809466
0.7906141 -0.7281038 0.7499124 -0.25387385 -0.3904648 0.013757396 -0.087196276 -0.25926942
-0.17588364 -1.0301675 -0.56131274 0.81131464 0.3625547 -0.16786164 -0.35222986 -0.4959978
-0.46078146 0.42916158 0.4379251 0.3621624 -0.29915112 -0.24388523 1.4097866 -1.3455344
-0.13911535 -1.2177213 0.1067564 0.116889685 -0.7458013 -0.8871618 -0.3918953 -0.43084735
-0.51016444 0.1914851 -0.46017867 -0.0044251774 -0.53640264 0.5759766 0.03051859 -0.735589
-0.5721468 -0.22873923 0.4159352 -0.29085824 0.6339775 0.2457473 -0.24909113 -0.107852496
0.38252482 -0.2832216 -0.3484401 -0.50254184 -0.32851058 -0.27697542 0.29448363 -0.51357144
0.1366603 -0.42026487 -0.24076681 -0.586367 -0.34658507 -0.707441 0.17317478 0.24912216
-0.29634666 0.049147647 -0.27481556 -0.06463419 0.554969 0.17622367 1.0013388 0.36982682
0.74645823 0.06117799 0.11432144 -0.2738966 -0.8401953 0.11439221 -0.48753422 -0.5113734
0.072687715 -0.49132642 0.45310786 -0.3275004 -0.29843143 0.022793205 0.35323966 0.27555847
0.6301294 0.13763677 0.8682769 0.50139576 -0.05011274 0.70720947 -0.45661697 0.43606108
0.48811996 0.25092825 0.046671167 0.03540151 0.42136475 -0.60086554 0.5701148 0.5429663

weight f4 [8]
00000000: 6eaa a53f 15f5 d13f 1dbb dd3f c695 de3f
00000010: 3b6e fd3f b1ec a93f a80b b43f cd90 b13f
1.2942636 1.6402918 1.7322727 1.7389457 1.9799265 1.3275357 1.4066057 1.3872315

bias f4 [8]
00000000: f0a7 0abf 151d 87bf 31f0 cbbf af00 7abf
00000010: bca6 c2bf 54ff 4cbf 6dd6 39bf 1393 d3be
-0.541625 -1.055575 -1.5932676 -0.97657293 -1.5207133 -0.800771 -0.7259281 -0.41323146

running_mean f4 [8]
00000000: b807 a9c0 c06a 0640 1843 c0c0 9593 db40
00000010: 2e44 aec0 4807 353e 06ff 83c0 8e1e de3f
-5.282192 2.1002655 -6.00819 6.8617654 -5.4458227 0.17678559 -4.124881 1.7353075

running_var f4 [8]
00000000: 10d2 9141 9f84 5741 14ed 8641 0ce0 9e41
00000010: e597 a641 30fc 9441 0b30 2c41 3099 8f41
18.22757 13.469878 16.86576 19.859398 20.824167 18.623138 10.761729 17.949799

weight f4 [16, 8, 3, 3]
00000000: 60a3 833e f3ca bcbe b392 173e 9f0e eabd
00000010: ecaf a0be 0b91 ae3e 0d33 3fbf 662f c33d
00000020: 8b95 38bf 1413 36be 203b 283f eaa9 b33e
00000030: 35fd f4be 36b1 873e a43a d6be a444 ff3d
00000040: b21b 64be be42 86bc ba38 213e 7581 d83d
00000050: 279b 9bbe c528 8bbf b372 163e 4d01 9bbe
00000060: d844 53be 502d 83be 7750 833e 6946 9dbd
00000070: 7e28 9dbe fd84 20be e000 143d 61f7 b1be
00000080: 221e fc3e a759 adbd 6280 c7bd b47a 863e
00000090: afae 34be 0688 b3be 6ef5 68be fd13 f03e
000000a0: 8dd8 633e 3546 29bf 1fa6 30be a73b 4fbf
000000b0: c7f1 06bf f5dc 8ebb a411 cbbe 1464 bfbe
000000c0: 75d9 23be 8c33 9bbe b8bb b9bd 7e0b c33d
000000d0: 9078 6dbe e447 983e e88c 2a3f 0df8 8fbe
000000e0: 7fc0 cf3e d167 eb3c c804 af3e d6e5 3b3e
000000f0: dd36 0d3e 0b11 0cbf 3624 d13e fc34 81bd
00000100: dea4 833e 72be 30be c916 963e b4ea 6bbd
00000110: 49ad 00bf 6649 4ebf ca74 f2be 6548 e4be
00000120: 1cbd 943e b11b cdbe c5e1 c7be 9813 863e
00000130: 4b28 e3bd 3fe9 bd3e 9da0 033e 4821 243f
00000140: 2f5d c9be 153b fa3e 5bfe 10bf aaeb ccbe
00000150: 9f40 143e a765 a7be 5a9f d63e 84ba 61bd
00000160: e471 4c3e e413 763e 6efd b8bd cbc1 8cbe
00000170: 8964 0bbf 640c 243e 04d1 75be 2588 b3be
00000180: e7d1 30bd 9276 10bf ef3e b7be acf4 963c
00000190: fd00 a63e a566 03be b30e ebbe 5108 513f
000001a0: 9cd3 983e 3775 9d3e 5e62 9abe d7a6 f7be
000001b0: 188c 3c3e 84ff 3abf 2921 06bf a2d8 2bbf
000001c0: da8f ca3e 6c2a 873e 6950 d9be 8ca6 4dbe
000001d0: f905 e7bd d0a6 5abe 19dd 11be ecef fbbc
000001e0: 6c25 803e 9033 03bd f5f8 29bf cdb1 14bf
000001f0: 8ba5 fa3d 0056 02bf fa00 a13d 23dc a83e
00000200: dadb 89be b687 14be 9f22 a73c a71a 0f3e
00000210: e43e d93e 788f 123e 2163 febe b089 96be
00000220: 7733 a53e 7f8c 363f 6a3c 243e a2ee 01bf
00000230: 6a15 193f def8 a9be ab2e 8f3d fba2 b83e
00000240: 5b96 f43e 9e33 c0be f692 a5be c9da 363e
00000250: d698 853d 58ee fa3e 55d5 d3be 4567 b6bd
00000260: 440b 35be b106 b23e 38b6 b13e 90c0 b03e
00000270: ece3 b43d 6ee4 cabd 6e82 b23e f796 4bbb
00000280: 67fc cebe 9f23 adbe 0ab8 c3bb 4716 793e
00000290: 3690 7dbe 56e5 0d3e 5f1c 303e 99fc 59bd
000002a0: 3b6b c43e f9f8 e7be 5a02 1cbf e922 ba3d
000002b0: 8b0a 1bbb a9b6 2d3d aecd 38be 268f a5be
000002c0: 60ab a0be dba1 c23d b645 be3d fe77 393f
000002d0: 690c 0abf 323b 263f c849 3a3e 10c1 e5bd
000002e0: ad0b 24bc b3a6 51bd 8441 7b3d d008 21bf
000002f0: 13bf 15bf 145c 09bf bf15 973d de45 28bd
00000300: 0a6b 1dbd 7952 6fbe 0b0d ddbe 74af 933e
00000310: 4ea8 82be 8e59 aa3e 8a7e 5cbe 84bd 3f3e
00000320: 545b 53bf 0d77 a23d 46d3 cfbd f49e 75be
00000330: f1db 15bd b498 83be ce67 a8be 9ce5 8c3e
00000340: 3504 503d 04b4 a9bb 6cc8 2bbe 3f8b 963e
00000350: e812 b5bc f29f 263d b900 28bd 6ee6 17be
00000360: 1380 30bf 80b9 63be 3204 2e3f 3c63 233f
00000370: 2791 cc3e b022 06bd 908f 833e 4d64 8ebc
00000380: 6c50 b3be 2acf 2f3f 13f6 24be 2274 98be
00000390: 293d 483e d3b0 4bbf 546f 96be 3460 aabb
000003a0: 9275 2f3f aa28 d9bd 119f 083e da72 9fbe
000003b0: 2eb6 71be dd91 88be 2ec1 bf3d 9bb2 2dbf
000003c0: 2538 7e3e cb02 2a3e 1977 8dbc c49b e7bd
000003d0: 948e 143f 8d71 c63e 7cda a3bf ce72 243e
000003e0: 82dd 543e 525e 823e 9667 b4bf 2ece 843e
000003f0: bce0 053f f35f 25bf f5e2 0d3f e8b9 66bf
0.25710583 -0.36873588 0.14802055 -0.1142857 -0.31384218 0.34095034 -0.7468727 0.09530525
-0.72103184 -0.17780715 0.6571522 0.35090572 -0.47849432 0.2650239 -0.41841614 0.12464264
-0.2227619 -0.016389247 0.15744296 0.10571567 -0.3039181 -1.0871817 0.14692192 -0.3027443
-0.2063173 -0.25620508 0.25647327 -0.07679445 -0.30694956 -0.15675731 0.036133647 -0.34759048
0.4924174 -0.084643655 -0.09741284 0.2626549 -0.17644762 -0.35064715 -0.22749874 0.4689025
0.22250576 -0.6612275 -0.1725087 -0.809504 -0.5271267 -0.004359836 -0.39661896 -0.3738104
-0.16000922 -0.30312765 -0.09069008 0.09523676 -0.23190522 0.29742348 0.66621256 -0.28118935
0.4057655 0.028736027 0.34183335 0.18349394 0.1379046 -0.54713506 0.4084794 -0.06308934
0.2571172 -0.17260149 0.2931426 -0.057596877 -0.5026441 -0.8058075 -0.47354728 -0.44586483
0.2905053 -0.4006019 -0.39039436 0.26186824 -0.1109167 0.37092015 0.12854238 0.64113283
-0.39328906 0.488732 -0.56638116 -0.40023547 0.14477776 -0.32694742 0.4191845 -0.055109516
0.19965321 0.24031025 -0.09032713 -0.27491602 -0.5445028 0.16020352 -0.24005514 -0.35064808
-0.04316893 -0.56430924 -0.35790202 0.018427216 0.3242263 -0.12832125 -0.45909652 0.81653315
0.29848945 0.3075349 -0.30153173 -0.48369476 0.18412817 -0.73046136 -0.5239435 -0.6712743
0.39562875 0.26399553 -0.4244416 -0.20083064 -0.11280436 -0.21352696 -0.14244498 -0.030754052
0.2502855 -0.032031596 -0.66395503 -0.580838 0.12238606 -0.50912476 0.078615144 0.3298045
-0.26925546 -0.14504895 0.02040225 0.13975011 0.42430794 0.14312541 -0.49685004 -0.29401922
0.32265827 0.7130813 0.16038671 -0.5075475 0.597983 -0.33197683 0.06991323 0.36061844
0.47770962 -0.3753938 -0.32338685 0.17856897 0.06523292 0.49009967 -0.41373697 -0.08906416
-0.17680079 0.3477073 0.34709334 0.34521914 0.08832535 -0.09906851 0.34865135 -0.0031065324
-0.40426943 -0.3381624 -0.005972867 0.24324904 -0.24762043 0.13857016 0.17198323 -0.05321941
0.3836306 -0.4530714 -0.6094109 0.0908869 -0.0023657407 0.042410526 -0.1804721 -0.32335776
-0.3138075 0.09503528 0.0929064 0.7244872 -0.53925186 0.64934075 0.18192208 -0.112184644
-0.010012549 -0.051184367 0.061341777 -0.6290407 -0.5849468 -0.53656125 0.073771946 -0.041082256
-0.03843216 -0.23371305 -0.43174013 0.28844798 -0.2551903 0.3327145 -0.21532646 0.18724638
-0.8256123 0.079328634 -0.10147719 -0.23986417 -0.036586706 -0.2570244 -0.32891697 0.27518928
0.050785262 -0.0051789302 -0.16775674 0.2940311 -0.022103742 0.04067988 -0.041016314 -0.14833996
-0.68945426 -0.22238731 0.6797515 0.63823295 0.39954492 -0.032747924 0.25695467 -0.017381812
-0.35022295 0.6867548 -0.16109495 -0.29776102 0.19554581 -0.7956669 -0.29381812 -0.0051994566
0.68538773 -0.10603459 0.13341929 -0.31142312 -0.23604652 -0.26673785 0.09363018 -0.67850655
0.24826105 0.16602628 -0.017268704 -0.11309007 0.58030057 0.38758507 -1.2801051 0.1605942
0.20787624 0.25462586 -1.4094112 0.25938553 0.5229604 -0.6459953 0.55424434 -0.9012742

weight f4 [16]
00000000: 2224 1240 ef2e 1040 6730 0440 de23 3440
00000010: 4cca 0e40 e2ac eb3f d0cc ec3f b562 ea3f
00000020: 7365 1140 5aa9 1140 fc3e 1f40 f998 1440
00000030: d9fb 1140 3214 2540 c011 0540 7388 2c40
2.2834554 2.2528646 2.0654542 2.8146892 2.2310972 1.8412135 1.8500004 1.8311373
2.271817 2.2759614 2.4882193 2.3218367 2.2809966 2.5793576 2.0792084 2.6958282

bias f4 [16]
00000000: 23be 0cbd 1e4f 053e 1cd8 f43d 0782 cfbe
00000010: a43e 7dbf d700 dc3e 08ff c93d 5b03 b7be
00000020: b00b 91be 5bf5 523e 6208 203e 63ff 853d
00000030: 80ae ff3c 64b1 3d3e 9ee5 533e e968 ad3d
-0.034361016 0.13018462 0.11955282 -0.4052889 -0.98923707 0.4296939 0.098630965 -0.35744748
-0.2832923 0.20601408 0.15628198 0.06542852 0.031211138 0.185247 0.20693061 0.08467276

running_mean f4 [16]
00000000: 5a09 bbbf f06b 8dbf c227 17bf 914e 17c0
00000010: bd2a 723f 80cb 7cbf 606b 04bf ca79 36bf
00000020: 3813 ff3e d67f 523c 9ce7 f2be 049c 3fbe
00000030: fa03 adbe 71b4 2bbf e73d be3c 7004 9dbe
-1.4612229 -1.1048565 -0.5904504 -2.3641703 0.94596463 -0.98748016 -0.5172634 -0.71279585
0.4981935 0.012847861 -0.4744233 -0.18711859 -0.33792096 -0.67072207 0.023222877 -0.30667448

running_var f4 [16]
00000000: d306 6640 6d48 2d40 b92b 5040 635f d640
00000010: 6572 a440 dc64 2740 8e83 4340 9ada a040
00000020: a550 8d3f 0e4f 6c3f 7faa d03f ba17 303f
00000030: ebb9 1a3f b7ab 1a40 9dba 173f 43e8 c03f
3.5941665 2.7075455 3.2526686 6.699144 5.138964 2.615531 3.0549045 5.0266848
1.1040236 0.9230813 1.6302031 0.68786204 0.6043994 2.4167306 0.59269124 1.5070881

weight f4 [64, 96]
00000000: ce7f 163e 7727 973d b706 b2bd 01de cb3d
00000010: e2c3 0e3e 8918 9ebd 1855 10bc 9da8 a9bd
00000020: 4171 21be 0824 df3c 4488 ff3d 022d 86bd
00000030: f95c c03d 75bc 033e c126 b1bd a7d0 413e
00000040: 7222 63bd 3adb 22bd a55a abbd 93c3 ecbd
00000050: 815a e43c 0a0f bcbd 09f7 a7bd 3bfa 00be
00000060: 4178 ecbd 1688 e1bc 511b ccbd f4fa afbd
00000070: 4c1c 7e3c 6467 a93d 994f 85bd b19f 62bd
00000080: 0a75 71ba ae50 54bc 137f eb3d beb0 60bc
00000090: 19dc aebc 2a4d 95bd 9c3a e83d 4ee7 bfbd
000000a0: 9cfb ca3d e2be 37bc 162e 6dbd 48c1 4f3e
000000b0: 05d2 95bd 1b47 9c3c 9e8e e93d 36e4 88bd
000000c0: d12e 133d 21fc 303e 38a4 1c3d bbf1 00bd
000000d0: 9a82 94bd d879 973c d909 873d 4e32 f13d
000000e0: ba0b 2f3d bbd7 cfbb ac4f ccbd 4fca ebba
000000f0: 501b 9a3d 81af 2ebe d008 cd3b 52c5 863d
00000100: e37f 7abd 35ce ee3d 2377 013d e11b 5f3b
00000110: 2c2d 95bd 2ebf abbc 5f67 0d3b 271d 913d
00000120: aace 83bd dd6d 1c3e 43ed 083d 7b5d ccbd
00000130: 3a82 50bc cba4 303b c05b 2bbe cc34 4e3d
00000140: 959c 32be 8315 27be 186f 933d e552 363e
00000150: a487 b7bd 6db9 a03c b964 2cbe d7ca 9ebc
00000160: c8cf 84bc a4ed 713c 66c5 8bbd 84e4 d43d
00000170: b9ae bfbc 4aec 1e3c 54af cfbd 08d1 e6bd
00000180: aed5 f2bd 3efe 38bc ec6e 84bd 8000 b53d
00000190: 5035 40bb a60f e43d 7508 d73c 0269 383c
000001a0: a718 553d 0e6d e13c e3a4 aebc e72b 0fbd
000001b0: 150a 113e a01b 9c3d 7b37 97bd 30ff 1d3d
000001c0: dbe0 c43d b671 633d dc6c b7bc 8645 f5bc
000001d0: b776 063e 1c50 d5bd 8b9f 873c 8801 9e3c
000001e0: 1390 e9bd f840 033e 4c55 373d f433 e03d
000001f0: 2161 ba3d 17c9 613d 4737 473d 2c3e 3d3d
00000200: 8b8b 85bc c626 933d baa4 873d 9d38 a7bd
00000210: 82b6 79bd 4062 aebd cdc6 f03d 3051 71bd
00000220: d22a 3dbd 5189 9c3b ac91 82bd f82a bdbd
00000230: 61f5 6a3d e9aa 823d 7046 42bd d4a6 203e
00000240: 8c0d fcbc ef5e a1bd 34ef 2abd 3f53 d6bc
00000250: 4a7a 893d 6d18 043e 0414 a23c adb4 9f3d
00000260: 957b 8dbd d264 53bc a4ea e93d bc2e 1e3c
00000270: 3002 a1bb f1b3 c43c d916 b0bd 9365 db3d
00000280: 4033 ea37 3bb9 7bbc 15c1 55bd 5a1e 8a3d
00000290: 3b33 a4bd 0b63 56bd d42d 893d 49e7 f93c
000002a0: a018 1fbd cba2 41bc c9fe 17bd bc52 d4bd
000002b0: cfdd 3d3c 312d cebb 2808 fc3c 828f c7bd
000002c0: 38f7 253d 564d a83c 2f71 02bd 0654 2c3d
000002d0: 6a5e 82bd fe37 99bd 3e73 03be 2527 02be
000002e0: f932 313d 8b8d c0bd 8bf9 01bd f10e 263d
000002f0: 5c3b 8abd c70f dcbd d947 49bd 1724 f6bc
00000300: 8c38 51bd 98ca 5f3d a996 3dbd a181 c63d
00000310: 1596 ddbc ee1a 003e 5feb 3f3d cd5e a13e
00000320: 36db af3e f271 623d dfb6 f8bc 1d9a a7be
00000330: 04ab 4cbd ab60 f7bd 0ee3 0f3e e861 6abe
00000340: 22fa 493e 25f3 0d3e 80d6 4d3e 78ff 0c3e
00000350: f06f b33e e829 663e 6a49 d0bc 7e2a 073e
00000360: 1f02 863e 7a19 0b3e 9d95 d63c 3830 d73d
00000370: 1fe0 453e 62f6 173e eb6d 9f3e c45c 483e
00000380: 76aa ddbb 0bd4 6e3e e697 ba3d 3f22 8bbd
00000390: f621 eb3c 08ec 0ebc d89a 693d 2af4 7f3e
000003a0: c588 43bd 73fd 8a3e f1d8 283e 46e8 38be
000003b0: 0e43 8dbe c7b4 87bf dcdf b33d 482a 61bd
000003c0: 4cde c63d 896e f8bd 9475 183c e9a6 4dbe
000003d0: 05ea b7bd 5839 75be 0486 ecbd 1cbc a2be
000003e0: 3bc4 4c3d 950a 05be 6c67 373e 920f 2cbd
000003f0: 064c fc3d 378f 0e3e d0aa 2f3e 8a83 2c3e
0.14697191 0.07380574 -0.08692687 0.09954453 0.13941911 -0.077195235 -0.00880935 -0.082841136
-0.15765859 0.02723886 0.124771625 -0.06551553 0.09392733 0.1286486 -0.0864997 0.18927251
-0.05545277 -0.039759852 -0.083668984 -0.1156074 0.027875187 -0.09182556 -0.08201415 -0.12595455
-0.11546374 -0.027530711 -0.09966148 -0.085927874 0.015509676 0.08271673 -0.06509323 -0.055328075
-0.00092108606 -0.012958689 0.11498847 -0.013714014 -0.021345185 -0.072901085 0.11339304 -0.0937029
0.09911272 -0.011214944 -0.05790528 0.20288575 -0.07315449 0.019076874 0.11404155 -0.06684153
0.03593332 0.1728368 0.03824255 -0.031480532 -0.07251473 0.018490717 0.06593675 0.11777173
0.042735793 -0.0063428557 -0.09976134 -0.001798937 0.07524741 -0.17059137 0.006257154 0.065806046
-0.06115712 0.116604246 0.03160776 0.0034043717 -0.072840065 -0.020965185 0.0021576507 0.070856385
-0.064359024 0.15276285 0.033429395 -0.099787675 -0.012726361 0.0026953693 -0.16734219 0.05034332
-0.17442544 -0.163168 0.07198924 0.17805059 -0.08961418 0.019619668 -0.16835298 -0.019383831
-0.01621236 0.014766131 -0.0682476 0.103951484 -0.023398744 0.00969989 -0.10140863 -0.11270338
-0.118571624 -0.011291085 -0.06466469 0.08837986 -0.0029328652 0.11135797 0.02624915 0.011255505
0.052025463 0.027517822 -0.021318858 -0.034953978 0.14164002 0.076224566 -0.07383629 0.038573444
0.096132 0.055528365 -0.022390775 -0.029940378 0.13131224 -0.1041567 0.016555568 0.01928784
-0.11404433 0.12817752 0.04475908 0.10947409 0.09100557 0.055123415 0.0486367 0.04620187
-0.01630189 0.0718513 0.06623216 -0.08165095 -0.06096507 -0.085148335 0.11756668 -0.058915317
-0.046183415 0.0047771116 -0.06375441 -0.09236711 0.057362918 0.06380255 -0.047430456 0.1568864
-0.030768178 -0.07879435 -0.041732028 -0.026162742 0.06712778 0.12899943 0.019784935 0.07798133
-0.06908337 -0.012902455 0.11421707 0.009654697 -0.004913591 0.024011584 -0.08598108 0.10712733
2.7918839e-05 -0.015363987 -0.05218609 0.0674407 -0.08017584 -0.05234055 0.06698194 0.030505793
-0.038841844 -0.011818598 -0.037108216 -0.10367343 0.011588528 -0.0062920083 0.030765608 -0.09744169
0.04051897 0.02054469 -0.03184622 0.04207232 -0.06365664 -0.07481383 -0.1283693 -0.12710245
0.043261502 -0.09401997 -0.031732123 0.040541593 -0.06749603 -0.10745197 -0.049140785 -0.030046506
-0.051079318 0.054636568 -0.04628626 0.096926935 -0.027049104 0.12510273 0.046855327 0.3151764
0.34346932 0.055284448 -0.030360637 -0.32734767 -0.04996778 -0.12078985 0.14051458 -0.22888911
0.19724324 0.13862284 0.20101357 0.13769329 0.3504634 0.22476923 -0.025425632 0.13199803
0.26173493 0.13583937 0.026194388 0.10507244 0.19323777 0.14840081 0.31138548 0.19566637
-0.0067647053 0.23323075 0.091110036 -0.06793641 0.028702717 -0.008723266 0.057032436 0.24995485
-0.047737855 0.2714649 0.16489007 -0.18057355 -0.2759022 -1.0602044 0.08782932 -0.054971963
0.097103685 -0.12130458 0.009305377 -0.20083202 -0.089801826 -0.23947656 -0.11548999 -0.3178414
0.049991827 -0.12992318 0.17910546 -0.042007037 0.12319188 0.1392182 0.17155004 0.16847053

bias f4 [64]
00000000: e5d9 d6bc 302b a5bd 9bda be3e 13af 293d
00000010: 52a2 97bd afdf 9c3d 564d 903c 27f4 243e
00000020: c536 38bd bb3e 533d 94b3 9f3d d811 8cbd
00000030: 92f0 093e 058c 123e 8e8a c5bd 218d 413e
00000040: e208 1f3e eebe 193d 1f74 e5bc 786b 8ebd
00000050: efb2 7ebd bd94 6c3d b872 2e3d 4360 4c3d
00000060: 555e a63d d492 2c3d 187b a33e dac0 453d
00000070: 8406 4d3d 6791 e03d b637 573d 5f21 a7bd
00000080: 65f2 753c faa7 aebd 3983 943e 7bbd c73d
00000090: 2516 983d d781 0c3e 806f ee3c 1b45 0dbd
000000a0: 80ff debc 493d 2f3c a430 aeba a53a 07bd
000000b0: d235 a53d e4ae c5bd 8947 bdbd 91b7 163e
000000c0: 625a bfbc f9a4 03bd 6a89 213d ef40 dc3c
000000d0: 5c26 bc3c e95b 08be 303d cd3c 3d39 363d
000000e0: e6a9 913d c3bf 783e a5e1 3c3d 4b10 c03d
000000f0: e319 1fbd 6acb 0f3d 7ebf c4bd 0cb4 b23d
-0.026226947 -0.08064878 0.37276158 0.04142673 -0.07404007 0.07659852 0.017615002 0.16108762
-0.044974107 0.051573496 0.07797924 -0.06839341 0.13470677 0.14311226 -0.09645568 0.18901493
0.15530732 0.0375356 -0.028009472 -0.06954092 -0.062182363 0.057759035 0.042589873 0.04989649
0.08123461 0.042132214 0.3192985 0.04827962 0.050055042 0.10965233 0.052543364 -0.08160662
0.015011405 -0.08528133 0.29006365 0.097529374 0.07426099 0.13721405 0.029105902 -0.034489732
-0.027221441 0.010695764 -0.0013289643 -0.033014912 0.08066906 -0.09652498 -0.0924216 0.14718463
-0.023358528 -0.032139752 0.03943769 0.026886432 0.02296751 -0.13316311 0.02505359 0.04448818
0.07112484 0.24291901 0.04611363 0.09378108 -0.038843047 0.0351061 -0.09606837 0.087257475

weight f4 [1, 64]
00000000: 4aad 143f 06b8 993e 5ca2 8ebf a18f 81be
00000010: d3b4 f03d 37b3 8e3e 7010 163f 794e a6be
00000020: 99f1 dabd 7aaf 78bc 7557 2fbf 43b4 39bd
00000030: 7e7a d1be 7f55 89be 1e69 9a3e b518 bbbe
00000040: 20d4 cf3f bbfe 19be 63ee 723e d5d7 fcbd
00000050: 546f 443f 9c65 d6bc 1e30 953f 4623 b9bd
00000060: f890 9d3f f9e0 f83d ff04 69bf 0dc6 913e
00000070: 60a8 bcbe c7e2 e03f a1f8 84be 4a40 823e
00000080: 6140 eebd 67db 8f3e 92fe 57bf 126a 183f
00000090: 5456 c53f 29d1 96be bb60 13be b198 743d
000000a0: ebfc 483d a06a 56bd cb71 7f3f b956 cfbd
000000b0: f6ba 28bf aa61 a3bc 901e 8d3e edf3 46bf
000000c0: 192b d3be caff aabe 6d72 6e3f 296b ee3d
000000d0: 3138 f0be 2519 0c3f 8913 ac3f 58c9 52bd
000000e0: 1ee4 8dbd e5ee 96bf fb83 c23e 04ce 57be
000000f0: 2a5a 8abe fdb9 073f a551 52bd 5f66 e13f
0.5807692 0.3002321 -1.1143298 -0.25304893 0.117532395 0.27871105 0.5861883 -0.32481745
-0.10690612 -0.015178556 -0.68492824 -0.045337927 -0.40913767 -0.2682304 0.30158323 -0.36542287
1.623661 -0.15038578 0.2372375 -0.12345854 0.76732373 -0.026171498 1.1655309 -0.09039931
1.2309866 0.12152285 -0.9102325 0.28471413 -0.3684721 1.7569207 -0.2597094 0.25439674
-0.11633373 0.28097078 -0.8437282 0.5953685 1.541697 -0.29456452 -0.14392368 0.05971593
0.049069326 -0.05234778 0.9978301 -0.10123963 -0.6591028 -0.01994403 0.2756238 -0.7771595
-0.41243818 -0.33398277 0.9314335 0.11641533 -0.4691787 0.5472587 1.3443462 -0.051461548
-0.069282755 -1.1791655 0.37991318 -0.21074682 -0.27021915 0.5301817 -0.051347394 1.7609366

weight f4 [64, 96]
00000000: 279e dd3d ded3 4c3e b942 ab3d ea93 70be
00000010: a720 98bd 2adc 023e c816 1ebd b95f 04be
00000020: a2d8 41bc e6a9 693d ce81 dc3e c822 e2bd
00000030: acde c3bc cab9 33be c415 813d 2a13 8dbd
00000040: 7b86 e8bc 9ac0 813c e374 003e 1bdd 2a3e
00000050: c432 343d 5ce8 763d 48f8 9f3d d9bb 9a3e
00000060: 9df8 36be 587b fa3d f3b8 ba3d 654f 0fbe
00000070: 4588 ee3d eb2e 7d3e 9a0e 143e 5251 313e
00000080: 50ce 3dbe ae82 24be 717a 0fbe 8a4d 6b3d
00000090: 6508 9a3d ae5c 7fb9 1464 bbbd 451e d23c
000000a0: c119 c93d 09c4 2cbd daac de3d 3d3e 953e
000000b0: 0fd5 45be 15d3 a9be 1581 44bd 2cda 0bbe
000000c0: a4db d9bc 416d e2bd b4d2 8c3e 6dee b6be
000000d0: 4b9c d3bd 04bf 503e a191 053e 1356 a43e
000000e0: 5f3b 313e 491c 18be c457 19be 2f20 703d
000000f0: 2eea 9d3d eed2 453e a2e0 a2bc 3cf7 24bd
00000100: 112f 463c f9a7 02bc fb1d 0e3e 224a b43e
00000110: 89bb 973e 6130 7abe df87 9dbd c57c 50be
00000120: 4402 e33d 9d06 583e bed1 eabc 90e7 6fbe
00000130: e9a4 b4bc 6625 33be cb04 6c3d d6ab 213e
00000140: fa5b b13e d4c0 0d3e 5757 0b3e 9aa5 19be
00000150: 9f74 0c3e 71e7 4abd 5569 e6bd caa9 6c3e
00000160: 2f1d 843c 380b 923d 8e0b df3e a3cd 143e
00000170: f1fa 293e cff0 d3bd c63a adbe 8e57 12bd
00000180: 45a5 f03d c795 c43d f0c2 aa3d 8bf1 80bd
00000190: a16d c33d 6f1d 01bd 2729 463d 40e4 bb3c
000001a0: 3d31 c53d 3f82 7bbd 49fc b5bd e6a3 04be
000001b0: 3cf1 c93d 1a5a ccbd 6edb 46bd a729 0dbd
000001c0: dc0f 1abe 3d6a 783d 343d c93c 08b5 7bbd
000001d0: 3d3f a4bd 2e5f 85bc c52f 2e3d ccf9 c13d
000001e0: 5fd1 b8bd ac08 6a3d 1961 043e c78e 99bc
000001f0: 2612 6c3c 4987 adbd bcc0 4ebb 568f 023d
00000200: 1e3a a5bc 1293 2e3d e3f2 58bd a59c 48bc
00000210: 5b82 a33d 76e8 e2bc efac 0d3d c19c abbd
00000220: fcc7 ed3c 961f af3d afec 98bd 95a9 de3d
00000230: 28b6 fe3c e9fe 8e3c beac 21bc a84d 913d
00000240: 2f18 59bd 44f5 a93d ad5f f23d edfb aabd
00000250: 4878 65bd e68f 1e3e b313 c43d a93f f5bd
00000260: c705 9f3c 5539 b23d 01e8 de3d 0116 993d
00000270: aa79 65bb de7f f03d cda3 a53d 0707 1b3e
00000280: add1 0fbd 0e86 a3bd 3991 d1bc 8769 25bd
00000290: 08b0 b73c 59f6 b3bd 53b5 ab3d 34e7 f03d
000002a0: 4f62 703d afce d33d 1325 dcbd e56f 0a3d
000002b0: 3fd9 783b 56a0 49bd 5d03 8fbd 6187 193d
000002c0: 9c96 99bc 8044 05be 4083 4dbc 7489 a53d
000002d0: 246f 0f3e 9655 63bd 4096 0cbd 1b71 3c3b
000002e0: d9fe a23d 25b1 52bd 9524 47bd e9ec da3d
000002f0: 3025 583c 644b 6e3d 7888 f93d 4c5f e43d
00000300: 4318 0b3d e547 593e aa2e 48bd 2c21 12bc
00000310: 104d ccbd 3248 86bc e242 893d 559f 0bbd
00000320: fed9 98bc 0ed5 213e 67cc a13e 34d2 97be
00000330: 7cc0 99bd dce7 4abd 74ad db3d 8571 31bd
00000340: 88a5 d9bc 2c7b 9abd 02ec d7bc feaf fe3d
00000350: ce8a 25bd 4937 8d3e 1d22 823d 9751 ceb9
00000360: 11bd ccbc 7fdd 563e a0c0 8a3d 1b35 2fbe
00000370: 9129 c93d 5de4 283e ef64 c83e 1959 383e
00000380: 7908 96be 2b21 93be a980 8f3d 4da0 f9bb
00000390: 24cf d33d cc04 413d 961c 513c 31c0 16bd
000003a0: e0df ab3c 57f5 933d f463 9f3d a818 323d
000003b0: f6e2 c93c b47f fdbd e22e 8e3c ef1e dbbd
000003c0: 204a 41bb b859 213b 04b2 da3d c1e5 2bbe
000003d0: 5691 95bd e2f0 003e 5b6b 853e cbc3 603e
000003e0: a435 853c edbc 26be c52b a23d bd28 d0bd
000003f0: 5cf4 35bc c340 8c3d 2f91 12be 1866 633d
0.10821181 0.20002696 0.08362336 -0.23493925 -0.07428103 0.12779298 -0.038595945 -0.1292714
-0.011831434 0.057046793 0.43067783 -0.1104179 -0.02390989 -0.17551342 0.063029796 -0.06888421
-0.028384438 0.01583891 0.12544589 0.16685908 0.043993726 0.06028019 0.07811028 0.3022144
-0.17868276 0.12230557 0.091173075 -0.1399513 0.11647085 0.24724929 0.14458695 0.17316177
-0.18535733 -0.16065475 -0.14011551 0.057446994 0.075211324 -0.00024353221 -0.09149948 0.0256492
0.09819365 -0.04217914 0.108728126 0.29149047 -0.19319557 -0.33168855 -0.047974665 -0.13657445
-0.02659399 -0.11055995 0.27504504 -0.3572878 -0.10332545 0.20385367 0.13043834 0.3209692
0.17307805 -0.1485454 -0.14974886 0.058624443 0.07710682 0.19318745 -0.019882504 -0.040274844
0.012096182 -0.007974618 0.13878624 0.3521281 0.29635265 -0.24432518 -0.07691931 -0.20360096
0.110844165 0.21096273 -0.028664466 -0.23428178 -0.022051292 -0.17494735 0.05762176 0.15788206
0.34640485 0.1384309 0.13607536 -0.15004578 0.13716362 -0.049537126 -0.11250559 0.23111644
0.016127197 0.07131046 0.43563503 0.14531569 0.16599633 -0.10348665 -0.33833903 -0.03572803
0.11750273 0.0959888 0.083379626 -0.06296071 0.095423944 -0.03152221 0.04837909 0.022935987
0.09628532 -0.06140351 -0.0888601 -0.12953147 0.09860465 -0.09978123 -0.04854911 -0.03446355
-0.15045112 0.06064819 0.024565317 -0.06145194 -0.08019874 -0.016280737 0.042526025 0.09471473
-0.09024309 0.057137176 0.12927665 -0.01874484 0.014408624 -0.08473069 -0.0031547984 0.031874977
-0.020169314 0.042620726 -0.05296601 -0.012244378 0.07983848 -0.027698737 0.03458875 -0.08379508
0.029026024 0.085509464 -0.07467019 0.10872189 0.031092718 0.017455535 -0.009867845 0.0709489
-0.05300158 0.08298734 0.11834655 -0.08348832 -0.056022912 0.1548458 0.0957407 -0.11975033
0.019411935 0.087023415 0.10884095 0.074749 -0.0035015144 0.11743139 0.08087883 0.151394
-0.03511207 -0.07984553 -0.025581943 -0.04038384 0.022422805 -0.087872215 0.08384194 0.117628485
0.058687504 0.10342156 -0.10749259 0.033798117 0.0037971286 -0.049225174 -0.06983063 0.037482623
-0.018748574 -0.13014412 -0.0125434995 0.08082858 0.1400724 -0.055501543 -0.034322977 0.002875394
0.079587646 -0.05143847 -0.04861887 0.10689718 0.01319246 0.058177367 0.121842325 0.11150989
0.033958685 0.21218832 -0.048872627 -0.008919042 -0.09975636 -0.016391847 0.0670221 -0.034087498
-0.018658634 0.1580393 0.3160126 -0.2965256 -0.075074166 -0.049537525 0.10726443 -0.04332115
-0.02656819 -0.075430244 -0.026357654 0.124359116 -0.040415578 0.27581242 0.06354163 -0.0003935217
-0.024992498 0.20982932 0.067750216 -0.17110102 0.09822381 0.16493364 0.39139506 0.18002738
-0.2930334 -0.28736243 0.07006962 -0.0076179863 0.10342243 0.047123715 0.012763163 -0.03680438
0.020980775 0.07224529 0.077827364 0.043480545 0.024644356 -0.12377873 0.01735634 -0.106992595
-0.0029493645 0.0024620127 0.10678485 -0.16786863 -0.07303111 0.1259189 0.26058468 0.21949689
0.01626093 -0.16283007 0.079185046 -0.1016402 -0.011105623 0.0684829 -0.14313196 0.055517286

bias f4 [64]
00000000: 1d92 bebc 8a63 d6bc c3d6 793d 5822 fbbd
00000010: d904 463d fad1 2b3d 0ad9 913c 51dc 89bd
00000020: 21ec 3c3d f26e b9bd cf8b 40bc 80a0 3c3c
00000030: e998 773c 1b90 99bc b1dc fe3c 247f 663c
00000040: f888 9b3b 3499 a8bd 2644 b93d 41e1 10bb
00000050: 3da4 acbc 2aef 883c a0ea 913c 04d5 86bd
00000060: 81e3 8c3d 7273 85bd c833 35bd 3fd3 12bd
00000070: ae75 0b3d dc9c 83bd a365 eebc e828 793c
00000080: 5fac d33c a23c bbbb 9f84 603d 1306 9f3d
00000090: bd65 5f3d d727 8bbd 03ce b23d 8338 293c
000000a0: 7cd3 adbd 43fe a03d ce7d 623d c2b1 073d
000000b0: 12ec 8cbd c7c6 033e 723b ae3c 24f4 6b3a
000000c0: 14d8 27bb 19cc 563d a557 033d dce5 9bbd
000000d0: 26f7 6ebc be41 4dbc 0a9f 24bd 685b 91bc
000000e0: 3ece 71bd 5738 f63d 6e7b 553d 3089 a5bd
000000f0: 437e 95bd 59bc 4cbd 774f 7fbd 1759 953d
-0.023263032 -0.02617051 0.06099583 -0.1226241 0.048344467 0.041948296 0.017803688 -0.06731475
0.046123628 -0.09054364 -0.011752083 0.011512876 0.01511214 -0.018745473 0.031111093 0.014068399
0.0047465526 -0.08232346 0.090462014 -0.0022106918 -0.021074409 0.016715605 0.017812073 -0.06583598
0.068793304 -0.0651616 -0.044238836 -0.03584599 0.034047775 -0.06426403 -0.029101199 0.015207507
0.025839029 -0.005714015 0.054813977 0.077648304 0.054540385 -0.06794708 0.087307 0.010328415
-0.08487603 0.078609966 0.055295758 0.033128507 -0.06880964 0.12868796 0.02126858 0.00090009184
-0.002561097 0.052440736 0.032066006 -0.076122016 -0.014585292 -0.012527881 -0.040190734 -0.017743781
-0.05903458 0.12022465 0.052119665 -0.08082807 -0.07299473 -0.04998431 -0.062331643 0.07292383

weight f4 [8, 64]
00000000: 3719 523c dee4 e2bd f420 07be ef4d a3bd
00000010: 912e e4bc fee1 6ebd e8fe a13e dc40 22be
00000020: 5963 9cbe 8e6a 49be 0108 1bbe bd98 a63b
00000030: 8474 51be 4d78 26be e5dd af3e f019 b93e
00000040: 9e0b d33e 5572 02be 17bd cfbe 92be b0bc
00000050: 8c0b d23d 3c8b 893d ebb2 2abe a4b5 a7bd
00000060: c982 76be e796 bbbe ddb3 23bc 8a21 343d
00000070: 5aea af3d 7d51 23be 7b7b 893d 1a4d e33b
00000080: 3255 8ebd 31f6 2e3e ceec 78be 2093 d1bd
00000090: b447 1bbb 4f9c d8bd 3c4e 16be 1e61 4ebe
000000a0: 1420 8a3e 3909 013e ae72 373d ab78 90be
000000b0: 3f02 1ebe ffb7 adbd 36d8 44be a625 a03d
000000c0: 3648 35be 3c0a 5f3d 2df6 68bd 7e6d ee3a
000000d0: a376 2cbe adab da3d 2611 8cbd ed45 7dbd
000000e0: 4bcc 7e3d 3bf9 413e 384a 293e 56eb 3d3e
000000f0: f526 99bc 66ab 98bd 75fd 453c 2858 f2bb
00000100: df79 023e 158c 563e c143 da3d 521e ba3e
00000110: 2151 dfbd 136e 55be e062 29be e6bd 1dbe
00000120: d3b2 673f 5e88 19be ce4f 6d3e 43a0 f8bd
00000130: a21c 203e 60e3 563e 1205 a23e 0d76 663e
00000140: 3c1c 96be 4c5d 28be 6e8e 44be 5daa 50be
00000150: 058c 9cbd 24dd b83d dcf8 10be a25e 8f3d
00000160: d87c 92be 06ae 0b3f e38e 673e ac0e 4b3f
00000170: b6b1 323e 6370 fa3d edc0 08bf 4e9e 59be
00000180: 51f8 fc3e 6868 81bd af5c b33c 73e7 2dbe
00000190: e2d9 483b 57a0 22be 6a88 10be e14f 243f
000001a0: beb4 aa3e 9688 ccbe 8413 9dba b6bd 1b3f
000001b0: 1374 343d 7966 023f 5bc4 51be 91d0 d0bd
000001c0: 1749 923c a631 363e 4341 abbe 0139 b5bd
000001d0: efd7 463d 7ab1 d0bd 0c53 013e 737d be3d
000001e0: 66a8 a13d 4717 f13e f659 96be b624 2b3e
000001f0: 6e65 c2bd 8813 b93c b8dd e7bd 0f4d 153e
00000200: 7ebd 4cbf 7e67 bb3e 75b5 85be 766f 11bf
00000210: fb28 23bc 9cc2 a53e 6572 96be d1ca 433d
00000220: 5d46 13bf 569b 303c 12a9 00bf 856d 99bd
00000230: 890d 103e bbef e13e 7f70 06bf 349a b8be
00000240: e393 373f 9678 153e 39ea 923d 2d7b a2be
00000250: 91e7 39bd 9615 fcbe 7d4d 3abe 9377 00be
00000260: 3173 613e 6598 39bf 7937 5ebe 0640 03be
00000270: 05d6 383e c9ff cfbe 5ce8 1a3f 6eb8 d43d
00000280: fe0b b6be d565 183e 3be0 d23e ca61 413e
00000290: 35d7 44be ae5e 82be c5c8 0f3f b4c7 ffbc
000002a0: a994 82be c98b 5abe 8d2e 3cbe d60e 8dbe
000002b0: 299f b83b 3d79 823e 9809 5fba 797d 503f
000002c0: af77 a6be f13f 8bbd 62b1 b7be 7f8e 0abe
000002d0: 546d c23c 3b84 c5bc bdb3 c53c beff 273e
000002e0: 6c21 28ba fc82 d73d 401e a73e 2efd 5c3e
000002f0: 20ca 773e dae9 6bbe 85c4 713d 23ff 98be
00000300: 7fc7 76bf dff6 02be 3deb 2ebf 80be 4c3d
00000310: b900 edbd 35c5 b2be de3a e83c eb8b 723d
00000320: 2cf4 dfbe fd28 e03e 4fc2 083f e5ef 933c
00000330: 62a5 633e 3454 503e 3092 5ebf 7737 b2be
00000340: 8549 ce3d f412 37bd 30c4 c03e a3f9 633f
00000350: dc04 7abe 2914 0ebf 5ffd 8b3d 5ac1 7a3d
00000360: aaa7 683d 9cb3 223f c708 e63e 22b6 3fbe
00000370: 93b8 523e e065 fe3e 69f5 493e 6544 94bc
00000380: 976d c3be 9637 093f 7244 1a3e a01a c23e
00000390: e3f5 b23d 9c07 aa3d 2955 74bd 6c95 c33e
000003a0: 226a ee3c effb 173e 68b2 73be 4ac4 afbe
000003b0: 74ce 1a3e bf69 263f 7bdd d5be 6f0b 473e
000003c0: 9a7e bcbe 2ddc f53c c09c b3be d06f a2bd
000003d0: 1159 8e3e f6bb bcbc daa0 16be 1b5a 0dbe
000003e0: c83a 283e 7baa 99be 105b 80bd e3bd 0bbf
000003f0: 79e0 28be f067 34bd a6a7 d33c f5e8 1bbf
0.0128233945 -0.11078809 -0.13196164 -0.07973849 -0.027854236 -0.05832099 0.3163979 -0.15845054
-0.30544546 -0.19669554 -0.15139772 0.005084126 -0.20454603 -0.16256829 0.3434898 0.361526
0.412198 -0.12738927 -0.40573952 -0.021575246 0.10256109 0.0671601 -0.16669814 -0.08188942
-0.24073328 -0.36638567 -0.009991613 0.043977298 0.08589621 -0.15949054 0.06713005 0.0069366815
-0.069498435 0.17086102 -0.24309084 -0.1023314 -0.0023693861 -0.105766885 -0.14678282 -0.20154235
0.269776 0.12601174 0.0447871 -0.28217062 -0.15430544 -0.0848236 -0.19223103 0.07819681
-0.17703328 0.05445312 -0.056875397 0.001819059 -0.16842131 0.10677276 -0.06839208 -0.061834265
0.062206548 0.1894273 0.16532218 0.18546805 -0.018695334 -0.07454567 0.012084355 -0.007395763
0.12741803 0.20951875 0.10657454 0.36351258 -0.10904146 -0.20842771 -0.16541624 -0.15404472
0.9050724 -0.14993426 0.23174974 -0.121399425 0.15635923 0.20985174 0.31644493 0.2250597
-0.29318416 -0.1644184 -0.19194958 -0.20377488 -0.07643894 0.09026554 -0.14157432 0.07000472
-0.28610873 0.54562414 0.226131 0.7931926 0.17450604 0.12228467 -0.5341938 -0.21251795
0.494082 -0.06318742 0.02189478 -0.16982822 0.0030647446 -0.15881477 -0.14114538 0.64184386
0.3334102 -0.39947957 -0.0011983966 0.6083635 0.04405601 0.5093761 -0.2048506 -0.10196031
0.017857118 0.17792377 -0.33448228 -0.08848763 0.048545774 -0.10190101 0.12629336 0.09301271
0.078934476 0.47088072 -0.2936551 0.16713223 -0.094920024 0.022592321 -0.11321586 0.14580177
-0.7997664 0.36602396 -0.26115003 -0.568107 -0.009958501 0.32375038 -0.2938415 0.047800843
-0.5752924 0.0107792225 -0.5025798 -0.07491592 0.14067663 0.44128212 -0.52515405 -0.36055148
0.7171003 0.14596781 0.07173581 -0.317346 -0.045386855 -0.4923522 -0.18193622 -0.12545614
0.22016598 -0.7249816 -0.21700849 -0.12817392 0.18050392 -0.40624836 0.605108 0.1038674
-0.35556024 0.14882596 0.411867 0.1888496 -0.1922272 -0.2546286 0.56165725 -0.031223156
-0.25504044 -0.21342386 -0.18377133 -0.2755038 0.0056342077 0.25483122 -0.00085082045 0.81441456
-0.32513186 -0.06799305 -0.3587752 -0.1353092 0.023733772 -0.024110904 0.024133557 0.16406152
-0.00064136717 0.1052303 0.32640266 0.21580955 0.24198198 -0.23038426 0.059025306 -0.29882154
-0.96398157 -0.12789486 -0.68327695 0.049986362 -0.115724035 -0.34916082 0.028348383 0.059215467
-0.43740976 0.43781272 0.5342149 0.018058727 0.22231057 0.20344621 -0.86941814 -0.3480794
0.100726165 -0.04469581 0.3764968 0.8905279 -0.24415916 -0.5549951 0.06835436 0.06121955
0.056800522 0.6355531 0.44928572 -0.18721822 0.20578222 0.496871 0.19722523 -0.01809902
-0.38169548 0.5360044 0.15065172 0.37910938 0.087383054 0.083022326 -0.059651528 0.38199937
0.029103342 0.14842199 -0.23798525 -0.34329444 0.15117818 0.65005106 -0.4177054 0.19437955
-0.3681534 0.030012215 -0.35080528 -0.07931483 0.27802327 -0.023038846 -0.14709798 -0.13803904
0.16428673 -0.3001288 -0.06267369 -0.5458662 -0.1649188 -0.044044435 0.025836777 -0.6090234

bias f4 [8]
00000000: 4ca1 933b 764b 1d3e 027c d9bd 212e 7c3d
00000010: 4097 63bb 218b ac3a b2b9 4ebc a03a 1a3d
0.004505312 0.15360817 -0.10619356 0.06156743 -0.0034727603 0.0013164022 -0.012617515 0.037653565
