model-doom3.pth (torch, 77325 bytes, 27 tensors)

weight f4 [8, 1, 3, 3]
0	0x3ca95ade	0.020673212
1	0xbf329a11	-0.69766337
2	0x3f625ac3	0.8841974
3	0x3cf7320d	0.030175233
4	0xc00c2468	-2.189722
5	0xbe1fc114	-0.15600997
6	0x3f0b9f4d	0.5453995
7	0xbfc13544	-1.509438
8	0x3ecde06b	0.4021028
9	0x3df1c5f0	0.11805332
10	0xbefdda69	-0.49580696
11	0xbe492eea	-0.19646803
12	0xbfd539c1	-1.665825
13	0x3fc3a6ba	1.5285256
14	0xbfb0eabc	-1.3821635
15	0xbfc880d9	-1.5664321
16	0x3fbd07d7	1.4768018
17	0xbd8caf2a	-0.068693474
18	0x3d374a9b	0.044748884
19	0x3edb51d6	0.42835873
20	0xbf50419f	-0.8135013
21	0x3f34acbc	0.7057607
22	0xbeddd28d	-0.433247
23	0xbfaecb0f	-1.3655719
24	0xbfa2c2f1	-1.2715741
25	0xbe8bb50c	-0.27286565
26	0x3f0f41ed	0.5595997
27	0x3e117dd8	0.14208162
28	0xbc24b0b9	-0.0100519
29	0x3dd559a6	0.1041749
30	0x3edfc9fd	0.43708792
31	0x3e958977	0.2920644
32	0xbe560fb0	-0.20904422
33	0x3ea580b9	0.3232477
34	0x3f18d6fd	0.59703046
35	0x3df0b874	0.11753932
36	0x3f15f7e6	0.5858139
37	0x3f3b15d5	0.7308019
38	0x3e64957a	0.22322646
39	0xc007a550	-2.1194649
40	0xbf976676	-1.1828144
41	0xbfc25425	-1.5181929
42	0x3d8ae268	0.06781465
43	0x3f194beb	0.59881467
44	0x3edabfc2	0.42724425
45	0xbe39b611	-0.18135859
46	0xbec522f1	-0.3850322
47	0xbe2d601e	-0.16931197
48	0x3f38ee41	0.72238547
49	0x3f9425f5	1.1574084
50	0x3efc5533	0.49283752
51	0x3c6c42af	0.0144201955
52	0x3ed114a7	0.4083607
53	0xbf0f0306	-0.5586399
54	0x3e8d66cc	0.2761749
55	0x3e4836c0	0.19552135
56	0xbd74a818	-0.05973062
57	0xbf6598f4	-0.8968651
58	0x3f924599	1.142749
59	0x3eb53b29	0.35396698
60	0xbec45670	-0.38347197
61	0xbfd00e2b	-1.6254324
62	0xbf689f36	-0.90867937
63	0xbf01f191	-0.50759226
64	0x3f56f9db	0.83975
65	0x3ee1c2a0	0.440938
66	0x3ef74409	0.48294094
67	0x3bd90e45	0.0066240155
68	0xbeadd5b8	-0.33952117
69	0xbe173a9a	-0.14768448
70	0x3f47695b	0.77895135
71	0xbedca151	-0.43091825

weight f4 [8]
0	0x400aeed0	2.170826
1	0x4003fb05	2.062196
2	0x3fd61535	1.6725222
3	0x3f18d438	0.5969882
4	0x3fff573d	1.9948498
5	0x3f632324	0.88725495
6	0x3fe4ed49	1.7884914
7	0x3f4f4985	0.80971557

bias f4 [8]
0	0xbf893d26	-1.0721786
1	0xbf3a5c09	-0.72796685
2	0xbf2cafd4	-0.6745579
3	0xbed1fdcd	-0.41013947
4	0xbf8f9f8e	-1.1220567
5	0xbf0172b0	-0.50565624
6	0xbf4c939c	-0.79912734
7	0xbeb850d6	-0.35999173

running_mean f4 [8]
0	0xbf2c8a46	-0.6739849
1	0xbf119691	-0.5687037
2	0xbf1d6758	-0.61485815
3	0x3eea5ab4	0.45772326
4	0xbf0b8bb1	-0.5451003
5	0x3ec11c69	0.37716988
6	0xbeffe3e3	-0.4997855
7	0x3e90af18	0.28258586

running_var f4 [8]
0	0x3d61cfee	0.055129938
1	0x3d106dfe	0.035261147
2	0x3d1d4e6a	0.03840486
3	0x3caa945a	0.020822693
4	0x3d26dcfd	0.040738095
5	0x3c95a150	0.018265396
6	0x3d0c8e85	0.034315605
7	0x3c16cf5d	0.009204713

weight f4 [8, 8, 3, 3]
0	0xbee54ad0	-0.4478364
1	0xbe8d99c0	-0.27656364
2	0x3cae96c0	0.021312118
3	0xbf7c2b9d	-0.9850405
4	0x3ef47895	0.47748247
5	0xbf135683	-0.5755388
6	0xbf2ef5c3	-0.6834375
7	0x3f57b709	0.84263664
8	0xbec86f35	-0.39147344
9	0xbda683d7	-0.08130615
10	0xbeffcbdf	-0.4996023
11	0x3f0eb8df	0.5575084
12	0x3f170256	0.5898794
13	0xbed6956f	-0.41910884
14	0x3ed1b985	0.40961853
15	0x3f461ff5	0.7739251
16	0xbd9d0ab7	-0.07668059
17	0x3e9553db	0.2916554
18	0xbe4d03eb	-0.20021026
19	0xbed58289	-0.41701153
20	0x3f016548	0.5054517
21	0x3d7accf6	0.061230622
22	0x3eecb1bd	0.46229354
23	0x3bf134e4	0.0073610414
24	0x3cacc8de	0.021091875
25	0xbe02c4df	-0.12770413
26	0x3e2598ba	0.16171542
27	0x3e400a93	0.18754034
28	0x3e0517c4	0.12997347
29	0x3dc0550d	0.09391222
30	0xbea1455e	-0.31498235
31	0x3de05b24	0.10954884
32	0xbdac6f7f	-0.08419704
33	0xbedb1bf2	-0.42794758
34	0xbcfa8581	-0.030581238
35	0x3c0791a1	0.008274467
36	0x3d929a50	0.07158339
37	0xbef509da	-0.4785908
38	0x3eba1dba	0.36350805
39	0xbf0a699e	-0.5406741
40	0xbe59a0e1	-0.21252777
41	0x3e3f6410	0.18690515
42	0x3e792087	0.24328814
43	0xbee57e90	-0.44823122
44	0xbe04424c	-0.12915915
45	0x3ea1ca29	0.31599548
46	0x3eba4dcb	0.36387476
47	0x3ecb0ec6	0.3965971
48	0xbf3b3ffd	-0.73144513
49	0x3c60f1e1	0.013729543
50	0xbe23ee29	-0.1600882
51	0xbe36f2d2	-0.17866066
52	0xbec61bee	-0.38693184
53	0xbdc54fe3	-0.09634378
54	0xbef34a3c	-0.47517574
55	0xbf208230	-0.6269865
56	0xbef01ef7	-0.46898624
57	0x3ef12c85	0.47104278
58	0xbd87d6a5	-0.06632737
59	0xbf2ca6c8	-0.6744199
60	0xbea68fa5	-0.32531467
61	0x3f135946	0.57558095
62	0x3c992c21	0.0186978
63	0x3e32c21b	0.17456858
64	0x3e344626	0.17604885
65	0x3e03d459	0.12873973
66	0xbf30db99	-0.6908508
67	0x3ec5095f	0.38483712
68	0xbdec7309	-0.11545379
69	0xbd1be312	-0.038058348
70	0x3d3b6181	0.045747284
71	0xbd827b89	-0.06371219
72	0xbf51a7c7	-0.8189663
73	0xbf04ef56	-0.519277
74	0x3f6fa98f	0.936181
75	0xbecff771	-0.4061847
76	0x3ecb45b6	0.39701623
77	0x3c4f22de	0.01264259
78	0xbf24e1b2	-0.64406884
79	0x3ef4fa9a	0.47847444
80	0x3cca4ea8	0.02469571
81	0xbf2076bf	-0.6268119
82	0x3f839815	1.0280787
83	0xbeeea803	-0.46612558
84	0xbe04f5ce	-0.12984392
85	0xbdd2c99e	-0.10292362
86	0x3ea89b61	0.32931045
87	0xbe371220	-0.17878008
88	0x3ef46dcb	0.47740015
89	0xbe3a594f	-0.18198131
90	0xbf418e68	-0.7560792
91	0x3f08f39a	0.53496706
92	0xbe0e40d2	-0.13891914
93	0xbf377254	-0.71658826
94	0x3ea3c512	0.3198629
95	0x3edb41ee	0.42823738
96	0x3dc8558d	0.097819425
97	0xbedb4e87	-0.4283335
98	0x3e8f771e	0.28020567
99	0xbe1ac5f8	-0.15114582
100	0xbde6eed7	-0.11276024
101	0xbeab06ac	-0.33403528
102	0xbd3b6409	-0.045749698
103	0x3e12f06c	0.14349526
104	0x3ccb0e00	0.02478695
105	0xbd748b0f	-0.05970293
106	0x3ecb8773	0.39751777
107	0xbda6186f	-0.08110129
108	0xbf0aab5e	-0.54167736
109	0x3ea6d624	0.3258525
110	0x3d4e754c	0.05040483
111	0xbf013f19	-0.50486904
112	0xbdbc530b	-0.09195527
113	0xbec750c8	-0.3892882
114	0xbe78f99e	-0.24313971
115	0x3f066d98	0.52510977
116	0xbefb4909	-0.4907916
117	0xbdde1274	-0.108433634
118	0xbe40c42f	-0.18824838
119	0xbeca6a18	-0.39534068
120	0x3e2e88cf	0.17044376
121	0x3ea500be	0.3222713
122	0x3f3b11dd	0.7307413
123	0xbe898a06	-0.26863116
124	0x3ee35af4	0.4440533
125	0xbf2b9620	-0.6702595
126	0xbeb8ba2c	-0.36079538
127	0x3ea02e3f	0.31285283
128	0x3f0db38e	0.55352104
129	0xbf365a78	-0.71231794
130	0x3dd52344	0.10407117
131	0x3c1b03c5	0.009461348
132	0xbf0164bb	-0.5054433
133	0x3f421cf5	0.75825435
134	0xbecc63ff	-0.3992004
135	0xbe005959	-0.12534083
136	0xbefbd201	-0.49183658
137	0xbdcd9d44	-0.10039762
138	0xbf21ac98	-0.6315398
139	0xbe8d86a0	-0.27641773
140	0x3dbdd73c	0.09269568
141	0xbd3adeb1	-0.04562253
142	0x3e2e0ab4	0.1699627
143	0x3e04f333	0.12983398
144	0x3e972109	0.2951739
145	0xbf37053d	-0.7149237
146	0xbe70d852	-0.2352002
147	0x3f2f1034	0.683841
148	0x3e9489e5	0.29011455
149	0x3df294dc	0.11844799
150	0x3f2ee1f6	0.6831354
151	0x3dcf6ebf	0.10128545
152	0x3cef098b	0.029179355
153	0xbf865eea	-1.0497715
154	0xbecc793f	-0.39936253
155	0x3e80ddac	0.25169122
156	0xbe9cb2b1	-0.3060508
157	0xbecebbc7	-0.40377638
158	0x3e58ae76	0.21160302
159	0x3f0ee237	0.55813926
160	0x3e61c53c	0.22047895
161	0x3f08e510	0.5347452
162	0xbd649716	-0.05580815
163	0xbebe54fc	-0.37174213
164	0xbe133cfc	-0.14378732
165	0xbe2dd53d	-0.16975875
166	0x3eaa7a6a	0.3329652
167	0x3eaaeaa3	0.3338214
168	0x3f5c864a	0.8614241
169	0x3d257adf	0.040400382
170	0x3dcf7628	0.101299584
171	0x3cecc70b	0.028903505
172	0xbdeebf70	-0.116576076
173	0xbd40a9ec	-0.04703705
174	0xbd3d6cca	-0.046246327
175	0x3db45e95	0.088071026
176	0xbd360aad	-0.044443775
177	0xbee1b39a	-0.44082338
178	0x3e5c9072	0.21539477
179	0xbdafb955	-0.08580271
180	0xbe542403	-0.20716862
181	0xbef5b9b0	-0.4799323
182	0xbe1254d7	-0.14290176
183	0xbf675a1b	-0.90371865
184	0x3f076a5e	0.5289668
185	0x3eac4265	0.33644405
186	0x3f742a16	0.9537672
187	0x3e9f6921	0.31134894
188	0xbd9d43f4	-0.07678977
189	0xbdaa61d3	-0.0831944
190	0xbe660247	-0.22461806
191	0xbb3b5c0d	-0.0028588802
192	0xbe0813b2	-0.13288763
193	0x3ea01ab4	0.31270373
194	0x3d801c7d	0.06255434
195	0xbed95f4e	-0.42455524
196	0x3eaf30e0	0.34216976
197	0x3a45d8ae	0.00075472414
198	0xbdd57675	-0.104229845
199	0xbe387199	-0.18012084
200	0xbe894d4c	-0.26816785
201	0x3ec22dde	0.3792562
202	0xbe9b956a	-0.3038743
203	0x3eb588fb	0.3545607
204	0xbea9296c	-0.33039415
205	0x3f878973	1.0588821
206	0xbf16127c	-0.58621955
207	0xbd00449a	-0.031315424
208	0xbc5e4b95	-0.013567825
209	0x3e8233c1	0.2543011
210	0xbe89168c	-0.26775014
211	0xbd911bbf	-0.0708537
212	0x3e22ccc2	0.15898421
213	0xbec1b93d	-0.37836638
214	0xbe0a4c2c	-0.1350562
215	0xbc06a84b	-0.008218835
216	0x3ed48a81	0.4151192
217	0x3dab31cf	0.083591096
218	0x3d102b14	0.035197333
219	0xbf0e97ca	-0.5570036
220	0xbdbb5410	-0.09146893
221	0xbe0a9189	-0.1353208
222	0xbe0447a2	-0.12917951
223	0x3e56a054	0.20959598
224	0x3c9750bf	0.01847112
225	0xbf22ce34	-0.6359589
226	0xbe954e62	-0.29161364
227	0xbe4f557c	-0.20247453
228	0x3fab4a3c	1.338203
229	0x3f8b73dd	1.0894734
230	0x3e06c48c	0.13160914
231	0xbd4f3ff5	-0.050598104
232	0xbe98ef49	-0.2987006
233	0xbf4e978e	-0.80700004
234	0x3dc5d782	0.096602455
235	0x3ebc4a79	0.36775568
236	0x3db275b2	0.08713855
237	0x3f7857a2	0.9700872
238	0xbd9d34ba	-0.076760724
239	0xbee1e142	-0.4411717
240	0x3e95288f	0.29132506
241	0xbd8f37e0	-0.06993079
242	0xbebc5db9	-0.36790255
243	0x3c15ed38	0.009150796
244	0xbdcf66b8	-0.10127014
245	0xbbd90895	-0.0066233375
246	0xbdca6266	-0.09882049
247	0xbda27fe9	-0.07934553
248	0x3d5302d5	0.051516373
249	0xbe2b5080	-0.16729927
250	0x3dcf03a9	0.1010812
251	0x3dbfe36d	0.0936955
252	0xbe90ef5d	-0.2830762
253	0xbed8474c	-0.42241895
254	0xbdae835f	-0.08521151
255	0x3df8a541	0.12140895

weight f4 [8]
0	0x3fb3a176	1.4033649
1	0x3fa9f7ab	1.3278707
2	0x3f9f5af4	1.2449632
3	0x3fba0c22	1.4534953
4	0x3ff35a71	1.9011976
5	0x3fae2c47	1.3607262
6	0x3fabb674	1.3415055
7	0x3fae45a0	1.3614998

bias f4 [8]
0	0xbe91228f	-0.2834668
1	0xbef0ebc4	-0.47054875
2	0xbe46ea89	-0.19425406
3	0xbeac3723	-0.33635816
4	0xbed6e577	-0.41971943
5	0xbeefc041	-0.46826366
6	0xbf014070	-0.5048895
7	0xbe5f02e6	-0.2177845

running_mean f4 [8]
0	0xbf513272	-0.817176
1	0xbf5ae56c	-0.8550632
2	0x3e69a8bd	0.22818275
3	0x3f613194	0.87966275
4	0xbea4dfd5	-0.3220202
5	0xbecc761e	-0.39933866
6	0xc03e9c45	-2.978288
7	0xbedb8dc2	-0.4288159

running_var f4 [8]
0	0x4002672e	2.0375476
1	0x3ff63240	1.9234085
2	0x40914bbc	4.540495
3	0x402643ac	2.5978804
4	0x40b8a525	5.7701592
5	0x400748ff	2.1138303
6	0x4047a161	3.1192248
7	0x403278bd	2.7886193

weight f4 [8, 8, 3, 3]
0	0xbddb9ac5	-0.10722879
1	0xbe42bf55	-0.190183
2	0x3f072aa9	0.5279947
3	0x3e2214d0	0.15828252
4	0xbeb702f9	-0.35744455
5	0xbe413b43	-0.18870263
6	0xbebe4f97	-0.37170097
7	0xbe3f8493	-0.18702917
8	0xbeae1836	-0.34002846
9	0xbec8895f	-0.39167306
10	0xbf47d3d9	-0.7805763
11	0xbee1d7cd	-0.44109955
12	0x3c4396c2	0.011937799
13	0xbf638171	-0.88869387
14	0x3e9057e1	0.28192046
15	0xbeb575c0	-0.354414
16	0x3e0223cd	0.1270897
17	0xbf3f006d	-0.74610025
18	0xbf22c77c	-0.6358564
19	0x3f22efc2	0.6364709
20	0xbf221923	-0.63319606
21	0x3db9251e	0.09040283
22	0xbefc007c	-0.4921912
23	0x3ebf8c24	0.37411606
24	0x3e4ef562	0.20210794
25	0xbdb3cc3e	-0.087791905
26	0xbe0ffc15	-0.14061005
27	0xbe1a3595	-0.15059502
28	0xbf422ae6	-0.7584671
29	0x3e20fa98	0.15720594
30	0xbe8ca9b9	-0.27473238
31	0x3eb0291d	0.34406367
32	0x3e5e3099	0.21698226
33	0xbeb47ea1	-0.3525286
34	0xbebde236	-0.37086648
35	0xbd74351b	-0.059620958
36	0xbf13c47b	-0.5772168
37	0x3ed76370	0.42068052
38	0x3f3b1fd9	0.7309547
39	0xbee0e912	-0.4392782
40	0x3e2146e1	0.15749694
41	0x3f3b8c7c	0.7326124
42	0xbf7c7cd4	-0.9862797
43	0x3ee3f711	0.44524434
44	0x3e92f2c7	0.2870085
45	0x3eb53c66	0.35397643
46	0xbde1eb6e	-0.11031233
47	0x3d667c99	0.05627117
48	0x3ee4ac47	0.44662687
49	0xbd92cf3b	-0.07168432
50	0x3f22ca56	0.6358999
51	0x3dc52c4b	0.09627589
52	0xbedd3f93	-0.43212566
53	0x3d1edb70	0.03878349
54	0x3e01ffab	0.12695186
55	0x3eb220b9	0.3479059
56	0x3bbd4545	0.00577608
57	0xbddd6e8e	-0.10812102
58	0xbe99c9cb	-0.30036768
59	0x3db840eb	0.08996757
60	0x3e4ddb0e	0.20103094
61	0x3e049f11	0.12951304
62	0xbc469088	-0.01211942
63	0xbe1a7402	-0.15083316
64	0xbd8a6a5e	-0.06758569
65	0x3d82dd82	0.063899055
66	0xbd277e87	-0.04089215
67	0x3e62005a	0.22070447
68	0xbde14bbe	-0.11000775
69	0x3e436ae0	0.19083738
70	0x3e2871f0	0.16449714
71	0xbd417c8f	-0.04723793
72	0x3d8ea812	0.069656506
73	0x3e372391	0.17884661
74	0xbe2a3eae	-0.16625473
75	0xbe9fcac9	-0.312094
76	0x3f54ada2	0.8307744
77	0xbf18a4b7	-0.59626335
78	0x3ebe4fbd	0.3717021
79	0xbe46cdf8	-0.19414508
80	0xbe5a3a3c	-0.21311277
81	0x3ddbecc4	0.10738519
82	0x3e825fbe	0.2546367
83	0xbe3bba13	-0.183327
84	0xbe1a70ca	-0.15082088
85	0x3ebb01f3	0.36524925
86	0xbc94c9aa	-0.018162567
87	0xbed3365f	-0.4125242
88	0x3e7237f5	0.23654158
89	0x3b1e7d36	0.0024183518
90	0x3f171a02	0.5902406
91	0xbf4f893d	-0.81068784
92	0xbf3a9d4e	-0.7289628
93	0xbe219d3a	-0.15782633
94	0x3e95e569	0.2927659
95	0x3ed2f8f3	0.41205558
96	0xbf6216ad	-0.8831585
97	0xbea910e8	-0.3302071
98	0x3e41dc6c	0.1893174
99	0xbe0ae563	-0.13564067
100	0x3f462cda	0.7741219
101	0xbf3d9933	-0.7406189
102	0x3eba59f9	0.3639677
103	0x3f63de27	0.8901085
104	0x3d943cdb	0.0723817
105	0xbcad8a89	-0.021184223
106	0xbecbcb5a	-0.39803582
107	0xbe7ecd95	-0.24883111
108	0x3e7a442d	0.2444007
109	0xbf3ff29a	-0.74979556
110	0xbf4555cf	-0.7708406
111	0xbda600c8	-0.08105618
112	0x3e3d30dc	0.1847567
113	0xbe0d577f	-0.13802908
114	0xbe4e6d1d	-0.20158811
115	0xbeed88d4	-0.46393454
116	0x3f593a99	0.8485504
117	0x3f4db45a	0.8035332
118	0x3a9ae5ef	0.0011817793
119	0xbdf572c1	-0.11984778
120	0x3f131384	0.57451653
121	0xbf3196c8	-0.693707
122	0x3e6d83fe	0.23194882
123	0xbec128b7	-0.37726375
124	0x3e490794	0.19631797
125	0xbd7384f0	-0.05945295
126	0xbe8af3ab	-0.2713903
127	0x3eb7ae29	0.3587506
128	0x3cc198e6	0.023632478
129	0xbecc297a	-0.39875394
130	0xbe2e5335	-0.17023928
131	0xbec0901f	-0.37609956
132	0x3e0f9289	0.14020742
133	0xbeeeccd6	-0.46640652
134	0x3dff07ca	0.124526575
135	0xbea06b71	-0.3133197
136	0xbe83262c	-0.2561506
137	0x3dd4b61e	0.103862986
138	0xbdbf7e3f	-0.093502514
139	0x3ee99f61	0.4562941
140	0xbeb2e539	-0.34940508
141	0x3e8caf37	0.27477428
142	0xbe61beef	-0.22045492
143	0x3d726a2f	0.059183296
144	0xbea3aca9	-0.31967667
145	0xbd93bab3	-0.072133444
146	0x3e61ca7b	0.22049896
147	0x3e7eceb7	0.24883543
148	0xbe0156e3	-0.12630801
149	0xbea55be1	-0.3229666
150	0xbec5b7c8	-0.38616776
151	0xbe541a0b	-0.2071306
152	0x3f2e69e8	0.6813035
153	0xbdcf7709	-0.10130126
154	0xbcbae8a0	-0.022816002
155	0x3f412847	0.75452083
156	0x3ebbf497	0.36710045
157	0xbf723462	-0.9461118
158	0xbebcec57	-0.36899063
159	0x3f35009a	0.7070404
160	0xbc108d48	-0.008822747
161	0xbdc7aa97	-0.09749334
162	0x3f083f65	0.5322173
163	0xbdb26e46	-0.08712439
164	0x3e328902	0.17435077
165	0xbf1529fd	-0.58267194
166	0xbf37029b	-0.7148835
167	0xbea68f91	-0.32531407
168	0x3d61de59	0.055143688
169	0x3e42e622	0.19033101
170	0x3f101de3	0.56295604
171	0x3ef30ca6	0.47470587
172	0x3db5ac97	0.088708095
173	0x3f25eb7b	0.6481244
174	0xbf08e091	-0.5346766
175	0x3e731a7a	0.23740569
176	0xbe9474ad	-0.28995267
177	0xbee25f3e	-0.4421329
178	0x3db59ccf	0.088677995
179	0x3d961722	0.07328631
180	0xbe72d0a8	-0.23712409
181	0xbe84590f	-0.25849196
182	0x3ec116d0	0.37712717
183	0x3e86e117	0.26343605
184	0x3e088abf	0.13334177
185	0xbf79f7eb	-0.9764392
186	0xbdb89f3e	-0.09014748
187	0xbe3613f5	-0.1778105
188	0xbf441da2	-0.76607716
189	0x3f40b532	0.7527648
190	0xbf5504fc	-0.8321073
191	0x3ecabaff	0.39595792
192	0xbf1a558e	-0.60286796
193	0x3e7fd00b	0.24981706
194	0xbe1b2b44	-0.15153223
195	0xbf353191	-0.7077876
196	0x3cfaded7	0.030623836
197	0xbecf0cda	-0.40439492
198	0xbf2ad07d	-0.6672438
199	0xbe9a198b	-0.30097613
200	0xbf36d042	-0.71411526
201	0xbf114025	-0.567385
202	0xbe42beaa	-0.19018045
203	0x3e1156fb	0.14193337
204	0xbdb00b65	-0.08595923
205	0xbf4c612b	-0.79835767
206	0xbe9de074	-0.30835307
207	0x3da57b59	0.08080167
208	0x3e0a20e7	0.13489114
209	0xbf0ed4cd	-0.5579346
210	0xbdf6344a	-0.12021692
211	0x3e98ca14	0.29841673
212	0xbeb091c9	-0.34486225
213	0x3f0cfe9f	0.5507602
214	0xbca0338e	-0.019555833
215	0x3f43d79a	0.76500857
216	0x3e1dc057	0.15405403
217	0xbd3df7a0	-0.04637873
218	0x3e668c36	0.22514424
219	0x3e1d2e79	0.15349759
220	0xbd0591a5	-0.0326096
221	0xbd28fbdf	-0.041255828
222	0x3e37e7c5	0.17959507
223	0xbe94cea8	-0.29063916
224	0xbf7d61b4	-0.9897721
225	0x3e22dacb	0.15903775
226	0xbe145c28	-0.1448828
227	0xbf3caa0f	-0.7369699
228	0xbe3a478f	-0.1819136
229	0x3ca1a051	0.019729765
230	0xbf269477	-0.6507029
231	0xbd5e2df2	-0.054243036
232	0xbe6c1ab0	-0.23057055
233	0xbeb605ab	-0.355512
234	0xbe556e43	-0.20842843
235	0x3edb7f3e	0.42870516
236	0xbe24fada	-0.16111317
237	0x3f321258	0.6955924
238	0x3e59d16a	0.21271291
239	0xbe536780	-0.20644951
240	0x3e5cb151	0.21552016
241	0xbdcbaa4a	-0.099445894
242	0xbe3147c6	-0.17312536
243	0xbd0c544f	-0.03426009
244	0x3f12f602	0.5740663
245	0xbf037511	-0.51350504
246	0xbf0aa455	-0.54157
247	0xbf15025a	-0.58206713
248	0xbeca7a18	-0.39546275
249	0x3cc79ebb	0.02436768
250	0x3e5c4b66	0.21513137
251	0x3ecd40c7	0.40088484
252	0x3e93f4ab	0.28897604
253	0x3e453d23	0.19261603
254	0xbf29178e	-0.66051567
255	0xbe7f9356	-0.24958548

weight f4 [8]
0	0x3fa4541a	1.2838166
1	0x3f9d62be	1.2295759
2	0x3fb48917	1.4104337
3	0x3fa3c729	1.2795154
4	0x3fae306d	1.3608528
5	0x3f9d1879	1.2273093
6	0x3fb7283e	1.4309156
7	0x3fac63fd	1.3468014

bias f4 [8]
0	0xbf3bffd0	-0.73437214
1	0xbf1073f4	-0.5642693
2	0xbf2efba6	-0.68352735
3	0xbf57794a	-0.8416945
4	0xbf794fb9	-0.9738727
5	0x3d5ae9ea	0.053445734
6	0xbf880c9b	-1.0628847
7	0xbecf3444	-0.40469563

running_mean f4 [8]
0	0xbfaefbb4	-1.3670564
1	0xbf98a281	-1.1924592
2	0xbfd317f8	-1.649169
3	0xc0643f27	-3.5663545
4	0xbf887699	-1.0661193
5	0xc0a08208	-5.015873
6	0xbf9b929b	-1.2154115
7	0xbfde7590	-1.7379627

running_var f4 [8]
0	0x40963d25	4.694964
1	0x40e45113	7.1348968
2	0x40dd7d28	6.921528
3	0x40b282fc	5.5784893
4	0x40f2771b	7.5770392
5	0x4109ac7d	8.604611
6	0x40e91553	7.283853
7	0x411ab59b	9.669337

weight f4 [16, 8, 3, 3]
0	0x3de78160	0.11303973
1	0x3e87069c	0.2637223
2	0x3ed2593a	0.410837
3	0xbe5d5400	-0.21614075
4	0xbe8ae14b	-0.2712501
5	0xbdbc72d3	-0.092015885
6	0xbabce2d4	-0.0014410862
7	0xbe1fd42c	-0.15608281
8	0xbe35e1e5	-0.17761953
9	0x3ef281d9	0.4736469
10	0xbea8d1ae	-0.32972473
11	0xbf16f868	-0.5897279
12	0x3f1fb315	0.6238263
13	0x3d073dd9	0.033017967
14	0x3f0f85c9	0.56063515
15	0xbe91c617	-0.28471443
16	0xbe36935e	-0.17829654
17	0x3edf9896	0.436711
18	0xbdfadf7b	-0.12249657
19	0x3e038a8f	0.12845825
20	0x3e5b1ff5	0.2139891
21	0xbc381ce2	-0.011237355
22	0xbe3c2bd1	-0.1837609
23	0xbf0c020d	-0.5469063
24	0xbf0d809a	-0.55274355
25	0x3ed69bd7	0.4191577
26	0x3e451a30	0.19248271
27	0x3e59a0ac	0.21252698
28	0xbeca9646	-0.39567775
29	0x3cdeebd8	0.027212068
30	0xbe590804	-0.21194464
31	0xbe2466fa	-0.16054907
32	0x3eb6a66d	0.35673848
33	0xbf2e9a55	-0.6820424
34	0x3daabf62	0.083372846
35	0xbed409d5	-0.4141375
36	0xbdb528f7	-0.08845704
37	0x3d51a2c9	0.051180635
38	0xbe9e0ae8	-0.30867696
39	0x3dba642b	0.09101137
40	0xbe65826f	-0.22413038
41	0xbecb196f	-0.39667842
42	0xbf0fed3e	-0.5622138
43	0xbef17d45	-0.47165886
44	0x3d5c5535	0.053792197
45	0xbf2d0061	-0.67578703
46	0x3bddedd2	0.006772735
47	0x3d9441f3	0.07239141
48	0xbe59d173	-0.21271305
49	0xbdb92f7a	-0.090422586
50	0x3ecbdfec	0.39819276
51	0x3ef8ce20	0.4859476
52	0xbc03ce3d	-0.0080447765
53	0xbeac5685	-0.3365976
54	0xbda07ee6	-0.07836704
55	0xbe919e0d	-0.28440896
56	0x3f29c884	0.6632159
57	0xbe0df6de	-0.13863704
58	0xbe585d1b	-0.21129267
59	0x3d1b9315	0.037982065
60	0xbda3c7b2	-0.07997073
61	0xbc927d77	-0.017882092
62	0xbd5f54d9	-0.054524276
63	0xbeb82353	-0.3596445
64	0x3e256882	0.16153148
65	0xbe7ea79f	-0.2486863
66	0xbe636e65	-0.22210081
67	0xbe784791	-0.2424605
68	0xbd96a8f3	-0.07356443
69	0xbe830f14	-0.2559744
70	0x3e06a385	0.13148315
71	0xbc9b0b60	-0.018926322
72	0xbe9e6a6d	-0.3094057
73	0xbe981d45	-0.2970983
74	0xbee9ea94	-0.4568678
75	0xbde31bd2	-0.11089291
76	0xbe62871c	-0.22121853
77	0xbd67d2d8	-0.05659756
78	0xbe503473	-0.20332508
79	0x3e9c43bb	0.30520424
80	0x3e765b91	0.24058367
81	0x39b04fa8	0.00033628684
82	0x3d0702dd	0.032961715
83	0x3daa8c9d	0.08327601
84	0xbb2ce0ca	-0.0026379102
85	0x3db47eba	0.08813234
86	0xbeb4eb34	-0.35335696
87	0x3cbc2758	0.02296798
88	0x3dbe9f35	0.0930771
89	0x3d32347f	0.043507095
90	0xbec662b1	-0.3874717
91	0xbdcc8540	-0.09986353
92	0x3eb07e65	0.3447143
93	0x3d197a3b	0.037470084
94	0xbf055991	-0.5208979
95	0x3cd29784	0.025707014
96	0x3e7d3d18	0.24730337
97	0xbe062a76	-0.13102135
98	0xbe36385e	-0.1779494
99	0x3d6020f7	0.054718938
100	0xbe909756	-0.2824046
101	0xbe4fa495	-0.20277627
102	0xbdb7e01f	-0.089782946
103	0xbe1e372d	-0.15450735
104	0xbeb58455	-0.35452524
105	0x3d8476e5	0.0646799
106	0x3e0fab9d	0.14030309
107	0xbe6661ac	-0.22498196
108	0x3d4d9a94	0.050196245
109	0xbe164d1f	-0.14677857
110	0xbe622ce3	-0.22087435
111	0xbf39a472	-0.7251655
112	0xbeae1886	-0.34003085
113	0xbe567541	-0.20943166
114	0x3e9ef8b5	0.31049123
115	0x3c48c2dc	0.012253489
116	0x3d992a95	0.07478825
117	0xbe9ede4c	-0.31028974
118	0x3ec13c75	0.37741438
119	0x3c87290d	0.016499067
120	0x3eb6c6fa	0.35698682
121	0xbeab599c	-0.33466804
122	0xbe52d12f	-0.2058761
123	0xbd30a63c	-0.043127283
124	0x3da1b688	0.07896143
125	0xbeac3083	-0.33630762
126	0x3e811ab6	0.2521569
127	0x3e7239a2	0.23654798
128	0xbe0b4e11	-0.13603999
129	0xbe7d7551	-0.24751784
130	0x3e938066	0.28808898
131	0x3e680c96	0.22661051
132	0xbd4045cc	-0.046941563
133	0xbe8064d6	-0.25076932
134	0xbd9b187c	-0.075730294
135	0x3e5f0736	0.21780095
136	0x3e6bf351	0.23042037
137	0x3e7bb285	0.24579819
138	0x3dd8b843	0.1058202
139	0x3e96471d	0.2935113
140	0x3ee17655	0.44035593
141	0x3e163349	0.14668001
142	0x3db34291	0.08752931
143	0xbe93df3a	-0.28881246
144	0xbe8c812d	-0.27442303
145	0xbec0a05d	-0.37622347
146	0xbca560f1	-0.020187827
147	0x3e1a48cd	0.15066834
148	0xbea7a0f5	-0.32739988
149	0x3e92f1a0	0.2869997
150	0x3e1fc64e	0.15602991
151	0x3e03ffdd	0.12890573
152	0xbedb5c25	-0.42843738
153	0x3e84aff2	0.25915486
154	0x3e3c35c4	0.18379885
155	0x3f257720	0.64634895
156	0xbeb3e6d2	-0.3513704
157	0xbf08b27c	-0.53397346
158	0xbf435db6	-0.76314867
159	0x3e547ff5	0.20751937
160	0xbd489143	-0.048966657
161	0xbee32696	-0.44365376
162	0xbe3c2ebd	-0.18377204
163	0xbe103cda	-0.14085713
164	0xbf03a3a5	-0.51421577
165	0xbe8b8c36	-0.2725541
166	0x3ce7d4cb	0.02829971
167	0xbd558deb	-0.052137297
168	0x3eb892ed	0.36049595
169	0xbf28fdec	-0.66012454
170	0xbf08f7db	-0.535032
171	0xbe4c445f	-0.19947957
172	0xbe02b032	-0.12762526
173	0x3e6cc366	0.23121414
174	0x3e86b8ab	0.26312765
175	0xbbc76a80	-0.006085694
176	0xbed31a30	-0.41230917
177	0x3e6b1727	0.2295805
178	0x3c642cf7	0.013926736
179	0xbee4f268	-0.4471619
180	0x3ed98025	0.4248058
181	0x3ddc50e4	0.10757616
182	0xbe65cec8	-0.22442162
183	0x3e31aaad	0.17350264
184	0xbeabc2e7	-0.33547136
185	0xbddbaf9e	-0.10726856
186	0xbf30da34	-0.6908295
187	0xbf1b4f16	-0.6066755
188	0x3e04979a	0.12948456
189	0xbe8183ca	-0.2529586
190	0x3ea4ef84	0.32213986
191	0xbd199bd1	-0.037502114
192	0x3ea409f8	0.32038856
193	0xbd7300cd	-0.059326936
194	0x3dc9097c	0.09816262
195	0x3def1e7a	0.11675735
196	0xbe78abf7	-0.2428435
197	0x3e157199	0.14594115
198	0x3e8b9364	0.27260888
199	0xbe635cd6	-0.22203383
200	0x3e7a0d39	0.24419107
201	0xbd14807d	-0.03625535
202	0xbe40a5b3	-0.18813209
203	0xbc31b397	-0.01084604
204	0xbc5f7ef8	-0.013641112
205	0xbdd10fda	-0.102081016
206	0x3e523384	0.20527464
207	0xbe74eade	-0.2391772
208	0xbe8051c7	-0.2506239
209	0xbe3eb9ac	-0.18625516
210	0xbe4b0d8d	-0.19829388
211	0x3ba8e002	0.005153657
212	0xbe1c6b6c	-0.15275353
213	0xbe4659c0	-0.19370174
214	0xbd3b5af7	-0.045741048
215	0xbe2e2a9e	-0.17008445
216	0xbe569a1e	-0.20957229
217	0x3e446c36	0.19181904
218	0xbddadbf2	-0.106864825
219	0x3e0068d7	0.12539993
220	0x3d7d4574	0.061833814
221	0xbc618191	-0.013763801
222	0x3aeb9446	0.0017973266
223	0xbe906e08	-0.28208947
224	0x3af54830	0.001871353
225	0x3e81d062	0.25354296
226	0xbee5a86a	-0.44855052
227	0x3e6403dd	0.22267099
228	0xbf185f0d	-0.59520036
229	0xbea231d2	-0.31678635
230	0x3c0b166f	0.008489235
231	0xbe448ebc	-0.19195074
232	0xbe58b146	-0.21161374
233	0x3dc64606	0.09681325
234	0xbe94397a	-0.289501
235	0xbea9aeff	-0.33141324
236	0xbdf4d7ad	-0.119551994
237	0xbd87064c	-0.06592998
238	0xbdf30efb	-0.11868092
239	0xbec2b844	-0.3803121
240	0xbe990774	-0.298885
241	0x3dc623dc	0.096748084
242	0xbeb700ed	-0.35742894
243	0x3dfd8d00	0.12380409
244	0xbe7b1b29	-0.2452208
245	0x3d37656d	0.04477446
246	0x3e65f331	0.22456051
247	0xbe552b24	-0.20817238
248	0xbe32cde8	-0.1746136
249	0x3b8476cb	0.0040424815
250	0x3e2b9d4a	0.1675922
251	0xbe7a068a	-0.24416557
252	0x3e10777d	0.14108081
253	0x3e410275	0.18848594
254	0x3ec8417b	0.39112458
255	0x3e98d36e	0.29848808

weight f4 [16]
0	0x3ffe24de	1.9855001
1	0x3fed0f28	1.852025
2	0x3ff83925	1.9392439
3	0x3fcc4ed0	1.5961552
4	0x3ffcc257	1.9746808
5	0x3fd83ce2	1.689358
6	0x3fe3b534	1.7789674
7	0x3fd1ca7d	1.638992
8	0x40182da2	2.3777852
9	0x402e9c97	2.7283075
10	0x402cee89	2.702059
11	0x401783c7	2.367418
12	0x400e2c8c	2.221469
13	0x40335533	2.8020751
14	0x40168cbc	2.3523397
15	0x402ed882	2.7319646

bias f4 [16]
0	0xbec87959	-0.3915508
1	0x3d9fcf5b	0.07803222
2	0xbe0b7d39	-0.13621987
3	0x3e076bad	0.13224669
4	0xbe81f7e4	-0.25384438
5	0xbee33bc4	-0.44381535
6	0xbde1c032	-0.110229865
7	0xbdb463b3	-0.088080786
8	0x3cf8a611	0.030352624
9	0x3e00bca9	0.12571968
10	0x3d84af21	0.06478716
11	0x3f04bf82	0.5185472
12	0x3e65020f	0.22364067
13	0x3eb520ec	0.3537668
14	0x3e6b2442	0.2296305
15	0xbb32ad3d	-0.0027263903

running_mean f4 [16]
0	0xbf9a9e56	-1.207957
1	0xbf59759b	-0.84945077
2	0xbf8f6bde	-1.1204793
3	0xbf7b6e45	-0.9821513
4	0xc04a4257	-3.160299
5	0xbf4de82d	-0.804324
6	0xbfb05e1c	-1.377872
7	0xc0059b92	-2.0876203
8	0xbeafd5ec	-0.34342897
9	0xbf81b4e7	-1.0133332
10	0xbf6aa797	-0.9166197
11	0xbe968c48	-0.294039
12	0xbebf6786	-0.3738367
13	0xc0034f94	-2.051732
14	0x3dab132d	0.08353267
15	0xbf1bca83	-0.60855883

running_var f4 [16]
0	0x3feeeb79	1.866561
1	0x3ff8baf3	1.9432052
2	0x402c0b68	2.6881962
3	0x3f93a69b	1.1535219
4	0x405504f8	3.3284283
5	0x40552e1a	3.3309388
6	0x401cde2e	2.4510608
7	0x3f82487a	1.0178368
8	0x3fc3106a	1.5239384
9	0x3fd49ea8	1.6610918
10	0x3fb03804	1.3767095
11	0x3f9e0d88	1.234788
12	0x3f952ce7	1.1654328
13	0x400a750d	2.1633942
14	0x3f48bcf4	0.7841332
15	0x3fae44a2	1.3614695

weight f4 [64, 96]
0	0xbd8e395f	-0.069445364
1	0xbd6b9bc5	-0.0575216
2	0xbd6c2c5a	-0.057659484
3	0x3c2cc709	0.010545501
4	0x3d5e1c80	0.0542264
5	0x3c55632d	0.013024134
6	0x3ca281ac	0.019837223
7	0xbd9eb0a4	-0.07748535
8	0x3c8a36eb	0.01687189
9	0x3bcd4730	0.0062645897
10	0xbc59e774	-0.013299812
11	0xbcd25749	-0.025676386
12	0xbbaeda47	-0.0053360793
13	0x3d861aba	0.065480664
14	0x3d7b0f0b	0.061293643
15	0x3d356db2	0.044294067
16	0xbbef6371	-0.0073055555
17	0xbdbb6585	-0.09150223
18	0x3d7f7b8c	0.062373683
19	0x3d1a4d9a	0.037671663
20	0xbd60043f	-0.05469155
21	0xbd9c1a32	-0.07622184
22	0x3c451c39	0.012030655
23	0xbd2913e6	-0.041278742
24	0x3d15f3b8	0.03660938
25	0xbd9dd198	-0.077059925
26	0x3ca7a70d	0.020465398
27	0x3c7725ca	0.015084693
28	0x3d33c598	0.043889612
29	0xbc5789e2	-0.013155432
30	0x3dd2fb24	0.103018075
31	0xbd49094a	-0.049081124
32	0x3db361d6	0.08758895
33	0x3d01bac3	0.03167225
34	0xbbd248f6	-0.006417389
35	0xbd7f0c66	-0.062267683
36	0x3db91205	0.0903664
37	0xbc1fe998	-0.009760283
38	0xbd0a7586	-0.033803485
39	0x3cd14fa6	0.025550675
40	0x3d8442bb	0.0645804
41	0xbd932d5b	-0.07186385
42	0xbd0513d8	-0.032489628
43	0xbda12262	-0.07867886
44	0x3d9f4766	0.0777729
45	0x3d80a7bf	0.06281995
46	0x3d80764e	0.06272565
47	0xba058a5c	-0.00050941645
48	0xbd3b2319	-0.04568777
49	0x3cb35126	0.02188928
50	0x3ca44b81	0.020055534
51	0xbbd0c0c2	-0.006370635
52	0x3d41f196	0.047349535
53	0x3d952f35	0.07284395
54	0xbdbd417c	-0.09241006
55	0x3a8b582f	0.0010631139
56	0xbd8c1492	-0.06839861
57	0xbd315459	-0.04329333
58	0x3bab3540	0.0052248538
59	0x3c71f4a2	0.014767798
60	0x3cd67543	0.026178962
61	0x3d01b2f5	0.031664807
62	0x3dd6bf81	0.10485745
63	0xbd7c5389	-0.061603103
64	0x3d355f6f	0.044280466
65	0x3c5e259d	0.013558772
66	0xbcc5a322	-0.02412564
67	0xbd6fdc14	-0.058559492
68	0x3c8a245d	0.016863042
69	0x3d4a533b	0.04939578
70	0x3b722fa0	0.0036954656
71	0xbdd660ce	-0.10467683
72	0xbc95505b	-0.018226793
73	0x3d89ffda	0.06738253
74	0xbd3d1d5a	-0.04617057
75	0xbd6aad51	-0.057294194
76	0xbd06cf94	-0.032912806
77	0xbdbbdcd5	-0.0917298
78	0xbd454779	-0.048163865
79	0x3b3656f9	0.0027822836
80	0xbcfef792	-0.03112391
81	0xbd7da87a	-0.06192825
82	0xbdcebc5a	-0.10094519
83	0xbdc6525b	-0.09683677
84	0x3d821eb5	0.06353513
85	0x3db2a15f	0.08722185
86	0x3d0ef72c	0.03490369
87	0x3ce0af2f	0.027427284
88	0xbcf1c4ff	-0.02951288
89	0xbcf54ebf	-0.029944776
90	0x3c4fbe4b	0.012679647
91	0x3db889cc	0.09010658
92	0x3d6b7588	0.057485133
93	0x3c8c00cd	0.017090226
94	0xbdb10fcb	-0.086455904
95	0xbdb517e3	-0.08842447
96	0xbc264874	-0.01014911
97	0x3b8dd8a7	0.0043288055
98	0xbcf5802a	-0.02996834
99	0xbd9b2fc8	-0.07577473
100	0xbd896353	-0.06708398
101	0x3d884418	0.06653613
102	0x3d84516e	0.06460844
103	0xbdc388e3	-0.095475934
104	0xbbf110f1	-0.007356756
105	0xbce81f18	-0.02833514
106	0x3dd12a9c	0.10213205
107	0x3bcf5176	0.0063268496
108	0xbd87437e	-0.0660467
109	0xbbb87a14	-0.005629787
110	0x3dbc2a3d	0.09187744
111	0x3d6e287b	0.058144074
112	0xbbe274a5	-0.006910878
113	0xbd972051	-0.07379211
114	0xbd9bbeda	-0.076047614
115	0x3d8d23c9	0.06891591
116	0xbd20aae8	-0.03922549
117	0x3c8b2508	0.016985431
118	0xbc2f95b6	-0.010716846
119	0xb9b61d9b	-0.00034735803
120	0x3d12a80a	0.035804786
121	0x3af410f4	0.0018620775
122	0x3d6b2b31	0.057414237
123	0x3c2cc09f	0.010543971
124	0x3c4abd1d	0.01237419
125	0xbda813c0	-0.08206892
126	0x3a5230f3	0.0008018158
127	0xbd04f7ed	-0.032463003
128	0xbb68178d	-0.0035414428
129	0xbdbe156c	-0.0928143
130	0x3dc80407	0.09766393
131	0x3d67f40a	0.05662922
132	0x3b055ce0	0.0020349547
133	0xbd954901	-0.07289315
134	0xbd158d91	-0.03651196
135	0x3da5654d	0.08075962
136	0x3c5a1f54	0.013313133
137	0xbcd9fa54	-0.026608624
138	0xbc36e5c3	-0.011163178
139	0x3ca5edfc	0.020255081
140	0xbd0907a1	-0.03345454
141	0xbdb3b80a	-0.08775337
142	0x3c8acfcb	0.016944787
143	0xbd398ad6	-0.04529842
144	0xbbb5e61b	-0.0055511124
145	0xbc9433ad	-0.018091047
146	0xbd225afb	-0.039637547
147	0xbdba5fd6	-0.091003105
148	0xbdad1cae	-0.08452736
149	0x3dabc2a7	0.08386736
150	0x3d81f6d4	0.06345907
151	0xbb83aaa2	-0.0040181438
152	0xbd2ae792	-0.04172475
153	0x3dc190c8	0.09451443
154	0xbbf8cdc5	-0.007592889
155	0xbd83fe68	-0.064450085
156	0x3b6b0f23	0.0035867176
157	0xbce43cb9	-0.027860986
158	0x3d3a220c	0.045442626
159	0xbd6ef777	-0.05834147
160	0xbdaec6b0	-0.085339904
161	0x3d7517ab	0.059837025
162	0x3ce8e348	0.028428689
163	0x3d73be9d	0.059507955
164	0x3d9d8d21	0.07692934
165	0xbd25c97d	-0.040475357
166	0xbdc2d93a	-0.09514089
167	0xbcc756b7	-0.024333341
168	0xbd6fa01d	-0.058502305
169	0xbd0dce4d	-0.034620572
170	0x3dcaf64b	0.09910258
171	0xbcf08d8c	-0.02936437
172	0xbcfd038c	-0.03088548
173	0xbd1083e5	-0.035282034
174	0xbcb2a72c	-0.02180823
175	0xbd8f8ce2	-0.07009293
176	0x3beb6787	0.0071839723
177	0xbd3a1ac4	-0.045435682
178	0xbd291016	-0.041275106
179	0x3da49a16	0.08037202
180	0x3dcda96c	0.1004208
181	0xbaeb3085	-0.0017943537
182	0xbca3bfd8	-0.01998894
183	0xbd6a401b	-0.057190042
184	0xbdcda19d	-0.10040591
185	0x3dd2fca9	0.10302097
186	0xbd1dfb86	-0.03856995
187	0xba03ce61	-0.0005028006
188	0xbd228693	-0.03967912
189	0xbd9465cb	-0.07245978
190	0x3d8ac09e	0.0677502
191	0xbd5f077d	-0.0544505
192	0xbdc76239	-0.09735531
193	0xbd62eda1	-0.0554024
194	0x3d7a066b	0.061041277
195	0x3d401f78	0.04690501
196	0x3dad0530	0.08448255
197	0x3c9d5a38	0.019208059
198	0xbd633a0e	-0.055475287
199	0x3db8b0eb	0.090181194
200	0x3bae7e12	0.0053250873
201	0xbc7f18e5	-0.0155699
202	0x3ddced8f	0.10787498
203	0xbd6679c8	-0.056268483
204	0xbce74b27	-0.028234078
205	0x3ce3d4f2	0.027811501
206	0xbc54bcec	-0.012984496
207	0x3d652d37	0.055951323
208	0xbc1e603b	-0.009666498
209	0x3dc89737	0.09794467
210	0xbdc93e11	-0.09826291
211	0xbd134137	-0.035950866
212	0x3db737f5	0.0894622
213	0x3d67503b	0.056472998
214	0xbdd6a698	-0.10480994
215	0xbd70358f	-0.058644827
216	0xbd44a7b8	-0.04801151
217	0x3da4da17	0.0804941
218	0x3cba88ab	0.022770246
219	0xbd865e25	-0.065609254
220	0xbc02740b	-0.007962237
221	0x3d91a741	0.07111979
222	0xbd8dfaff	-0.06932639
223	0x3ca878c9	0.020565407
224	0xbd895b64	-0.067068845
225	0xbdc8910b	-0.0979329
226	0xbd8d49af	-0.0689882
227	0x3c7e095a	0.015505159
228	0x3d42780b	0.047477763
229	0x3ceef4bf	0.029169438
230	0x3d5a8e9b	0.053358655
231	0x38baa4bc	8.899855e-05
232	0x3c8bd9cb	0.017071625
233	0x3c49ef3f	0.012325107
234	0xbd0ad3a0	-0.033893228
235	0x3d347794	0.04405935
236	0xbda9728b	-0.082738005
237	0x3d8452fe	0.06461142
238	0x3dafe07b	0.08587738
239	0xbd6255c2	-0.055257566
240	0x3d6d53ee	0.05794137
241	0x3dc0fe65	0.09423522
242	0xbdb1b2ec	-0.08676705
243	0xbd1df0b6	-0.038559638
244	0xbdaee6ca	-0.08540113
245	0xbd930cc1	-0.07180167
246	0x3d6ba50d	0.05753045
247	0x3c9fad27	0.019491745
248	0xbda08989	-0.07838733
249	0xbd8ce6ef	-0.068799846
250	0xbd96b29a	-0.07358284
251	0xbc4c8188	-0.0124820545
252	0xbdcc7800	-0.09983826
253	0x3d9c9efd	0.07647512
254	0xbdba48ca	-0.09095915
255	0x3d15a759	0.03653655

bias f4 [64]
0	0x3d86734f	0.06564962
1	0xbd0fa6a5	-0.035071034
2	0x3c99681e	0.018726405
3	0x3d62fe0d	0.055418063
4	0x3e2164e2	0.1576114
5	0x3de4d1d5	0.11172835
6	0x3cfaa39a	0.03059559
7	0xbd477d19	-0.048703287
8	0xbdaea1fe	-0.08526991
9	0x3e1b4da8	0.15166342
10	0x3db8b014	0.09017959
11	0x3d833e04	0.06408313
12	0x3d9f069a	0.07764931
13	0xbd64ba48	-0.055841714
14	0x3ca2c2a4	0.019868203
15	0x3d011e80	0.031523228
16	0x3c8adcf0	0.016951054
17	0xbc865738	-0.016399011
18	0xbd729b44	-0.059230104
19	0x3d4ff8a0	0.050774217
20	0x3db525a8	0.08845073
21	0x3b3d96be	0.002892896
22	0x3dcc6af2	0.09981336
23	0x3c877abe	0.01653802
24	0x3d8eb514	0.06968132
25	0xbb6731cc	-0.0035277484
26	0x3df451de	0.119296774
27	0xbd28e887	-0.04123738
28	0x3d9eb998	0.07750243
29	0xbdc93b17	-0.098257236
30	0xbdc26be6	-0.09493236
31	0x3e4cd257	0.20002113
32	0xbd8be3c8	-0.06830555
33	0xbb2e9c55	-0.0026643474
34	0x3d8f0fd9	0.069854446
35	0x3df1cac2	0.11806251
36	0x3ce89c44	0.028394826
37	0x3c19d692	0.009389536
38	0xbd5acd38	-0.053418368
39	0x3dbd0fd0	0.092315316
40	0x3dc7bec7	0.09753185
41	0x3e9c41e8	0.30519032
42	0x3d8be79c	0.06831285
43	0xbd56de03	-0.05245782
44	0x3d096f7f	0.033553597
45	0xbd64743e	-0.05577492
46	0x3d77e6f7	0.060523
47	0xbc7e9bc4	-0.015540067
48	0x3cfb2fde	0.030662473
49	0x3d601fcd	0.054717828
50	0x3ca0620a	0.019577999
51	0x3c6c3e32	0.014419125
52	0x3d927219	0.07150669
53	0x3d9d8aef	0.07692515
54	0x3d1298f8	0.035790414
55	0x3db256ef	0.087079875
56	0x3df271e0	0.11838126
57	0xbc87939d	-0.01654988
58	0x3dc0edbc	0.09420344
59	0x3bafb5c9	0.0053622467
60	0xbcd5f376	-0.026117068
61	0x3d0d0a17	0.03443345
62	0x3d79a2b3	0.060946178
63	0xbdbcd73f	-0.092207424

weight f4 [1, 64]
0	0x3ca40230	0.020020574
1	0xbcf39e7b	-0.029738655
2	0x3c05299c	0.008127596
3	0x3f0b6a8c	0.5445945
4	0xbf007804	-0.5018313
5	0xbf40eb9d	-0.7535952
6	0xbe81422c	-0.25245798
7	0x3df71506	0.12064557
8	0x3e65a00a	0.22424331
9	0xbefb344d	-0.4906334
10	0xbdfa408b	-0.12219342
11	0x3e221ad1	0.15830542
12	0xbe884669	-0.2661622
13	0x3e05b64c	0.13057822
14	0x3eadcd8f	0.3394589
15	0x3d179a23	0.03701223
16	0x3f9e1910	1.2351398
17	0xbe3306ce	-0.17483065
18	0xbde08f6a	-0.10964854
19	0x3f20ced6	0.62815607
20	0x3b182022	0.0023212512
21	0xbd5055cb	-0.05086307
22	0x3f6b81f9	0.919952
23	0x3d8fd1b6	0.07022421
24	0xbd29af63	-0.041427027
25	0x3e6b0dcd	0.22954483
26	0x3faa565d	1.3307606
27	0x3efe4173	0.4965931
28	0xbe5f1d3e	-0.21788499
29	0xbdc0c3fe	-0.094123825
30	0xbdd72d02	-0.105066314
31	0xbf79ca1d	-0.97574025
32	0x3eb123ff	0.34597775
33	0xbe145d8b	-0.14488809
34	0xbdbf6abc	-0.0934653
35	0xbf34d44f	-0.7063646
36	0x3ef8d4dd	0.48599902
37	0x3f08b2bd	0.5339773
38	0x3d476a25	0.04868521
39	0xbe43ec96	-0.19133219
40	0xbe9f6522	-0.31131846
41	0xbf9b026b	-1.2110113
42	0x3e882805	0.26593032
43	0xbd3b1297	-0.045672026
44	0x3bd6566f	0.0065410654
45	0xbbe50ad3	-0.0069898157
46	0x3fa72efd	1.3061215
47	0x3e03c1a2	0.12866834
48	0x3dfa8b48	0.12233597
49	0xbeae527a	-0.340473
50	0x3f7ae80c	0.98010325
51	0x3f7a5f57	0.9780173
52	0xbd110fe5	-0.03541555
53	0xbd72b9ea	-0.059259333
54	0x3ce4c3ff	0.02792549
55	0x3f927593	1.1442131
56	0xbe890e42	-0.2676869
57	0x3f9c80fd	1.2226864
58	0xbec398f0	-0.3820262
59	0x3e23553e	0.15950486
60	0x3f0cf836	0.5506624
61	0x3f32af89	0.69799095
62	0x3ded4268	0.115849316
63	0x3eebdbca	0.46066123

weight f4 [64, 96]
0	0x3921de73	0.00015437025
1	0x3e124d5f	0.14287327
2	0x3e25400e	0.16137716
3	0x3e8ba321	0.27272895
4	0xbdf23d7c	-0.118281335
5	0xbea106fb	-0.31450638
6	0xbd8f49c9	-0.06996495
7	0x3db78884	0.08961585
8	0xbe103f02	-0.14086536
9	0xbde9437b	-0.11389824
10	0x3c16ce9e	0.009204535
11	0x3cd9f38a	0.026605386
12	0xbdbd418a	-0.09241016
13	0xbe0ed051	-0.13946654
14	0x3ddaf8a0	0.10691953
15	0x3e917c89	0.28415325
16	0xbd2c524c	-0.042070672
17	0xbea12be7	-0.31478807
18	0x3d8cf7fb	0.06883236
19	0x3e04d684	0.12972456
20	0x3d8e4b54	0.069479614
21	0x3dea69ca	0.11445959
22	0xbdc3e93d	-0.09565971
23	0xbe16686d	-0.14688273
24	0x3d376bbe	0.044780485
25	0xbe03a03d	-0.12854095
26	0x3d5e66f7	0.054297414
27	0x3e54e1ae	0.20789215
28	0x3e38e507	0.18056117
29	0x3da91560	0.0825603
30	0x3dbe2de1	0.092860945
31	0xbdddb71a	-0.108259395
32	0xbe7f0897	-0.2490562
33	0x3e8b96f7	0.27263615
34	0x3e83941c	0.25698936
35	0xbdaf6461	-0.08564068
36	0xbe06e0ec	-0.13171738
37	0x3e7f589f	0.2493615
38	0x3ebe869e	0.3721208
39	0x3d9094f1	0.07059658
40	0xbe7ea601	-0.24868013
41	0xbdd68407	-0.10474401
42	0xbd7d4a27	-0.061838295
43	0xbe0ee80c	-0.13955706
44	0xbeb21e0d	-0.34788552
45	0xbe2d0380	-0.16895866
46	0xbdac288a	-0.0840617
47	0x3b2a5eea	0.0025996515
48	0xbdefe24f	-0.11713087
49	0x3e869d5a	0.26291925
50	0x3e271705	0.16317375
51	0x3db50288	0.088383734
52	0xbdd172ce	-0.102269754
53	0xbd436940	-0.047707796
54	0xbdd6e404	-0.10492709
55	0x3eb8f93f	0.3612766
56	0xbe971265	-0.2950622
57	0xbd11dfd2	-0.035613842
58	0x3db5603e	0.08856247
59	0xbd84f400	-0.06491852
60	0xbe3e2150	-0.18567395
61	0xbd861e61	-0.06548763
62	0xbe5e18d0	-0.21689153
63	0x3e792aab	0.24332683
64	0x3ef2ef7c	0.47448337
65	0xbe1862ec	-0.14881486
66	0xbe500bae	-0.20316955
67	0x3dc78e44	0.09743932
68	0x3f11fdcf	0.57027906
69	0x3d26e43b	0.040745
70	0xbd12cee3	-0.035841834
71	0x3de96d74	0.1139783
72	0x3e18fea2	0.14940885
73	0xbe49bfc5	-0.1970206
74	0x3ea5fea8	0.3242085
75	0x3d1358e7	0.035973456
76	0x3dc898b2	0.09794749
77	0xbdaccd18	-0.08437556
78	0x3ddb1203	0.10696795
79	0x3da97c59	0.082756706
80	0xbd407250	-0.046984017
81	0xbedb0110	-0.42774248
82	0xbd831965	-0.06401328
83	0x3c24a244	0.010048453
84	0xbc7784d9	-0.015107357
85	0xbd98d14d	-0.07461796
86	0xbe771c77	-0.24131952
87	0xbdf54595	-0.11976162
88	0x3e3a01de	0.18164775
89	0xbe174063	-0.14770655
90	0x3b4c3c5a	0.0031163902
91	0x3db58107	0.08862501
92	0xbebe241a	-0.37136918
93	0x3e2ab940	0.1667223
94	0xbd95ce9f	-0.073148005
95	0xbd7507a4	-0.05982174
96	0xbb3cb2b8	-0.0028793048
97	0x3c3af1b7	0.011410168
98	0xbd45cc23	-0.048290383
99	0x3cd93f0b	0.026519319
100	0xbca7f937	-0.020504577
101	0xbe1d00bb	-0.1533231
102	0x3d5898ba	0.052880026
103	0x3d38e4ea	0.045140184
104	0xbd3b80c9	-0.045777116
105	0xbd6e5a07	-0.058191326
106	0x3be981e7	0.0071260813
107	0x3d38fbe6	0.045162104
108	0xbd801784	-0.06254485
109	0x3d728206	0.05920603
110	0x3d30f13b	0.043198805
111	0x3df6080c	0.120132536
112	0x3da2cbf5	0.07949058
113	0xbdc7df33	-0.09759369
114	0xbd81afb4	-0.06332341
115	0x3cb8b33b	0.022546401
116	0xbdde0d40	-0.10842371
117	0x3de93cae	0.11388527
118	0xbd5b1edf	-0.053496238
119	0xbde1d868	-0.11027604
120	0xbd2fb5b5	-0.0428979
121	0xbcc85c56	-0.024458092
122	0x3c3d5eaf	0.011558219
123	0xbda0b28c	-0.07846555
124	0xbcdbd558	-0.026835129
125	0xbd1d00db	-0.038330894
126	0x3dbbcbd3	0.09169736
127	0xbd11396a	-0.035455145
128	0xbdffcf94	-0.12490764
129	0xb97195d4	-0.00023039366
130	0x3de1622a	0.110050514
131	0x3cff3e4b	0.031157633
132	0xbd963dcf	-0.07336008
133	0x3d7a0564	0.061040297
134	0x3e062e1c	0.13103527
135	0x3d8c454e	0.06849156
136	0xbdde4bf5	-0.108543314
137	0xbd89cf41	-0.06728984
138	0x3d740c32	0.059581943
139	0x3d30b954	0.043145493
140	0xbd9042dd	-0.07044003
141	0xbd59d43e	-0.053180926
142	0xbcb96bfe	-0.022634503
143	0x3c998d12	0.018744025
144	0x3d20b100	0.0392313
145	0x3d407553	0.04698689
146	0x3d9caec3	0.07650521
147	0x3d763f2d	0.060118843
148	0xbe29a16d	-0.16565485
149	0x3c580c19	0.013186478
150	0xbda60ea4	-0.08108261
151	0x3ce14ab8	0.027501449
152	0xbe27d3c0	-0.1638937
153	0xbdf56fc1	-0.11984206
154	0x3cf1ef98	0.029533193
155	0x3d6c0144	0.057618394
156	0xbbe25dbb	-0.006908146
157	0xbd72c862	-0.05927313
158	0xbbe492ba	-0.006975499
159	0x3d83fa92	0.06444277
160	0x3df98135	0.121828474
161	0xbc385369	-0.011250355
162	0xbdaec95b	-0.08534499
163	0x3d21bde6	0.039487742
164	0x3e6ac645	0.22927196
165	0xbc9c1c89	-0.019056575
166	0x3c8e571f	0.017375527
167	0x3df191fd	0.11795423
168	0x3d3a6b8b	0.045512717
169	0x3d1972d0	0.03746301
170	0x3dce3f5a	0.10070677
171	0xbdb55fb2	-0.08856143
172	0xbd3330f2	-0.04374785
173	0x3a6dafd3	0.00090670324
174	0x3d3efd1a	0.046628095
175	0x3da9fd1d	0.08300231
176	0xbd8f0e23	-0.06985118
177	0xbd19828f	-0.037478026
178	0xbd4ba172	-0.049714513
179	0xbde9bb19	-0.11412639
180	0xbc229415	-0.009923001
181	0x3d93afcd	0.07211266
182	0xbce9ef2b	-0.028556427
183	0x3d650a0c	0.055917785
184	0xbd8ba5a0	-0.068187
185	0xbd2fd480	-0.042927265
186	0x3d025802	0.031822212
187	0x3dbbda3e	0.09172486
188	0xbdf322fc	-0.11871907
189	0x3d1ff73c	0.03905414
190	0xbd4b797c	-0.049676403
191	0x3c06272e	0.008188052
192	0xbbe39c27	-0.006946105
193	0x3e07500d	0.1321413
194	0x3d956986	0.072955176
195	0x3dba4c48	0.09096581
196	0xbe19b50c	-0.1501047
197	0xbe82ee0e	-0.25572246
198	0xbd872e38	-0.066006124
199	0x3e269b7f	0.16270255
200	0xbde968d6	-0.11396949
201	0xbdcd1d5e	-0.10015367
202	0x3dcba995	0.099444546
203	0xbbeff04b	-0.0073223463
204	0xbd8d5d7c	-0.06902596
205	0xbd9b7e2a	-0.07592423
206	0x3dd2d30c	0.1029416
207	0x3e1870de	0.14886805
208	0x3c5020f0	0.012703165
209	0xbe27e8e5	-0.16397436
210	0x3e196718	0.14980733
211	0x3d996272	0.0748948
212	0x3d014e12	0.031568594
213	0x3e516f2e	0.20452568
214	0xbd79f775	-0.06102701
215	0xbd33fea5	-0.04394402
216	0x3dd2fc00	0.103019714
217	0xbe0da5cb	-0.13832776
218	0x3df21c10	0.11821759
219	0x3a260e2a	0.0006334508
220	0x3dd3eef6	0.103483126
221	0xbdc67b0e	-0.096914396
222	0x3e0421bb	0.12903492
223	0xbded03a4	-0.1157296
224	0xbe26888e	-0.16263029
225	0x3d986124	0.07440403
226	0x3e345b9c	0.17613071
227	0xbd111808	-0.03542331
228	0x3c6d93fc	0.014500614
229	0x3e10203d	0.14074798
230	0x3e42b94f	0.19016002
231	0x3dd591aa	0.10428174
232	0xbe4be11a	-0.19910088
233	0xbe0b59be	-0.13608453
234	0xbdd7709f	-0.10519528
235	0x3d2ac381	0.041690353
236	0xbe524e8c	-0.20537776
237	0xbe056dd6	-0.1303018
238	0xbdc61508	-0.0967198
239	0xbdfd6c70	-0.123741984
240	0xbe059a42	-0.13047126
241	0x3e0ba710	0.13637948
242	0x3d7557ce	0.05989819
243	0x3dc1d34f	0.09464132
244	0xbd505b33	-0.050868224
245	0xbc06627f	-0.008202194
246	0xbdcac9b2	-0.099017516
247	0x3e8a8a26	0.27058524
248	0xbda079a1	-0.07835699
249	0xbd94f70e	-0.072736844
250	0x3e08def9	0.13366307
251	0xbd8cc9ac	-0.06874403
252	0xbdfca954	-0.12336984
253	0x3db7a8c5	0.08967737
254	0xbe4a907b	-0.19781677
255	0x3deca2d8	0.115544975

bias f4 [64]
0	0xbe2d1721	-0.16903354
1	0xbc579c6b	-0.013159852
2	0xbc467ace	-0.01211424
3	0x3bdee902	0.006802679
4	0x3e114435	0.14186175
5	0x3ccbcb35	0.02487717
6	0xbdca46ba	-0.09876771
7	0x3d5defdd	0.05418383
8	0xbce8a016	-0.028396647
9	0x3c9afd41	0.018919589
10	0xbddffd4b	-0.10936984
11	0x3c411528	0.011784829
12	0x3d452186	0.048127674
13	0xbd5905ed	-0.052984167
14	0xbd130249	-0.03589085
15	0x3d558bd8	0.05213532
16	0x3db7eb04	0.089803725
17	0x3d9f5b49	0.07781083
18	0xbd2bea16	-0.04197129
19	0x3b6b347f	0.0035889444
20	0xbd3648f2	-0.04450316
21	0xbdd6c7a8	-0.104873
22	0xba37f3e4	-0.00070172385
23	0x3d8ba1c9	0.068179674
24	0xbbc5d4d6	-0.006037335
25	0x3db42dd8	0.087978065
26	0x3cadda25	0.021222183
27	0xbc2ce54b	-0.010552715
28	0x3d093316	0.033495985
29	0xbd3c859d	-0.04602586
30	0x3db88366	0.09009437
31	0x3e356e29	0.17717804
32	0xbdaa237a	-0.08307548
33	0x3ba1412c	0.004921099
34	0xbc90eb56	-0.017690342
35	0x3cf85d87	0.030318035
36	0xbc389e00	-0.011268139
37	0x3b1ccaf0	0.002392467
38	0xbcfa79a4	-0.03057558
39	0x3cd003ea	0.025392491
40	0x3da81581	0.082072265
41	0x3d953c8f	0.07286941
42	0xbdb28fcf	-0.087188356
43	0x3da8a07a	0.082337335
44	0x3e17ea3d	0.14835449
45	0x3d058e65	0.0326065
46	0xbcc7b9c3	-0.02438057
47	0xbbc8debb	-0.006130067
48	0xbb7e691d	-0.0038819977
49	0xbda8b549	-0.082377024
50	0xbd31f98c	-0.043450877
51	0xbd875e45	-0.06609777
52	0xbd4a58b2	-0.049400993
53	0xbc1651d4	-0.009174783
54	0xbe024bb5	-0.12724192
55	0x3dcfed2e	0.1015266
56	0x3da6251d	0.081125475
57	0x3d58f792	0.052970476
58	0xbcdb9531	-0.026804538
59	0x3cdbd6b9	0.026835786
60	0xbd8a11fb	-0.06741711
61	0xbcfa0af2	-0.030522797
62	0xbd5506b4	-0.052008346
63	0xbcf9c4c8	-0.03048934
