model-doom4.pth (torch, 77325 bytes, 27 tensors)

weight f4 [8, 1, 3, 3]
00000000: 4e5f 71be 1805 c0be 83ff 77bf be2d 923f
00000010: 1c69 b73f 5137 d0bd 9af4 1b3f 8fe2 f2bd
00000020: 5dbd a1bf 03d1 c2bf 4419 28be 201c 603f
00000030: d281 0cc0 a769 90be 750f 423f b8bc 743e
00000040: 933a 433f 6b4f 813f a67b ce3f b5fb 933f
00000050: 8eda 47bf 296d 8a3f 5fb9 1cbf a04b a83e
00000060: 92ce cebe 1193 c1bf b6a5 5dbf ac0d 7d3e
00000070: d412 fcbf 6b05 953f ec6e 1e3f bb72 1dbf
00000080: 9fc7 e43f 6044 143f 831c c1bf 3549 afbe
00000090: 4c6e 993f c2c1 4b3f 51cb 333f 01b7 c7be
000000a0: 0d1b 3cbf 50a4 e93e b3ae a33d a5c5 ccbe
000000b0: 1f75 483e 251b 483d 7b66 563f 8293 d33f
000000c0: 57cd cebe 0d57 20bf 4755 93be d003 33be
000000d0: f270 a6bf cb14 5dbf 5d11 edbd 1080 80bf
000000e0: 4542 60be 463b 443f 3237 a0bf c356 4dbe
000000f0: e91f 513e fd03 713f 795c 923f 4142 b0bf
00000100: 58ec 81bf e1b3 cf3e 3607 1abf 4727 b23f
00000110: f452 ac3f 157b ba3f 6a51 303f 4c88 a1bf
-0.23571512 -0.37503886 -0.96874255 1.142021 1.4328952 -0.10166801 0.6092011 -0.11859619
-1.2635914 -1.5220035 -0.16415888 0.87542915 -2.1954236 -0.28205606 0.75804836 0.23900115
0.7626125 1.0102361 1.6131485 1.156119 -0.78067863 1.0814563 -0.61220354 0.32870197
-0.40391976 -1.5123006 -0.8658098 0.24712247 -1.9693246 1.1642278 0.61888003 -0.6150319
1.787342 0.5791683 -1.5086826 -0.3423554 1.1986785 0.79592526 0.7023211 -0.39006808
-0.73478776 0.45633173 0.079923056 -0.3999454 0.19575928 0.048854012 0.8375012 1.6529391
-0.40391037 -0.6263283 -0.28776 -0.17481923 -1.3003218 -0.8635985 -0.115755774 -1.0039082
-0.2190028 0.76652944 -1.2516844 -0.20052628 0.20422329 0.9414671 1.143447 -1.3770219
-1.0150251 0.40566924 -0.60167253 1.3918236 1.3462815 1.4568812 0.6887423 -1.261972

weight f4 [8]
00000000: 177c 8c3f 4b2b b63f c3dd dc3f b081 833f
00000010: 7fea d33f 2c76 ec3f b9ae a93f 38b3 d83f
1.0975369 1.4231962 1.7255176 1.0273952 1.6555938 1.8473563 1.3256446 1.6929693

bias f4 [8]
00000000: 312a 2dbe b8d2 333e df9a d2be aef7 593e
00000010: d8be 1ebf a08c c83e 1068 52be 188d b5be
-0.16910626 0.17560852 -0.41133782 0.21285889 -0.62009954 0.39169788 -0.20547509 -0.35459208

running_mean f4 [8]
00000000: e0df 623c 674a 2dbd fc04 ddbc d597 d1bb
00000010: fa90 5e3e f823 22be c4e7 503d 72f2 0e3e
0.013847321 -0.042307284 -0.026979916 -0.0063962736 0.21734992 -0.15834033 0.05100228 0.13959673

running_var f4 [8]
00000000: e830 b73b 4204 8c3c eaef b43c c1d3 9e3b
00000010: ad36 0e3d 9312 e43c 1f2c 4e3c 30f4 a63c
0.005590547 0.017091874 0.022087056 0.0048470204 0.03472011 0.027840888 0.0125837615 0.02038011

weight f4 [8, 8, 3, 3]
00000000: 5360 303f e65d c1be b5da a53e 4c83 d9bd
00000010: 1433 80be 7ae7 06bf db12 cc3d f51d 1abf
00000020: 9209 223e cdec 343f e655 e43e 65d6 0cbf
00000030: 147b 96be 0a9d a8be 4982 82be 1dea afbb
00000040: 083c 6c3f 68e9 34be fed4 12be 72bc 6abe
00000050: 9dd3 c5be 7910 8e3f 9a15 44be c4da 5e3e
00000060: d63a 59be 872f 623e 7c57 92be db00 5dbe
00000070: d0a5 513e 03d3 143f 576e 38be 6303 5b3e
00000080: c47f c4be dbeb 28be bbab 9a3e 828d fcbc
00000090: 2fe8 49be 70d0 073e 83c2 27be 7597 a53e
000000a0: 110a bc3e b6ed 0c3e 3048 2bbf e622 d8bd
000000b0: fe2f c8bd 8c7e 42be 4f35 53be 400b bd3d
000000c0: 9e02 803f ce39 b73e 5310 993c 0e9a d73d
000000d0: 9eb8 613d 943f 1abf 1620 0b3e ecf1 de3e
000000e0: 1d2e debe 6927 28bf 3638 f7be 4b27 053f
000000f0: 16bb cb3e 3183 f43d 13f8 b9be be74 923d
00000100: 47d0 113e d411 a33e c0a3 98be 457f 25bf
00000110: 9b9f 06bf c7e7 ab3e 2c9e 103f f663 10bf
00000120: 7a05 613e 8c7e babe 6cfc ba3e 9a61 2b3d
00000130: 445d ccbe f640 35bd 6e84 9f3f cf3c fdbd
00000140: 8744 15bf 406e acbd a91b 623f 60c0 87bf
00000150: bc02 4c3f fe9d 56bd 36f2 b33e 51c3 fbbe
00000160: 66ec 1a3e b888 593d b49c 2cbe e6cb 893e
00000170: cab5 47bf c5ce 94be 4d10 383e 7743 22bf
00000180: 189d 49bd ba84 743d 6fa2 84bc 655b 55bf
00000190: 4ba7 fa3e af09 e93e 6277 43be e079 67bb
000001a0: 74db 0d3e 9e00 75bb 9ba7 b6bc 721f 92be
000001b0: a837 1fbe 7511 25be dd2e 0abe be70 1abf
000001c0: 2cfb 873e 6f4c 4dbe ba9a 2bbf a96c 38be
000001d0: b4fc 783f de9d b53d 7301 2abf 793d 073f
000001e0: b01e 113f 4e27 37bf 6bf5 c0bd 7aed 9abd
000001f0: 56b3 513e b115 9cbd 9308 d5bd 2af6 1cbf
00000200: ee93 bfbe 0c8e d5be 92a3 723e c284 3e3f
00000210: 053e 50be 9e28 0c3e f8d7 9fbe 0f49 66be
00000220: 701e 923f 8ea1 c1be ab98 2e3f f2e9 37bf
00000230: 74db e43d 81c9 c0bd f4a9 d93c f6c6 e0be
00000240: 175e b83e aa5e c7be ba2b f1be becb bd3c
00000250: 1853 6cbd 3344 61be 15ec ec3c 1d90 55be
00000260: 1ce0 9a3e 8dbe 843f 8e8a b7be 969e c2be
00000270: 1660 1c3e d8ec 10bf 4745 90be 7e5d cd3c
00000280: 7a70 c73e 8fab cfbe bf92 0c3f a3e0 94bf
00000290: 9854 b63d 831b 92be 4be6 80bd 444a 253e
000002a0: 326b 6c3e f8b4 09bf 6a5a f7be 4ecc f63e
000002b0: 4452 303e bfaa dfbe 3924 953e b120 3a3c
000002c0: 55d0 84be 2763 643f bd59 37bf 4582 bf3e
000002d0: 80a8 0bbf af7d 4ebb db18 0b3f 9ec9 93be
000002e0: 583a 98be 0d4f 783e 00ea c33b dfb4 46bd
000002f0: 2454 e6be 797a b2be f70b aabe 2b66 b93d
00000300: 059b 8e3e e252 873e d6c3 a1be 6861 dcbe
00000310: bc33 0ebf 650d 38be 5deb fbbd 6d84 99bc
00000320: 01a2 aabe 62d3 8f3e 4284 b53e 0b07 1abf
00000330: 1113 02bf a7c7 aa3c 0145 ac3e 28a8 5cbe
00000340: d549 94bd 5db6 2fbf d3ee a7bd 122a 663f
00000350: 8f6f fabe 5bca 3fbf c081 9cbd 0b7a 5c3f
00000360: 43d9 0d3d b423 c9be b675 0dbf 5a56 d73e
00000370: e62a 853d ad07 c83e ef90 103e a0be 183d
00000380: db19 383d c068 4fbe 1f3f f6bd 3a5f a3be
00000390: 3424 393c 5ba6 b33e c2ca 7dbc b2b4 23bf
000003a0: 1366 c43e 305b f13d 88f7 42be c935 3e3f
000003b0: ef1c 6fbc 22c2 613e 6c90 acbe fd8c 13be
000003c0: 676b 213f ddf8 603d 7cbf 8fbd 5514 433e
000003d0: ffa3 153e 117a 403e ccb2 5dbd 6f3d 9f3e
000003e0: 80e4 f6be 5f7c d3be ec02 133e 8277 543d
000003f0: ae51 003f 087d 483f 4901 503f 19a9 0fbe
0.6889698 -0.3776695 0.32393423 -0.10620746 -0.2503897 -0.52696955 0.09964534 -0.6020196
0.15823963 0.7067383 0.44596785 -0.5501464 -0.29390776 -0.3293231 -0.25490025 -0.0053684846
0.922791 -0.17667162 -0.14339063 -0.22923449 -0.3863801 1.1098777 -0.19148865 0.2176314
-0.2121385 0.22088443 -0.2858237 -0.21582358 0.20473409 0.5813448 -0.18010841 0.2138801
-0.38378727 -0.16496222 0.30209145 -0.030829195 -0.19717477 0.13263106 -0.16382794 0.32342115
0.3672643 0.13762555 -0.66907024 -0.10553531 -0.09774779 -0.18993586 -0.20625804 0.092306614
1.0000799 0.3578629 0.018684542 0.105274305 0.055107705 -0.6025326 0.13586459 0.43543947
-0.43394557 -0.65685135 -0.48285073 0.5201308 0.39791173 0.11939085 -0.36322078 0.07151173
0.14239608 0.3184954 -0.2981243 -0.6464732 -0.5258729 0.3357527 0.5649135 -0.5640253
0.21974745 -0.36424673 0.36520708 0.041841127 -0.39914906 -0.044251405 1.2462289 -0.12365114
-0.5830769 -0.08419466 0.88323456 -1.0605583 0.7969167 -0.052396767 0.3514573 -0.49172452
0.15129241 0.0531089 -0.16856652 0.26913375 -0.78011763 -0.29064003 0.17974968 -0.63384193
-0.049222082 0.05969689 -0.016190736 -0.8334258 0.4895576 0.455152 -0.1908851 -0.0035320446
0.13853246 -0.00373844 -0.022296717 -0.28539616 -0.15548575 -0.1611994 -0.1349444 -0.6032828
0.26558816 -0.20048688 -0.6703297 -0.180102 0.97260594 0.088680014 -0.6640846 0.52828175
0.5668745 -0.7154435 -0.0942181 -0.07564826 0.20478567 -0.07621325 -0.10402026 -0.61313117
-0.3741755 -0.41709936 0.2369521 0.7442132 -0.20336159 0.13687369 -0.3121946 -0.22488807
1.1415539 -0.3781857 0.682017 -0.7184135 0.1117467 -0.09413434 0.026570298 -0.43901795
0.36009285 -0.3893941 -0.47103673 0.02316844 -0.057696432 -0.21998672 0.028921166 -0.20855756
0.30249107 1.0370651 -0.35847896 -0.38011616 0.15271029 -0.56611395 -0.28177854 0.025068995
0.38953 -0.40560576 0.54911417 -1.1631054 0.08902854 -0.28536615 -0.06293925 0.16141611
0.23087767 -0.5379176 -0.48311168 0.48202747 0.17218882 -0.43684956 0.29129198 0.011360333
-0.25940195 0.89213794 -0.71621305 0.37404075 -0.54553986 -0.0031508019 0.543348 -0.2886476
-0.29732013 0.24248905 0.0059788227 -0.048512336 -0.4498607 -0.34859064 -0.33212253 0.0905269
0.27852646 0.26430422 -0.31594723 -0.43043065 -0.5554769 -0.1797386 -0.12300751 -0.018739903
-0.33326724 0.2809096 0.35452467 -0.60166997 -0.50810343 0.020847155 0.33646396 -0.21548522
-0.07240645 -0.6863764 -0.08199849 0.89907944 -0.48913237 -0.74918145 -0.07641935 0.8612372
0.034631025 -0.39285052 -0.5525774 0.4205807 0.06502323 0.39068356 0.14117788 0.03729117
0.044946533 -0.20254803 -0.12023758 -0.3190859 0.011300135 0.35087857 -0.015490236 -0.63947594
0.38359126 0.11784971 -0.19039738 0.7430082 -0.014594301 0.22046712 -0.33703935 -0.14409252
0.6305451 0.054924835 -0.070189446 0.19050725 0.14613341 0.18796565 -0.054125592 0.31101558
-0.48221207 -0.41305825 0.14356583 0.051871784 0.50124633 0.7831578 0.8125196 -0.1402935

weight f4 [8]
00000000: f4d9 c43f 3bdb 9b3f 56c6 a83f 35eb b33f
00000010: eb49 a53f c578 ce3f 9d0a d93f 89b1 b03f
1.5379014 1.2176279 1.3185527 1.4056154 1.2913183 1.6130606 1.6956364 1.380418

bias f4 [8]
00000000: a4ea b1bc c3f7 f33e f5a2 20be a730 87be
00000010: 0bf1 49bd 61b5 c13d 0c75 f2be 0aca 873e
-0.02171833 0.47649965 -0.15687163 -0.26404306 -0.049302142 0.094584234 -0.47354925 0.2652133

running_mean f4 [8]
00000000: a3d3 52bf d942 33bf 8cfc 39c0 89cf bc3f
00000010: 963f d7bf 23d0 a4c0 ade9 10c0 adb6 57c0
-0.8235418 -0.70023876 -2.9060392 1.4750835 -1.681628 -5.1504073 -2.2642624 -3.3705246

running_var f4 [8]
00000000: 772e ab41 effd 0f41 1dcb cc40 20ca 8e41
00000010: ab4e b540 5f0a 0a42 abe7 3641 f066 6d41
21.397688 8.9994955 6.399794 17.848694 5.665853 34.510128 11.43156 14.837631

weight f4 [8, 8, 3, 3]
00000000: b0e3 97bd ba0b bb3e e09a b4be c989 92bc
00000010: ea1d 983e d87e 613c 4ac8 8fbf 3c3e c93e
00000020: e6e0 103d 24da 5a3e e282 cfbe 714e abbe
00000030: 05f9 ba3e 15b5 0dbf ed6b c43d 3b2c f5be
00000040: 898c bfbd 5942 bc3e ad20 bf3c d374 3cbe
00000050: 09f7 8f3c e3ea 953e 9823 5cbe caae df3e
00000060: 857e 743f f51c 1d3f a642 343e 7948 4d3e
00000070: dba1 67bf cc3b 323c 5354 36bd 78c4 7cbe
00000080: a6f5 5fbe 81a2 c0be ce20 8abe 219e 1ebe
00000090: cd97 ecbe a0c3 76bd 4c22 063d 84ff dfbd
000000a0: 6011 12be ad9a 453e 9f1f b8bd b4c4 313e
000000b0: 20e4 b1be 5d03 703e 60d1 9bbe cbaf 5fbd
000000c0: b4d8 963e be3b 6cbe c3fe ad3d fb59 773e
000000d0: b32d 2a3f 00a0 0e3e 07b6 6b3f d332 19bf
000000e0: 92f1 adbe 573f 1a3f 18bd 69bd ab4f 18bd
000000f0: 5c42 09bd c1ec 1fbf 1d26 a83e 9689 bdbd
00000100: 9058 cd3e b593 aebe 157e 713e 964a 6abe
00000110: 7ea7 823f 2862 653f f281 c8be af9a d6bd
00000120: ad6f 06be bfcb 4abe 9db6 1bbe f6ba 9cbd
00000130: 9076 92be f3f7 f6be 165f 89bf 9b56 98bd
00000140: ab53 4dbe 76ab 94bf bcf6 f0be 1243 183f
00000150: 6d1e 903e 5636 9cbe 6012 64bd 067c bdbe
00000160: ff95 b33e 0e07 70be 37bf 693d 2c0f 1a3e
00000170: 2401 f1bb d390 173f cfd8 2dbe 95aa c83e
00000180: 26a7 13bf 3fc7 a9bd c8ad 5a3f 90b2 d1be
00000190: 2a6c 02bf fccb 0bbe 0519 d9be 6a9f 853e
000001a0: 8065 b53e 76cc 36bf c3f3 f2be a9a1 27bd
000001b0: 1d16 bb3e 9a8d d93e 8a4e 6ebd 18e8 10be
000001c0: 0bbb ac3e 1b89 413e d468 f83e ab77 c03d
000001d0: 145d d1be 65e7 6abd b7ea 373e 3f1c 393e
000001e0: 6130 1ebe 7e78 4e3f a518 ebbe c882 d93e
000001f0: 2e35 8d3c bfb2 503f 915c ce3e 5573 96be
00000200: 1a5f e0be e7f1 3abd 6ea8 7cbe 274c adbe
00000210: ddab e1bd 5f3b 6b3e 293c 0abf 7e2e a4bd
00000220: d17a 273e 69e7 c6bd 3af9 333e d559 383d
00000230: 066d b6bd 9c4d edbe b84d 843e 76b8 3bbf
00000240: 5f6e e4ba 2911 04be f310 0d3f 2bfd 8dbe
00000250: e019 343f 6fb3 22bf 1008 64bf f805 84be
00000260: c572 963d de6b 91be a4ad 75bc 4f58 c8be
00000270: 636a 733d 5de7 e23d 5114 9f3c 9060 4d3f
00000280: 0384 a03e 454f 73bf 5e3b 143d 9d58 e43b
00000290: afbb f7be 3ad3 083f 9fa0 6ebe a2f6 533d
000002a0: 4f99 db3e 390a 483e 217f 163f ecad 073f
000002b0: 7e07 f3bd c197 183f 2a9e 613e dc62 11bd
000002c0: 952f 01bf b830 97be 62f3 8d3d 0c9b b3be
000002d0: d26b a93e cb0b 153f c6a0 3c3f 974b 95bd
000002e0: 6af7 f2bd fabc 93be f359 313e 1d37 79be
000002f0: f177 74be 5889 cd3c e0b2 cb3d 7079 563f
00000300: e8aa 093d 02b3 4a3e 6b3d 6d3f 3575 753e
00000310: e4bc 1cbf a0f6 3f3d e1c1 13bf ef58 19be
00000320: 75af 673d d6f0 0b3f 0bdc c33e e6ae 68be
00000330: 730a 0abf 6808 1ebf 9b39 69bf 94f4 a4be
00000340: 0af3 3cbe 7903 a7bd b268 14be 1854 443e
00000350: 0f8f 103f a2a5 b3be bbd2 bcbf 5991 873e
00000360: 9704 f83d dfe3 3abe ed97 90be 4831 4abe
00000370: b0dc e2bc 30cf a63e 75d4 7d3f 296a 6cbe
00000380: d90f 22bf ec4c e73e 64a5 073e fe90 143f
00000390: 635f abbe 7c42 d8be 58b8 88be 439d 113f
000003a0: cd4b cb3e aae8 923d ac19 bbbe 893c 86bc
000003b0: 2199 a5be 153e 1a3e e4d0 47be 16b5 f3be
000003c0: b303 913e f40c d4be 92d6 d43c 188e 77bd
000003d0: d2cd db3c 538b 333f ca64 a8be 11cf 08bd
000003e0: a8c6 eabe 9e73 b6be c91b f83e c24f 4bbe
000003f0: 34e1 79be b378 10be 4acb 603f 1157 24be
-0.07416475 0.36532384 -0.3527441 -0.017887967 0.29710323 0.013763152 -1.1232998 0.39305294
0.03537073 0.21372277 -0.40529543 -0.33458284 0.36518112 -0.55354434 0.09590898 -0.47885308
-0.09352977 0.3676937 0.02333101 -0.1840394 0.01757385 0.29280767 -0.21497953 0.4368804
0.95505553 0.6137231 0.1760355 0.20047177 -0.90481347 0.0108785145 -0.04451401 -0.24684322
-0.21871051 -0.3762398 -0.26978153 -0.15490009 -0.46209565 -0.060245156 0.03274755 -0.109374076
-0.1426444 0.19297285 -0.08990406 0.17360193 -0.34744358 0.23438783 -0.30433178 -0.05461101
0.29462206 -0.23069665 0.084958576 0.24155419 0.6647598 0.13928223 0.92074627 -0.59843177
-0.33973366 0.602529 -0.0570651 -0.037185352 -0.03351055 -0.6247063 0.32841578 -0.09254758
0.4010663 -0.34097067 0.23583253 -0.22880015 1.0207365 0.896029 -0.3916164 -0.10478722
-0.13128538 -0.19804285 -0.1520638 -0.076528475 -0.2860608 -0.48236045 -1.0732143 -0.07438394
-0.20051448 -1.1614826 -0.47063243 0.5947734 0.28148213 -0.30510205 -0.055681586 -0.37008685
0.35075375 -0.23440191 0.057067122 0.1504485 -0.0073548723 0.5920536 -0.16977237 0.39192644
-0.57676923 -0.08289956 0.8542142 -0.40956545 -0.50946295 -0.13652033 -0.424019 0.26098186
0.35429 -0.7140573 -0.474516 -0.040925656 0.3654031 0.42490846 -0.05818037 -0.14151037
0.33736452 0.18899958 0.48517478 0.09397825 -0.40891325 -0.05734958 0.1796063 0.18077181
-0.15448143 0.80652606 -0.4591724 0.4248259 0.017237272 0.81522745 0.40304998 -0.29384866
-0.43822557 -0.045640852 -0.24673626 -0.33847162 -0.110191084 0.22971867 -0.5399805 -0.0801668
0.16355444 -0.09712107 0.17575541 0.045007546 -0.08907513 -0.46348274 0.25840545 -0.7332834
-0.0017427913 -0.12897171 0.5510399 -0.27732214 0.7035198 -0.63555044 -0.890748 -0.25785804
0.07346109 -0.2840261 -0.014995012 -0.39129874 0.05942763 0.11079285 0.019418867 0.8022547
0.31350717 -0.9504283 0.03618943 0.0069685713 -0.4838538 0.53447306 -0.2330346 0.05174888
0.42890403 0.1953515 0.58787733 0.5299976 -0.118666634 0.5960656 0.22032991 -0.03549467
-0.5046323 -0.29529357 0.06931187 -0.3507923 0.33090073 0.5822112 0.7368282 -0.07289808
-0.11863597 -0.28855115 0.17319469 -0.2433743 -0.23873879 0.025089905 0.09946227 0.8377905
0.033610255 0.19794849 0.9267184 0.23970492 -0.61225724 0.04686606 -0.5771771 -0.14975332
0.056563813 0.5466436 0.38253817 -0.22722968 -0.53922194 -0.61731577 -0.91103524 -0.32217848
-0.18452087 -0.08154959 -0.14493063 0.19172704 0.5646829 -0.35087305 -1.475181 0.2647808
0.121102504 -0.18250988 -0.2824091 -0.19745362 -0.027693123 0.32579947 0.9915231 -0.23087372
-0.6330543 0.45175874 0.13246685 0.5803374 -0.33471212 -0.42238224 -0.26703143 0.5688059
0.3970627 0.071732834 -0.36543024 -0.016386287 -0.3234339 0.15062745 -0.19513279 -0.47599095
0.28323135 -0.41416132 0.025981221 -0.060438246 0.026831541 0.70134467 -0.32889396 -0.0334006
-0.45854688 -0.35635084 0.48458698 -0.19854644 -0.24402314 -0.14108543 0.87810194 -0.16048838

weight f4 [8]
00000000: 0f99 c13f a4b9 b23f 8f66 c93f 85d9 893f
00000010: 5514 963f 33fe 833f 4b3f b83f 3983 ae3f
1.5124835 1.3962903 1.5734423 1.0769507 1.1724955 1.031195 1.4394315 1.3633796

bias f4 [8]
00000000: 0511 7fbf e255 0bbf 0399 1abf 4634 25bd
00000010: 3ac6 1abf 56bb b5be a954 20bf f3d6 54bf
-0.99635345 -0.5442792 -0.6038973 -0.040333055 -0.6045872 -0.35494488 -0.6262918 -0.83140486

running_mean f4 [8]
00000000: 5a42 de3e 27b5 24c0 83f2 60bf 84d6 883f
00000010: d4ac 613f ee89 873f 73c7 0ec0 7ab6 0ebd
0.43409997 -2.5735567 -0.87870044 1.0690465 0.8815434 1.0588968 -2.2309234 -0.034841992

running_var f4 [8]
00000000: d8fe f340 a3ae 5241 6f24 ac41 b83e 4541
00000010: 9b9e 3140 1d48 a740 6ca4 c940 e594 da40
7.624859 13.167636 21.51779 12.327812 2.7753055 5.227553 6.301321 6.8306756

weight f4 [16, 8, 3, 3]
00000000: bf9c 12bf ae6e 51be b2aa c43a 7717 47be
00000010: 436c 39bd a62a 9cbe 860c f5be 1937 89be
00000020: c97b 0fbe 74a8 10be 36a2 3ebe ce7d 48bd
00000030: eea4 183e 3d98 51be 63fe dcbc 3476 5cbe
00000040: 4611 c3be de11 c23c f111 793e 5fe7 943e
00000050: 1c0e d9bd 405b e2be 7c40 953c 9a86 babe
00000060: 0d9f 0cbf 37a7 d63d b6eb 07bf 1796 bfbe
00000070: f316 433d eb68 823e 9ce4 c2bd 2d0d 7f3d
00000080: b442 a0be 769e b93c 0d48 f1be 3a9a e23e
00000090: a799 afbe 15f4 263e 2328 163e ebac 933d
000000a0: d716 0d3c 5bc1 06be 01dc e7bd 1e37 9a3e
000000b0: 7786 2ebe b72f bb3d b1e6 c3bd e8ba 84be
000000c0: 638c f6bd 2af7 c0be f659 2ebe 7bf8 cd3c
000000d0: f0c0 c3be 8376 393e ce63 113e 4ef3 8a3e
000000e0: 9440 14bf 4f4b 21bd 042f 6a3d f3ed 443e
000000f0: be42 5fbd 877d 10bd 5a22 693e e321 3ebc
00000100: 0ba7 e1bd e975 fcbe cc1a b2be 6bb6 083f
00000110: ca65 91be e072 523d ebf3 3bbe 1961 4a3e
00000120: 9af2 873e 3ca1 f73d 21e9 04be 746b 66bd
00000130: 0db5 233e d924 c53d f58f 203e f2f8 653d
00000140: 489b dcbd a2fe 853e d2e7 3e3e 67b0 82be
00000150: e3be e0bd ae37 c03c 7a09 2abe 0dd3 e03e
00000160: 3595 653e a480 f43e 5933 e9be 9c0a 42be
00000170: c974 5c3e 00b9 dabd 4fc5 adbe d420 debe
00000180: 38b9 d9bd 5263 0abc d35c a43e bffe 61be
00000190: ddb1 d9be 79f3 0ebe 9b05 60be 1fa7 03be
000001a0: 8db3 e43e 29d5 df3d 79ef 93be 8dc4 6ebe
000001b0: 91a4 f1bd 5f22 74be 0d27 fc3e 5f8a 78be
000001c0: 179b be3d 8d30 433e 1aa8 5bbe 1abe de3d
000001d0: a1ef 27be 3fc6 c4bd 365e bb3e 88cf 2dbe
000001e0: c1fc 7ebe 2ba5 1bbd 066f 653c 1031 2cbd
000001f0: 2f0b 78be 8e1a 17bf cc93 20bf 2942 64be
00000200: 1ed2 acbe 9970 9dbe d1d5 abbe 6058 0cbe
00000210: c23c 103f 6f31 1f3e 380a 44bf 344a ed3e
00000220: 1c83 1abe 131a c73d d8f4 1ebe a2d7 bcbe
00000230: f2ff c2be ca0c 603e 911a 9b3e 0a8a 81bd
00000240: d2b4 023d e3de 893e 98be 0fbf cb80 f7be
00000250: 79f2 c6be 8179 343e 4171 e6bd d85a a2be
00000260: 1a04 13bb bf07 9a3d c621 06be b97f 003f
00000270: 1149 bcbe c92f 163e 14d1 85be c942 913d
00000280: 2dca 5f3e 6d8b bcbd 9c6e bbbe 36f5 9f3d
00000290: 9e3b e6be b22a ce3e ad0c 803e 1a2f b8bd
000002a0: deda fa3d 742e 78be 5d86 3dbe 65ce 24be
000002b0: da83 bcbe 9a22 a23e 9584 cd3d d836 913d
000002c0: d60c af3d df27 b03d de3f 56be a0fe 57be
000002d0: a31d 00bf 99a7 64be 93e9 d93d 7a62 bbbe
000002e0: 29de f33d 22ad 5b3e 25a2 1e3e d793 103e
000002f0: 62ee 853d 2eae 423e bbb9 803e 9706 6bbe
00000300: 439c 1ebe c29f fcbc e9fe 8d3e 3495 163f
00000310: f0ac 30be 1aa8 453e 3933 aa3c 7f18 0b3d
00000320: ca6d 963e 6159 99be 647d 8fbe 54c6 71be
00000330: feec 833e f589 d7bd b3a7 4c3e 0485 123c
00000340: 4352 cf3d 1576 293d 1b50 763d 6efe 9f3c
00000350: e95e 72be 9cc6 3abe 7071 36bf a58d 213c
00000360: 6659 953e d444 3cbc e086 fabe 6d3d 0abf
00000370: 6c70 cfbe 4a28 8a3e c1dc 6dbe 4697 6c3d
00000380: 99e2 403e 9cf6 8fbd c9ab 13bf 8367 b63d
00000390: 55b1 9cbd e092 4f3f f880 bebe c396 473e
000003a0: 6317 133e 9ada 00bf 74fe 7e3d 8489 a5be
000003b0: b701 d2bd 4c62 04be f73d b03e 8b3c 253f
000003c0: f6f3 a2bc 8672 0ebe 1ade 9c3e 41be 73be
000003d0: ae31 00be d869 81be 7b9d 713e cc03 243d
000003e0: 9162 b93e bfaf d9bb d534 0f3f 75e5 cd3e
000003f0: 4fb9 7d3e d2ec 103e d617 3fbe ae9a 933d
-0.57270426 -0.20452377 0.0015004484 -0.19442545 -0.045269262 -0.30501288 -0.47861117 -0.2679985
-0.14012064 -0.1412676 -0.18616566 -0.0489481 0.14906666 -0.2046823 -0.02697677 -0.21529466
-0.38099116 0.02369016 0.2432325 0.29082772 -0.10598394 -0.44210243 0.018219225 -0.36430818
-0.5493019 0.104811125 -0.5309404 -0.37419197 0.047629308 0.2547067 -0.0951626 0.062268425
-0.3130089 0.022658568 -0.47125283 0.4425829 -0.34296915 0.16304047 0.14663748 0.07210716
0.0086114025 -0.13159697 -0.11321259 0.30120176 -0.17043482 0.0913996 -0.09565485 -0.25923848
-0.120384954 -0.3768857 -0.17026505 0.025142899 -0.38233137 0.18111615 0.14198229 0.27138752
-0.5791104 -0.03937846 0.057173744 0.19231395 -0.05450701 -0.035275962 0.2276701 -0.011604759
-0.11018189 -0.49308708 -0.3478607 0.5340335 -0.2839797 0.051379085 -0.18354766 0.19763602
0.26552278 0.120913 -0.12979557 -0.05625482 0.15987034 0.09626169 0.15679915 0.056145616
-0.10771805 0.26170832 0.1864312 -0.2552521 -0.10973909 0.02346405 -0.16605178 0.4391102
0.22420199 0.47754395 -0.45546988 -0.1894936 0.21528925 -0.10679817 -0.33939597 -0.4338442
-0.10631031 -0.008446531 0.3210207 -0.22069834 -0.4251851 -0.13960065 -0.21877138 -0.1285672
0.44668236 0.10929329 -0.2889364 -0.23317166 -0.11798967 -0.23841237 0.49248543 -0.24271534
0.09306925 0.1906149 -0.21450844 0.10876103 -0.16400005 -0.09608125 0.36595315 -0.16973698
-0.24901105 -0.037999313 0.014003521 -0.042038977 -0.24223016 -0.59024894 -0.6272552 -0.22290863
-0.33754057 -0.30749968 -0.33561566 -0.13705587 0.5634271 0.15546201 -0.7657809 0.46345675
-0.15089077 0.0972177 -0.15523088 -0.36883265 -0.38085896 0.21879879 0.30293706 -0.06325157
0.031910725 0.26927862 -0.561502 -0.4834045 -0.38856867 0.17624475 -0.1125207 -0.31709933
-0.0022432865 0.07521009 -0.13098821 0.5019489 -0.36774495 0.14666666 -0.26136076 0.070928164
0.21854468 -0.09206281 -0.36607826 0.07810442 -0.4496736 0.4026695 0.2500967 -0.08993359
0.12248777 -0.2423647 -0.18508287 -0.16094358 -0.36819345 0.31667024 0.10035054 0.07090539
0.0854737 0.08601355 -0.20922801 -0.21093225 -0.5004522 -0.22329558 0.10640254 -0.3659857
0.11907608 0.21452764 0.1549154 0.14118896 0.065396085 0.19011757 0.251417 -0.22951733
-0.15489297 -0.030837897 0.27733544 0.58821416 -0.1725347 0.19302407 0.020776378 0.03395891
0.29380637 -0.29951003 -0.28025353 -0.23610812 0.25766748 -0.1052436 0.19985847 0.008942846
0.10123112 0.041372377 0.06013499 0.019530501 -0.23669018 -0.18239826 -0.7126684 0.009860431
0.29169768 -0.011491019 -0.48931026 -0.5399998 -0.4051546 0.26983863 -0.23228742 0.057761453
0.1883644 -0.07029459 -0.57684 0.08906462 -0.07651011 0.8108349 -0.3720777 0.19491105
0.1436439 -0.5033356 0.062254384 -0.3233148 -0.10254233 -0.12928122 0.34422275 0.64545506
-0.01989172 -0.13910875 0.306382 -0.23803045 -0.12518951 -0.25276065 0.2359523 0.040042683
0.36208013 -0.006643265 0.5593999 0.40214124 0.24777721 0.1415284 -0.18661436 0.07207237

weight f4 [16]
00000000: 5b57 d63f 9366 f93f a3f2 be3f 74eb 0140
00000010: e25b 4540 8d78 0840 add1 0940 d9c9 de3f
00000020: cf57 c73f 4c09 e23f 7007 f53f d032 bb3f
00000030: a926 dc3f 847b cc3f 9db1 dc3f b939 c93f
1.6745409 1.9484428 1.4917797 2.029996 3.083733 2.1323578 2.1534226 1.7405349
1.5573672 1.7659087 1.9142895 1.4624882 1.7199298 1.5975194 1.7241703 1.572074

bias f4 [16]
00000000: 88dc 8d3f 6e8d 123f 6e30 553f f347 2f3f
00000010: f678 9bbf 4f32 a83e 9220 983e 8786 ce3e
00000020: 8ef4 7b3e 022a 013e 3810 633e d10d 7c3e
00000030: 8159 d83d eb01 8d3e 2aca 223e 573f 463e
1.1082926 0.57247055 0.8327702 0.6846916 -1.2146289 0.32850882 0.2971235 0.4033701
0.24605009 0.12613681 0.22174156 0.24614646 0.105639465 0.27540526 0.15897432 0.193601

running_mean f4 [16]
00000000: a0d2 e9bf b453 71bf 0b52 61bf 6489 2f3f
00000010: 7164 4dc0 2a77 97be c292 173e 2084 1c3e
00000020: 53d0 f83d a0a2 693e 1ce8 05bf 2f93 803d
00000030: 43c9 223c 2afb 8e3c 8118 663c f4f7 ba3e
-1.8267403 -0.94268346 -0.8801581 0.68569016 -3.2092555 -0.29583102 0.14802077 0.15284777
0.1214911 0.22815943 -0.52307296 0.06278073 0.00993568 0.017453749 0.014043928 0.36517298

running_var f4 [16]
00000000: fb8f 1a40 c421 713f 14bf 753f 8244 1140
00000010: d3f6 2140 e5aa 893f 9697 0c40 ae9f 963f
00000020: ce7d ea3d 6377 573e 1040 0a3e 0b0f 623d
00000030: 535b db3d f885 f03d 131e 123e 4afa 4d3e
2.4150379 0.9419215 0.9599469 2.2698064 2.53069 1.0755278 2.196752 1.176748
0.114497766 0.21041636 0.13501 0.055190127 0.10710778 0.117443025 0.14269285 0.20115009

weight f4 [64, 96]
00000000: 09c2 133e 1e44 d43a 5d6d 89bd a57e 613d
00000010: b509 b13d 2abe f13d 25b2 01be a1a8 713c
00000020: cae1 20b9 e182 cf3d 5cf8 ed3c 35e9 e8bb
00000030: ba5c ef3c 6809 433d 193c 1d3d 77b3 753d
00000040: 0eaa b5bd 1faf fdbc 4d94 e53d daac 9b3b
00000050: 4813 143b baaa cb3d 1032 a13d 7e5d 21bc
00000060: 8841 cabd 2838 6b3d 4ac9 c03d cc2a cd3a
00000070: 4e54 1f3d b585 ae3c b8d0 3fbd 13ac 093d
00000080: 6c13 c2bd 0204 f8bc 6e99 81bd 18f4 bbbc
00000090: fa72 263d 2e49 88bb 737f 433d 0b94 c3bd
000000a0: d42c 8d3d a904 b4bd 09a6 153e 2f8a 653d
000000b0: 52ba ae3d daa9 b83d f98f fcbc 3405 c03c
000000c0: 3c60 b1bd 8717 ff3c 8c57 0dbd 0ee6 8e3c
000000d0: b7b6 3dbd 0de3 4ebd ec3c d2bc 7f35 ba3d
000000e0: e196 f8bc a8a1 edbc 6171 80bb f1f3 293c
000000f0: 2b7c 1ebd 0b92 d73b 552f 0cbd 7828 1ebd
00000100: 2256 d1bd cd15 aa3d e4b1 98bd 017e ea3d
00000110: a2c5 80bc 48aa f93d 2cc0 853c afca 7cbc
00000120: 69f6 b03c fdb5 88bc b604 cabd 7dae 21bd
00000130: 3afc 7c3d 302d d53c 511f 91bd f56f dd3b
00000140: 2029 eb3d 4d94 03bd 65f5 3cbd 524c 94bd
00000150: ca07 11bd 8602 593d 85fd a8bc ad2e d1bc
00000160: 7f89 a6bd 5d09 5fbd 7d84 3f3d d28a c53d
00000170: 8ab8 803d 7103 e6bb 3900 ebbd 8293 2ebd
00000180: c238 a8bd 506f d03c 71b9 163d 9388 9c3d
00000190: f7f6 94bc b568 aebd 24e9 01bd b55d ef3c
000001a0: 2788 ba3d fa98 a73c bc4f 0cbd 173d a6bd
000001b0: c813 b4bd 273d 45bd 69ba 5ebd 699d 8cbc
000001c0: b5a8 90bd 3a1d 143d 7e34 e2bc 264d 21bd
000001d0: ce60 7b3d 9f2f 2cbd f26f a0bd 58d8 d43c
000001e0: 6bf5 893d 6d73 a83b c3f9 0bbd 1d51 1f3c
000001f0: d078 39bd a5ee 9cbd 9c0f 54bd 72bc a6bd
00000200: edf3 553d be9e a63d f3ce 39bd 1a30 dbbc
00000210: 2608 913d d480 98bd 12cc 37bd 38cc 09b9
00000220: 3c73 e3bc 230d abbd 9689 503d 6991 223d
00000230: b14d a33d 1ad6 3d3d 2e81 d7bc e391 d0ba
00000240: cdcf 07bd 3408 98bd 48b6 e53c c342 013d
00000250: 4535 ddbb 312e babd 06a5 b23d ab0f 3c3e
00000260: 6a82 9e3c 383d 083d f1f0 bebd 75b3 153c
00000270: d237 193c 9308 0d3c 2049 64bc d941 953d
00000280: f15d 4a3c 94bf 533d af52 653c 1a0d 3bbc
00000290: 180a 993d d99e 9d3d 8651 4cbc f3e3 15bd
000002a0: e2cd d73c 983e 2b3d c49b bd3b 5a4c a5bd
000002b0: ede7 97bd ca0e 9e3d cd46 7abd cf90 a1bd
000002c0: d2ec 40bc 9d04 e0bc c7bf 133d 9b0d 91bd
000002d0: 5a85 6f3d d225 ab3c 1a62 b03c 2b25 b4bd
000002e0: 6040 b53c 192c c2bd 3c31 69bd 6e80 463d
000002f0: a254 373d 5ac4 babd e0bd 13bc 5c95 d4bb
00000300: f0cd 7c3d 6711 ba3d 5d0b d73d 74ed 693c
00000310: 2550 1a3e 5cb4 333d 8258 d8bd 100f c13d
00000320: ff2b 74bd 0b06 4ebd 77cc 033e 22fc 573d
00000330: f938 653d c23e a3bd 809b 02bd ca88 253d
00000340: 6dc4 053e 7808 133d dfe3 793d 1ac1 5dbd
00000350: b300 fe3d 0537 85bd bdb8 263d 4ffb 033e
00000360: 9fb1 af3d 2a93 5c3d 902e ed3d e6fd ab3d
00000370: 5d88 17bc c695 0ebd 7b12 df3d d0e4 843d
00000380: bdcf 70bd d6f7 d03d 9cb0 653c 3c91 833d
00000390: 6a67 653d 5451 3fbd fba4 9e3c d9d2 88bc
000003a0: e1eb f33c 601d de3d f0ec f5bb e474 f2b9
000003b0: 3484 e23d 51cb 193e 3724 2b3d 4ec7 e43d
000003c0: 96d8 403c 4605 d83c c296 fcbd f2c6 ba3d
000003d0: 1eaa a4bd f8fa a4bd 0f2b 953b ca84 873d
000003e0: bd1f ae3d a312 613c 4391 df3d 43b6 2a3d
000003f0: cd2f c7bc efcc 773d 1775 3a3d ae25 cfbb
0.14429487 0.0016194617 -0.067103125 0.05505242 0.086444296 0.11803849 -0.12665613 0.014749677
-0.00015342902 0.10132385 0.029049091 -0.0071078786 0.02921902 0.047616392 0.03838739 0.059985604
-0.08870326 -0.030967293 0.11209927 0.00475083 0.00225945 0.09944673 0.07870877 -0.00984895
-0.0987578 0.0574266 0.09413393 0.0015653013 0.03889876 0.02130399 -0.04682991 0.03361137
-0.09476361 -0.030275349 -0.063280925 -0.022943541 0.040636994 -0.0041591143 0.047728967 -0.09549721
0.06893316 -0.08789951 0.14614119 0.056039985 0.085316315 0.090167716 -0.03083037 0.023439981
-0.086609334 0.031139148 -0.03450732 0.017443683 -0.04631683 -0.0505095 -0.025663815 0.09092235
-0.030345382 -0.029007748 -0.003919766 0.010373102 -0.038692635 0.006578689 -0.034224827 -0.038612813
-0.10221507 0.083049394 -0.07455805 0.114498146 -0.015719239 0.12190682 0.016326986 -0.015429183
0.021601873 -0.016688341 -0.0986418 -0.039473046 0.06176398 0.026022524 -0.07086051 0.006757731
0.11482453 -0.032123853 -0.046132464 -0.072411194 -0.03540782 0.052980922 -0.0206287 -0.025534952
-0.08131694 -0.05445229 0.04675721 0.096456185 0.06285198 -0.007019453 -0.11474652 -0.042621143
-0.08213951 0.025443703 0.036797944 0.07643237 -0.018184168 -0.08516065 -0.03171648 0.029219488
0.09108 0.020458687 -0.034255728 -0.08117121 -0.087928355 -0.048154023 -0.054376993 -0.017164903
-0.07063428 0.036160685 -0.02761292 -0.039380215 0.061371617 -0.042037603 -0.07833852 0.025982067
0.06736263 0.005140713 -0.03417374 0.009723929 -0.04528123 -0.07662705 -0.0517727 -0.08141412
0.05223458 0.081357464 -0.045363378 -0.026756335 0.07081632 -0.07446447 -0.04487235 -0.00013141416
-0.027764909 -0.08352115 0.050912462 0.039689455 0.07973803 0.04634676 -0.026306715 -0.0015912618
-0.03315716 -0.074234396 0.02804102 0.03155781 -0.006750735 -0.090908416 0.08722882 0.18365352
0.019349296 0.033261508 -0.093233 0.009137024 0.0093516875 0.008608001 -0.01393345 0.0728795
0.012351499 0.051696375 0.013996764 -0.011416698 0.07472628 0.076963134 -0.012470609 -0.036594342
0.02634329 0.04180774 0.005786391 -0.080712035 -0.07417283 0.077176645 -0.061102677 -0.07888948
-0.011775212 -0.02734595 0.036071565 -0.07082673 0.058476783 0.020892058 0.021531153 -0.08796152
0.022125423 -0.09481067 -0.05693172 0.048462324 0.044758447 -0.09119482 -0.009017438 -0.0064875316
0.061719835 0.090853505 0.10500214 0.014277805 0.15069635 0.043873176 -0.105637565 0.09426701
-0.05961227 -0.05029873 0.12870966 0.052730687 0.055962536 -0.079709545 -0.031886578 0.040413655
0.13063212 0.03589675 0.06100833 -0.054139234 0.12402477 -0.06504635 0.040703524 0.12888835
0.085788004 0.053851284 0.11581147 0.08398037 -0.00924882 -0.034810804 0.10892197 0.06488955
-0.058791865 0.10203521 0.014019158 0.06424186 0.056006826 -0.04670842 0.019365778 -0.016702102
0.029775562 0.108454466 -0.007505052 -0.00046244927 0.11060372 0.15018965 0.041782584 0.11170827
0.011770388 0.026369702 -0.12333442 0.09119977 -0.0804026 -0.08055681 0.004552252 0.066171244
0.08502147 0.0137373535 0.10916378 0.041677725 -0.024314785 0.060498174 0.04552182 -0.0063216304

bias f4 [64]
00000000: 42f5 273e 6007 c73d 4e8c 503e 89d3 9bbc
00000010: 7a0f d2bd ded7 83bd cc40 73bd b651 523e
00000020: 0772 b63e bed2 1d3b 133e 483e 54f1 aa3e
00000030: a3a6 cbba 9669 a13d 0110 073e e971 d1bd
00000040: 4fe1 53bd 0cb0 3e3d 1d07 27bd 4808 b93e
00000050: d923 71bd 4723 d03d e0f9 3f3e 8968 c83d
00000060: eaa0 78bd 7fe6 bebc 67d0 b13d a6fd 8a3b
00000070: 44cf 673e 40d8 c13d 9c40 c13d 4a35 de3d
00000080: b600 2cbd 2ee1 d53c 23d2 8cbd 96d8 48bd
00000090: c4b0 f439 7995 753e 3f55 2c3e df71 283e
000000a0: 13a8 aa3d 0eab 3f3d 7de0 aa3e 021a 003e
000000b0: bde9 39bd bb20 cabd f820 ed3d 9071 e33c
000000c0: 1ddf 883c fbb5 f3bc 717b 893c 8f16 febc
000000d0: 2470 6f3e 5f21 d03c ab7f 783d ead2 20bb
000000e0: fdc4 883d fafc 703e eee8 27bd be41 183e
000000f0: ab98 843d b1f6 b33c 83e0 6d3e 5f4e bcbd
0.16402152 0.097182035 0.20366022 -0.019021766 -0.10256858 -0.06437658 -0.059387967 0.20538983
0.3563387 0.002408191 0.1955493 0.33387244 -0.0015537333 0.07881467 0.13189699 -0.10226805
-0.051728543 0.04655461 -0.040778268 0.3613913 -0.058872078 0.101629786 0.18747663 0.097855635
-0.060700335 -0.023303268 0.08682328 0.004241663 0.2263766 0.094650745 0.094361514 0.10850008
-0.041992866 0.02610835 -0.06876018 -0.049034677 0.00046671007 0.239828 0.16829394 0.16449688
0.08332839 0.04679399 0.33374396 0.12509921 -0.045388926 -0.09869524 0.11578554 0.027764112
0.016707951 -0.029749861 0.016782494 -0.031016616 0.23382622 0.025406538 0.06066863 -0.0024539777
0.066781975 0.23534003 -0.040993623 0.14868829 0.064744316 0.021968218 0.23230176 -0.091946356

weight f4 [1, 64]
00000000: 2a9b 5d3e cfef cdbd cfc0 a33e 1e53 58bf
00000010: 08a5 9abd 9af8 1cbe c582 1ec0 8766 0a3f
00000020: edf5 1e3f 0174 563e 6c6c 023f 070d 1e3f
00000030: d63f c9bf 8d5c b43e 94c8 983e 7c90 1d3c
00000040: f362 8bbd a019 b73d 62b5 d2bf 1a71 263f
00000050: c116 86bf c0bd 873e f892 bc3e 6fde 93bf
00000060: dad4 f2bb 5862 b3bf 241e 22be 583a a7be
00000070: f782 133f 1744 923e 5a87 623e f2c4 093e
00000080: ee58 9bbf d33c a4bf 9748 c2bf 5cc6 a4bd
00000090: 8611 36bd 33cc e73e 5197 843e d34e 9d3e
000000a0: 6b13 ff3e 3a52 cc3d dacd 4d3f bf6c 903e
000000b0: 2b33 d3bf af55 863d 0435 b33e 46e5 873e
000000c0: ab4c 103e bc8a a4bf 1276 583e b1d1 d2bd
000000d0: 5619 ca3e 8ab4 2d3d 96ad 1e3e 7533 b23d
000000e0: 36f5 9abe 83bc de3e 27ae ebbd c09b 923e
000000f0: 2cfa c1bd c5be c6bc 3bfd c13e d5d5 9ebf
0.21641222 -0.100555055 0.3198304 -0.84501827 -0.075510085 -0.15329209 -2.4767315 0.54062694
0.62094 0.2094269 0.5094669 0.6173863 -1.5722606 0.3522686 0.2984053 0.009616967
-0.068059824 0.089404345 -1.6461604 0.6501633 -1.0475694 0.26511955 0.36830878 -1.1552256
-0.007410628 -1.4014387 -0.1583181 -0.326617 0.5762171 0.28567573 0.22121945 0.13454035
-1.2136514 -1.2831062 -1.5178403 -0.080456465 -0.044450305 0.4527298 0.25896695 0.307242
0.49819502 0.09976621 0.8039223 0.28207967 -1.649999 0.065593116 0.35001385 0.2654211
0.14091747 -1.2854838 0.2113879 -0.10293902 0.39472455 0.042408504 0.15495905 0.08701221
-0.30265206 0.43503198 -0.11507826 0.28634453 -0.094715446 -0.024260888 0.37888512 -1.2409006

weight f4 [64, 96]
00000000: fd07 ddbd 3a47 c0bd 2dc1 063d 2c77 f23c
00000010: 8549 91bd 2be7 96bd 28c3 333c f894 cfbc
00000020: 4132 793d f2be 173c 9568 a13d a12b 823e
00000030: a846 263e 42bb 55bd d39d debd 60de 123e
00000040: 397b 99bc 35e7 d03d ad1b 76bd 54a5 d0bc
00000050: ccb4 023d ac0b ee3d 399f 74bd 80be 213e
00000060: 86e6 2fbd d895 35bd bb34 133e 9c3e 823d
00000070: 7211 80bd 3ae8 5f3d 8d77 44bd 5ecf 4bbb
00000080: ab5c 1a3e 1965 01be c955 143e c32b 4c3e
00000090: a630 ccbb 919f 8e3d f2df afbc 856f a3bc
000000a0: ac5e 5c3d 95eb a63d 0330 7c3c f94f bfbd
000000b0: 771c 513c 6d32 9cbd 16fd 4b3e f61a d13d
000000c0: 95f3 d4bd 8712 7d3d 5037 273e 5caf b73d
000000d0: 7ccf 653c eb69 cc3d 3095 0b3e 41b9 553c
000000e0: 0b38 c53c a9a6 993d 06d3 e53c ff1e 4d3e
000000f0: 508b 073e f81c 66bc 14da 4abd 216a 35bd
00000100: 19c1 18bc 7888 de3d dbcd 11be 7098 cfbd
00000110: c06a c53c a03b bf3d 937a 643d 0b6f 19bc
00000120: 9386 c63d bc40 20be 45eb 8d3d 0ac8 4b3d
00000130: e471 87bd 6511 a03d 49e3 e6bc 6307 fc3c
00000140: 5c0a 1cbe 305b 373c ef0b a93d e8c9 abbc
00000150: 7c5f e43c c627 c8bd 6c58 fc3d a67d cdbd
00000160: 47b0 babb 0b0f 3bbd b480 cd3c 9138 38bd
00000170: 8a08 4abd b15e 663d 4b54 c33c 1aec b2bd
00000180: 38c3 263d 8df4 313d 4764 14bc 0cd2 873b
00000190: 810a 203d 7e9f 843d b433 d53d 094e e73d
000001a0: 32e4 90bd d62b 0c3e e74d c0bd 40c4 11be
000001b0: d694 0d3e f3b1 d13c e664 4ebc d363 ac3d
000001c0: c4f7 823d 9e54 7d3d fcf3 5cbd 60d2 b73b
000001d0: 1bdc 303d f756 8abd 6fc3 633d 841d d8bd
000001e0: 4077 e73d 96c3 aebc e464 42bc f277 0a3e
000001f0: 227f 0c3e 4ad8 2f3e e189 c03d d259 8dbc
00000200: f4d5 91bd 2782 503d 0dd2 7f3d 8baf 98bd
00000210: 8f48 923b ca76 22bb 5275 7cbd c07e d23d
00000220: d77e aabd b14d 91bc 4901 b1bd bde8 d23d
00000230: cdd4 483e 19d7 303e 04cf 17be e81b 893c
00000240: 9c9d ac3d 7992 ff3c 0f65 1abe 4c2d dabd
00000250: e688 d8bd 1201 953c 89d0 cabd effe 14bd
00000260: ff6a 533c c56f 0f3e 5185 76bb d714 1ebd
00000270: d57c 85bc d30f 0a3e ae17 063d a3b3 6cbd
00000280: 073c 31bd c620 a23c 07ae 253e f757 e73d
00000290: 2436 2fbd e574 d1bc 6a66 2a3e 3140 7dbd
000002a0: 974f 103d a3a2 b23d 7ae8 e93d 8dff 0d3e
000002b0: 99c2 783c bbd2 bfbd 854a 51bc 622f e13d
000002c0: 0c55 0e3d 9923 93bd 9ef2 7cbc bbed 163c
000002d0: 6ec6 50bd fcca 343e 4e44 53bc 90d5 3c3e
000002e0: 6c47 9a3d 3f3e 2e3e 5f9a 493d d011 4f3d
000002f0: 7129 c4bd f142 0cbd 954e 09be ebac 123e
00000300: 4a52 85bd 53fb dd3d 6fba f8bc ed8d 8c3d
00000310: 168e b83c 15cc 703c 90d8 a9ba 0a59 003d
00000320: 9efd c1bd 604c 00bd 435f 42bd 45bc 60bd
00000330: 24c8 63bd 3c3c 3fbc 14a7 cdbd 745b 06bd
00000340: eccb 05bd 08e8 afbc 8705 c7bd 3ef1 a7bd
00000350: 5ebf 9d3d d1aa 543d 653e a13d 29bb d0bc
00000360: 55bd 4a3c d51c 1abd 832a 943c 2497 393d
00000370: 4d45 58bd 3fae dabd 5075 803d 8909 14bd
00000380: caee 8dbd 0d60 99bd d29c 25bd 9679 e3bd
00000390: 2ff0 483d 77f3 44bd b6d2 e03a 52f4 c9bc
000003a0: f4a4 bc3d d6c3 1ebd f07e bb3d e76b 85bd
000003b0: a475 c63d 4d1f ba3c f487 e03d f762 4ebd
000003c0: 9fea b43d c627 debc 277a b3bd d188 a23b
000003d0: 85ef 413d 570c 5f3d e603 e33d a2ec 3c3d
000003e0: 8101 a43d 31a0 05bd 9411 233d 8e31 ca3d
000003f0: d101 7bbd 4bda a9bd 2bda da3d dfad 073d
-0.10792539 -0.093885854 0.03289907 0.029597841 -0.07094101 -0.073683105 0.010971822 -0.025339589
0.06083894 0.0092618335 0.078812756 0.2542391 0.1623789 -0.052180536 -0.10869946 0.14342642
-0.018735515 0.10200349 -0.060084987 -0.02546946 0.031910703 0.1162332 -0.05972216 0.15795326
-0.042944454 -0.044332355 0.14375584 0.06359598 -0.062533274 0.054664828 -0.047965575 -0.0031098942
0.15074413 -0.12636222 0.1448585 0.19938569 -0.0062313853 0.069640286 -0.02146909 -0.019950638
0.053801224 0.081504025 0.015392306 -0.093414254 0.012763134 -0.076268055 0.19920763 0.102102205
-0.10398022 0.061785247 0.16329694 0.08968994 0.014026519 0.0998114 0.1363113 0.013044656
0.024074575 0.07502491 0.028054725 0.20031355 0.13236737 -0.014044993 -0.04952438 -0.044290666
-0.009323382 0.10865873 -0.14238684 -0.10136497 0.024098754 0.093375444 0.05578096 -0.009364854
0.09693637 -0.15649694 0.0692964 0.04975132 -0.0661352 0.07815818 -0.02818455 0.030765241
-0.15238327 0.011191174 0.08254229 -0.0209703 0.027877562 -0.09773211 0.12321553 -0.10033731
-0.0056972834 -0.045668643 0.025085784 -0.04497582 -0.04932455 0.05624265 0.023843905 -0.08736439
0.04071352 0.043446112 -0.009057111 0.0041449126 0.039072517 0.06475733 0.10410252 0.11294181
-0.07074775 0.13688597 -0.09389859 -0.1423502 0.13826308 0.025597548 -0.012597298 0.084174775
0.06394914 0.061848275 -0.05394362 0.0056097955 0.04317866 -0.067548685 0.055606302 -0.10552505
0.11302042 -0.021333497 -0.0118648745 0.13522318 0.13720372 0.17172351 0.09401298 -0.017254744
-0.071208864 0.050905373 0.06245618 -0.07455357 0.004464216 -0.0024790042 -0.061635323 0.10278082
-0.08324974 -0.017737241 -0.08642823 0.102982976 0.19612427 0.17269553 -0.14825064 0.01673694
0.08428499 0.031197773 -0.15077613 -0.10653171 -0.10572986 0.018188987 -0.09903056 -0.036375936
0.012903928 0.1400748 -0.0037616084 -0.038594093 -0.016294876 0.13482599 0.032737426 -0.057788502
-0.043270137 0.019791018 0.16179667 0.11296075 -0.042776242 -0.025568435 0.1664063 -0.061828796
0.035232153 0.08722427 0.114212945 0.13867016 0.015183114 -0.093663655 -0.0127741145 0.10995366
0.034749076 -0.07184524 -0.015438704 0.009211953 -0.050970487 0.17655557 -0.012894703 0.18440843
0.07533154 0.17015933 0.049219485 0.050554097 -0.09578217 -0.034243528 -0.13408883 0.14323775
-0.06509836 0.10838952 -0.030362336 0.06863008 0.02252869 0.014697094 -0.0012958217 0.031334914
-0.09472202 -0.031322837 -0.04745413 -0.054867048 -0.05561079 -0.011672076 -0.10041633 -0.03280206
-0.03266518 -0.021472946 -0.09717851 -0.0820031 0.07702516 0.051920716 0.07873229 -0.02547987
0.012374242 -0.037625153 0.018086677 0.045310155 -0.052800465 -0.10677766 0.062723756 -0.036141906
-0.06930311 -0.07489023 -0.04043276 -0.11107175 0.049057182 -0.04808375 0.001715264 -0.024652634
0.0921115 -0.038760982 0.09155071 -0.06514721 0.09690407 0.022720004 0.10963431 -0.05038735
0.08833813 -0.027118575 -0.08763533 0.0049601574 0.047347564 0.054455128 0.11084728 0.046124108
0.08008099 -0.032623474 0.039811686 0.09872733 -0.06128103 -0.08293589 0.106861435 0.0331248

bias f4 [64]
00000000: bd77 f73c 17af bd3d 7334 033c 14da 39bc
00000010: 782e d3bd a90f ba3c 2647 b33c 6341 d43d
00000020: 2653 9cbd 944a b03d 01d8 c33c a4ff 053d
00000030: 6259 be3d 30f3 bf3c 1ceb 0bbd 833d 9c3d
00000040: c99d d13d 4e32 af3d 4926 9b3d 5b2b a03d
00000050: 25c7 71bc 596c 1dbd 6d94 ab3d 7cf7 26bd
00000060: bac8 45bd 196e 59bd b307 183d e187 5e3d
00000070: a23b a8bd 2700 80bc 1e5a 4dbc 4dd5 c2bd
00000080: 77fc b73d 5db9 133d 9597 b13d 09d5 d93d
00000090: 8230 d03d 91bb cebd bcca 0b3c c14a c3bc
000000a0: 7b47 4b3d 1d8d ccbd 19ac f0bc ceaa 78bd
000000b0: 83bc 833d e808 9ebd df4c c7bd 3ef5 56bd
000000c0: 52e8 d83d 800b 003e 6fd2 7e3d 62a8 a63d
000000d0: 8460 9dbd b63a 5e3d b501 16bd 85ae 07bd
000000e0: 0fa3 a23d bbf0 c33c 653a 433c f2bb 9c3c
000000f0: 6b8f efbc f279 24bb 6b96 143d 8ef9 b93d
0.030208463 0.09261911 0.00800811 -0.011343498 -0.103115976 0.022712545 0.021884512 0.10364034
-0.07633047 0.08607975 0.02390671 0.0327145 0.09294392 0.02343139 -0.034159765 0.0762892
0.10235173 0.08554517 0.07575662 0.078207694 -0.014756952 -0.038433407 0.08377919 -0.040763363
-0.04828713 -0.053083513 0.037116718 0.054328803 -0.08214499 -0.015625073 -0.012533693 -0.0951334
0.08983701 0.036065448 0.0867149 0.10636336 0.10165502 -0.10094369 0.008532222 -0.023839356
0.049628716 -0.09987853 -0.029378938 -0.060709767 0.0643244 -0.077165425 -0.09731459 -0.052479975
0.105911866 0.12504387 0.062212404 0.08137585 -0.076844245 0.05425521 -0.03662272 -0.03312542
0.07941257 0.0239185 0.011915778 0.019132588 -0.029243192 -0.00250971 0.036276262 0.09080802

weight f4 [8, 64]
00000000: e3d8 3cbe 3d96 353e ec72 7cbd 33d5 0bbe
00000010: ff05 8bbd f219 0b3d 42ac 6bbd b02e da3d
00000020: 4cf6 b6bd e30d aa3d 901c ef3d a04d ad3d
00000030: c993 0e3e 8a2c 64be fa65 963c 81d7 483e
00000040: 3900 a03d ea47 913d b090 33bd 6a13 033e
00000050: 7f13 22be b4d5 24be de15 41be d271 3d3d
00000060: 39b5 48bd be5d 3b3d a1cf 7bbd 0c9d 93be
00000070: 4566 e53d e79b 0fbe 2178 b13d 3beb a0bd
00000080: 007d 843e fca6 abbd 14d1 363e 68e5 c4bd
00000090: c6ea 0c3d 0494 d7bd f180 09be 1111 423d
000000a0: 4668 95bd 414e d63b fba7 9abd 55f3 083e
000000b0: 8140 7dbe 091c 043e d8b2 0dbd 1906 ec3b
000000c0: 8271 45bc 6e71 08bd 0dd6 cabd e88e 6f3e
000000d0: 2ef9 f03d fa4e 153d 1a32 8d3d 18e8 39be
000000e0: 6a5b 003c fd11 f2bd 628d 813e 89c3 6dbd
000000f0: efa1 72bc f0f6 9a3d c33f 3f3e bc49 b9be
00000100: 0298 0dbe eb74 e5bd 1d64 d0bb 9aae 00be
00000110: bab5 febd 003c 543d e33f 0e3d f0a1 543e
00000120: e64b b83b 38be 123c 8bd9 cb3d 2de3 68be
00000130: 4405 403e 3449 833e 6f8e 393e 3e05 093e
00000140: 7da7 eabc ff95 383e f9c1 d63d 75bf 3e3d
00000150: eeae 08bd 72b8 35be a0ae c23d 809c dfbc
00000160: 8322 c3bd 242a 57bd 1f4e c03b 59e5 ef3d
00000170: 95a1 02be 1550 2c3e b9ea d7bd 995b 52bd
00000180: 0d33 673e 8e21 153e 891a 5c3d 5182 bdbc
00000190: 7fae 30bc 6056 543d e9ee 833d 22b9 d53d
000001a0: e896 54be 1a80 9c3c 1666 2dbe 810e ac3d
000001b0: dc51 403e fe30 02be 7891 e1bd 1e18 b1be
000001c0: e59a 1a3e 5492 803e 985b eabd 9c57 8ebe
000001d0: e58d e4bb 8b39 febd 6d13 cabe 5a9f f4bd
000001e0: 7920 c53d a09f 8d3d ec1a cb3d 2d6a 393e
000001f0: a24c f73d bac5 51be 7ce5 88bd 1aea 7fbd
00000200: ed32 d5be 1961 053f 0ac3 90bd ee16 e13a
00000210: 0ab1 4a3e 06cd 3cbe 016a 15bf 2827 e83e
00000220: 4cb9 32be 3663 b8bd 9bf9 9abe 6ed7 ed3e
00000230: 1f14 8d3e da8b 9e3d 298c d5be 3648 88be
00000240: c3c7 d53b 6c98 adbe 6129 a7be 0b5c c4bd
00000250: a048 813e 74b2 273e 0f00 853e b146 813e
00000260: ac11 773e a282 6b3e 0943 4a3d df0b 303e
00000270: 953c 7ebd 711b b0be e618 693c 844d a83d
00000280: 18f6 84be ad2b aabd c8b9 42be 852b 443e
00000290: 339f 0a3e 4e9d d43c 39fd b4be 8856 93bd
000002a0: 2c32 913c dc75 87be acaf 853e 1ddc 1cbe
000002b0: ad6f 3fbe dde8 93bc 1126 d0bc b106 423e
000002c0: 8683 ba3d 03e3 edbe f01f c23b 149f 263e
000002d0: 8c19 1abe ab8e 85bd 6970 b53d 01ea 92bc
000002e0: d4e2 41be d778 22bd a707 5ebe 9fd6 ac3d
000002f0: 3d41 913e 3476 8f3c 398e 943d 1dff e73e
00000300: df6c 1bbc 11e5 ee3d 337b 4abb d0f8 fb3d
00000310: 3a9e 9139 29af 9e3d 33ce 743e ce10 1dbe
00000320: a2f5 d9bc e37a c63d c9b2 103e 5ce4 8c3c
00000330: 77bc 64be 56ce d3bd 26cb e1bd cc19 06be
00000340: 6a9d b53d afc3 aebd 097b 06bd 74e0 3c3e
00000350: 6aa8 aabd 6427 35be f671 733d 0829 46bc
00000360: b86b 0cbd 91a5 fa3d 3b2a 0abd c135 813e
00000370: 8e82 553b 6cee f83d 6571 7abc 9470 ebbd
00000380: da77 99bd d950 4b3d e9e6 85bd 2be4 66bd
00000390: a971 f6bc e615 7b3d aec4 473e ce39 ff3c
000003a0: b9a9 c8bd 9bcf 673d 33bd b3bb ec95 113e
000003b0: 58d4 db3d faaa 9c3c 3553 fabc 996e debd
000003c0: 6f39 7fbd 7bcc 453e 07f8 1bbe ffdc 3b3d
000003d0: 2d00 babd fcda 293d 305e 103d 3412 263d
000003e0: a203 02bd f804 e5ba 0b5c 8ebe 59ca 1a3d
000003f0: 205b 253e 2aef 363e 0973 57bd f7ed d63c
-0.1844211 0.17733093 -0.061633036 -0.13655548 -0.06788253 0.03396029 -0.057537325 0.10653436
-0.08933696 0.0830343 0.1167537 0.084620714 0.13923563 -0.22282615 0.018359173 0.19613458
0.078125425 0.07093795 -0.043839157 0.12800375 -0.1582775 -0.16097146 -0.18855998 0.046251126
-0.049000952 0.045743696 -0.061477307 -0.28830755 0.11201147 -0.14024316 0.08665491 -0.07857367
0.25876617 -0.08381459 0.17853194 -0.09614068 0.034403585 -0.105262786 -0.13428093 0.047379557
-0.07295279 0.0065400903 -0.07551571 0.13374074 -0.24731638 0.1290132 -0.034594387 0.0072028753
-0.012050988 -0.0333113 -0.09904108 0.23394358 0.11766277 0.03645227 0.06894322 -0.18154943
0.007834295 -0.11819837 0.2530318 -0.058047805 -0.014809116 0.07566631 0.18676667 -0.36189067
-0.13827518 -0.11203941 -0.0063595907 -0.12566605 -0.12437005 0.051815033 0.034728896 0.20764899
0.005624282 0.0089564845 0.099536024 -0.2274291 0.18752009 0.25641787 0.1812074 0.13380906
-0.028644318 0.18025969 0.10486216 0.046569306 -0.03336995 -0.17746142 0.09505963 -0.027296305
-0.09528067 -0.052530423 0.0058686878 0.117136665 -0.12756951 0.16827424 -0.10542817 -0.051356886
0.22578068 0.14563581 0.053736243 -0.023133429 -0.010783791 0.051840186 0.06442053 0.10435702
-0.20760691 0.019104052 -0.16933474 0.08401204 0.18781227 -0.12714002 -0.11014074 -0.34588712
0.1509815 0.2511164 -0.11443251 -0.27801216 -0.006974923 -0.12413319 -0.39467946 -0.119444564
0.09625334 0.06915212 0.09917244 0.18106909 0.120751634 -0.20485583 -0.06684396 -0.062479116
-0.41640416 0.52101284 -0.07068451 0.0017172971 0.19794098 -0.18437585 -0.58364874 0.45342374
-0.17453498 -0.09003298 -0.3026856 0.46453422 0.27554414 0.07741518 -0.41708496 -0.26617593
0.0065240576 -0.3390535 -0.32648757 -0.09587868 0.2525072 0.16376668 0.25976607 0.25249246
0.24127835 0.22999051 0.049380336 0.17192028 -0.062069494 -0.34395936 0.014227128 0.0821791
-0.25969005 -0.08309112 -0.19016182 0.19157226 0.13537292 0.025953915 -0.35349444 -0.07194239
0.01772412 -0.26457107 0.2611059 -0.15318342 -0.18694945 -0.018055374 -0.025408776 0.18947865
0.09107117 -0.4646226 0.0059242174 0.16271621 -0.15048808 -0.065213524 0.08859331 -0.017933847
-0.18934184 -0.039666023 -0.21682607 0.08439373 0.28370085 0.017512418 0.07253689 0.45311823
-0.009486406 0.11664785 -0.0030896186 0.123033166 0.00027774443 0.07748253 0.23906784 -0.15338442
-0.026606385 0.096914075 0.14130701 0.017198734 -0.22337519 -0.1034209 -0.110250756 -0.13095778
0.08867915 -0.085334174 -0.03283218 0.18444997 -0.08332904 -0.17690808 0.059434853 -0.012094744
-0.034282416 0.122386105 -0.03373168 0.25236323 0.0032579037 0.1215485 -0.015285824 -0.11496082
-0.07493563 0.04963765 -0.06538183 -0.05636994 -0.030083494 0.06130018 0.19508621 0.031155493
-0.09797997 0.056594472 -0.005485201 0.14217347 0.10733861 0.019124497 -0.030557254 -0.108609386
-0.062310632 0.19316284 -0.15231334 0.045865055 -0.09082065 0.041468605 0.035246074 0.040544704
-0.031741746 -0.0017472794 -0.27804598 0.03779063 0.16148043 0.17864671 -0.05259994 0.026236517

bias f4 [8]
00000000: 8288 d0bd 94b2 54bd e1ec f43d 08a2 a9bd
00000010: b6ac 843c 0868 553d 71a0 0fbe 908d 893e
-0.10182287 -0.051928118 0.119592436 -0.08282858 0.016195636 0.052101165 -0.14026047 0.26865816
