model-doom.pth (torch, 77291 bytes, 27 tensors)

weight f4 [8, 1, 3, 3]
00000000: 9e90 c6be 267e fd3e 593c d33f 42cc 653f
00000010: cdaa 89bf 27f8 233f b8b0 d43e d2c9 8ebf
00000020: 60d5 9f3e 1642 37bf ee6e 19bf 71fe 923f
00000030: 6364 48bf 5a31 2bbf 719b acbd 3ccb e7be
00000040: e727 b13d d69f 83be 3be8 a3be 21e8 c73d
00000050: 5c47 d4be bc93 5d3e 1b1c 203f d96b e5be
00000060: dbab e2be 1fe4 06bf ca77 f6be 0e4a 823f
00000070: d5e5 7abf 9001 d6be 2958 d7be 39b7 8cbf
00000080: 4a79 b33e 99fb f03e 8cfc 4cbf 5a8a 3fbc
00000090: 52a0 aa3e 7050 7f3f 45af be3e fb20 d33e
000000a0: c0c1 1f3e b0f4 d83e 5ac1 d33e 0e8e bf3e
000000b0: 2a50 ab3d 04a6 00be ee7b f63f fe3a 84bf
000000c0: 7542 24c0 8f9e 343f b89f 87bf 4809 083e
000000d0: d545 973f 2531 b1bf a21d 62bd 5ae3 e8bd
000000e0: 23a3 fd3c 365c e83f adce d43f e065 b2bf
000000f0: 5996 a0bf b80e cb3e 26dd a2bf 2d96 7ebe
00000100: 7461 2ebf 39b0 a43e 37a6 64bf 524b c33e
00000110: 1b15 2dbf 774d d0bf 07c4 7f3f 75fa 473f
-0.3878221 0.49510306 1.6502792 0.897648 -1.0755249 0.64050525 0.41541076 -1.1155341
0.3121748 -0.71585214 -0.5993489 1.1483899 -0.7827818 -0.6687218 -0.084280856 -0.45272243
0.08650189 -0.25707883 -0.32013115 0.09761072 -0.41460693 0.21638387 0.62542886 -0.44808844
-0.4427174 -0.52691835 -0.48138267 1.017885 -0.98006946 -0.41798067 -0.42059448 -1.0993415
0.35053474 0.47066954 -0.80072856 -0.0116907 0.3332544 0.9973211 0.37243095 0.412361
0.15601254 0.42374182 0.41358453 0.37413067 0.083648995 -0.1256333 1.925657 -1.0330503
-2.5665562 0.7055444 -1.0595617 0.1328479 1.1818186 -1.3843123 -0.05520404 -0.11371489
0.030961579 1.815314 1.6625572 -1.393734 -1.2545882 0.39659667 -1.2723739 -0.24861975
-0.6811745 0.32165697 -0.89316124 0.38143402 -0.6761033 -1.627364 0.9990849 0.7811654

weight f4 [8]
00000000: 32fd b03f 57f5 c53f 62b1 9d3f 85d7 bd3f
00000010: c2e6 b53f 804d e83f 74c5 c13f 82e9 c53f
1.3827269 1.5465497 1.2319758 1.4831396 1.4211047 1.8148651 1.5138383 1.5461886

bias f4 [8]
00000000: ee15 6dbf 5b86 5cbe 6b50 ddbe 7cc1 5bbe
00000010: 079e b7be d431 1e3e 926c 91be 697e cfbe
-0.9261159 -0.21535628 -0.43225417 -0.21460527 -0.35862753 0.15448695 -0.28403145 -0.4052613

running_mean f4 [8]
00000000: 1abd 113f 0cda 3bbf 1ae2 09bf c4d3 17bf
00000010: 1348 8f3f b5c7 34bf 616b 8fbd 1ccb 03bf
0.5692917 -0.7337959 -0.5386063 -0.59307504 1.119387 -0.7061723 -0.07002903 -0.51481795

running_var f4 [8]
00000000: e04b 653d dc15 913d b827 e83c cac0 463d
00000010: fa49 063e ee5e a43d 5385 2c3d 33f3 3b3d
0.055980563 0.070842475 0.028339252 0.0485237 0.13114157 0.08025919 0.042119335 0.04588623

weight f4 [8, 8, 3, 3]
00000000: 86cd efbe e918 b6be ba95 973e 664b e2be
00000010: c4d7 3e3e 3537 ab3d 7154 313e d88b 033f
00000020: 651a f9be 53ff 9bbe 8bbe e4bd 1c9d 7ebe
00000030: 6ea8 973d 9315 a4bd 87bf 383e c4d4 143f
00000040: f5f5 483e 300d 34be b20e d9bd 4713 b1bd
00000050: 9db3 95bc 87e8 7f3d 0670 88be 96e0 afbd
00000060: bd65 efbe 3844 4cbe c411 c33e ff3d 7b3e
00000070: c0a8 cfbe d91a 2e3e 6f8b 3c3f 623c dbbd
00000080: 8952 8d3e 8352 a43e e195 00bf 2064 f23e
00000090: 95cd 0d3c 8a75 02be 5733 df3e ba78 23bf
000000a0: 7f69 83bd b6c2 b23e de50 d6be ec7a a4be
000000b0: 9922 debd bb2e 3abf c112 c43d a17a efbe
000000c0: 256a 53bf 7452 213f c7f8 dcbe ae5f edbe
000000d0: 2994 133f 3e65 953f 0c6e 163f 2fe6 2fbe
000000e0: 18f5 b3be 1bf7 97be 3be3 0cbf 8f6e 5e3e
000000f0: 19d1 b9be 1e66 14be bb2c 323f f39e 35be
00000100: a3d8 283d fdea 6e3d 3c06 1d3d cecf bd3e
00000110: a79d e9be a6ca d83e 4506 17be 777e eabe
00000120: d422 143f 8ae5 8dbc a084 80be 198b 30be
00000130: 9bfd 3dbe 0f2e 51be b127 593d c1db 7c3d
00000140: da9a 1dbf 9716 b83e a556 883e 7b95 2fbf
00000150: d69b 293f 4190 813e a8fc 4a3e 3a2c bebe
00000160: 4a52 2fbe 6822 ca3d e82d 05bd 98f6 c7be
00000170: d292 3abf a188 223b c34e bf3d 2ba7 ecbd
00000180: 94ef 9e3d ffd6 2fbe 91ef 2cbe 5abe b6be
00000190: 07b5 5c3e 9e1f c73d 209f 983c 9f09 91be
000001a0: 72df 36bb 3b62 dfbe 9a31 05bf e9fa f93c
000001b0: 36dd 02bf 97b4 503e 5311 afbe 2ab1 9cbe
000001c0: e0c8 043e 78f2 20bf a78c be3d ceed 1abe
000001d0: 3f6b 39be 5226 1a3e fb6c 98be 05b9 d43e
000001e0: ea2b 2d3f 824d 863e 7fe2 0e3f bf14 02bd
000001f0: f93d 35be 3823 573f 2d90 b03e 55c6 1cbf
00000200: ca58 5e3e 7eab 4abf 919a 7a3e b114 31bf
00000210: 3b51 af3e 0089 12bf c1e7 87bc dd32 4d3f
00000220: 6965 e7be 9bdf 88bd b4ca ae3d eb2f 1dbe
00000230: 5713 4dbb 2d9c 7bbe 7972 953d 7071 57bf
00000240: 34a6 9c3e ddce 08be 0bc5 253f 1f97 123e
00000250: f5c8 91be 8e9b f4bd 64c9 b7be c368 b83e
00000260: 4986 22bd bdb1 58be 0592 02bf 1c2a f8bd
00000270: ce9b d9be c4d6 553e 64ef 19bf 680e 8dbe
00000280: 9759 133f 6d79 debc d564 00bd 5711 073f
00000290: 6f09 c63c 151b df3d c43e 48be 2744 1dbe
000002a0: 1cf4 b53d eed5 a83e 11c3 343e a75c d6be
000002b0: 0628 f0be 751c ee3e ddca 52bf b82e d4bc
000002c0: 6e26 b7be f181 3a3f c5bd c7be 6e1d 9dbe
000002d0: 7e31 f93e 4282 0bbf 79b5 5e3f f394 0abf
000002e0: fb82 d2be 9782 2f3d 55a5 45bf a70e dbbe
000002f0: 10c6 543d bcf2 1abe 3a26 85bf bf70 8a3e
00000300: 4246 1abd 66fd 003f 04a0 d73e 441a 3c3f
00000310: e644 94bd d205 923e b037 d6be 73ef 523f
00000320: 8171 1ebf 7f99 7f3f 71a7 15bf 8126 33bf
00000330: cd33 e1be 5fe8 8c3e 4154 ba3e c20a 06bf
00000340: 6142 8fbe 6a78 10be 61c1 263c 5df8 163f
00000350: 8342 6c3d 6070 6c3e 2bef 083d ce80 533e
00000360: 5d55 0ebe f41b abbe a90e 073f 9591 c73d
00000370: 9ca8 04bf 0b8d e2be fbdc 7cbe 015c 8fbd
00000380: 0649 163f 8b6e a1be f45d 833e a00f cebd
00000390: 8a55 0bbf 5352 a93d 9abb 7d3e e55b b3be
000003a0: c4ee 053f cef6 343e 6cf2 bcbd ca0b 493d
000003b0: d281 e03e 63f6 eb3d b1e3 09be 8064 a5be
000003c0: 123e 9b3e d536 85be 061e c1bd 172e 873e
000003d0: ac9f 783e 2887 a6be c182 abbe 0306 503f
000003e0: 9fbe d2be 85fd d83e ee39 453c b1a5 9cbe
000003f0: 003d 0bbf cce3 46be 0e05 f0bc 36c1 43be
-0.4683649 -0.3556588 0.2960642 -0.4419815 0.18636996 0.08360139 0.17317368 0.5138526
-0.4865295 -0.30468234 -0.11169156 -0.2486462 0.07405172 -0.080119275 0.18041812 0.58137155
0.19625075 -0.17583156 -0.10598506 -0.08646255 -0.018274123 0.062477615 -0.26647967 -0.08587758
-0.46757308 -0.19947898 0.38099492 0.24535368 -0.40558434 0.17002429 0.7365026 -0.107048765
0.27602032 0.320942 -0.502287 0.47342014 0.008654972 -0.1274015 0.43593857 -0.6385609
-0.06416606 0.34914178 -0.41858572 -0.32125032 -0.10846443 -0.72727555 0.095738895 -0.46773246
-0.8258384 0.6301644 -0.43158552 -0.4636206 0.5764795 1.1671522 0.5876167 -0.17177652
-0.3514793 -0.29680714 -0.55034226 0.21721862 -0.3629234 -0.1449208 0.69599503 -0.17736416
0.041222226 0.05832957 0.038336024 0.37072605 -0.45628092 0.42342108 -0.14748485 -0.4579961
0.57865644 -0.017321367 -0.25101185 -0.17240562 -0.18553774 -0.20427726 0.05301637 0.06173301
-0.6156441 0.35954735 0.26628605 -0.68587464 0.6625341 0.2530537 0.19822943 -0.37143117
-0.17121235 0.09869844 -0.032514483 -0.39055324 -0.7288028 0.0024800675 0.093411945 -0.11555322
0.0776054 -0.17171858 -0.16888262 -0.35692102 0.21553431 0.097228274 0.018630564 -0.28327653
-0.002790418 -0.4362963 -0.5202881 0.030515151 -0.5111879 0.2038139 -0.34192905 -0.30603915
0.12967253 -0.6286998 0.09304171 -0.15129778 -0.18107317 0.1505368 -0.29770645 0.4154741
0.6764513 0.2623101 0.55814356 -0.031758066 -0.17699422 0.84038115 0.34484997 -0.6124013
0.21713558 -0.79167926 0.24473025 -0.691722 0.3424166 -0.57240295 -0.016590001 0.80155736
-0.45194557 -0.06683274 0.08534756 -0.1535031 -0.0031292045 -0.24571295 0.072972246 -0.84157467
0.30595553 -0.13360162 0.6475379 0.1431546 -0.2847363 -0.11943732 -0.35895836 0.36017427
-0.039678846 -0.21161552 -0.5100406 -0.12117407 -0.42501682 0.20882708 -0.60130906 -0.27550054
0.5755858 -0.02715751 -0.03134616 0.52760834 0.02417442 0.10893837 -0.19555193 -0.1535803
0.08884451 0.32975715 0.17652537 -0.41867563 -0.46905535 0.46506086 -0.82340795 -0.025901183
-0.35771507 0.72854525 -0.3901197 -0.30686516 0.48670572 -0.5449563 0.86995655 -0.5413353
-0.41115555 0.04284915 -0.772054 -0.42784616 0.0519467 -0.15131658 -1.0402291 0.27039143
-0.03766466 0.50386655 0.4211427 0.7347758 -0.07239704 0.28520066 -0.4183936 0.8239662
-0.61891943 0.9984359 -0.5845862 -0.6998063 -0.43984833 0.27521035 0.36392406 -0.52360165
-0.2798033 -0.14108434 0.010177941 0.5897272 0.057680618 0.23089743 0.033431213 0.20654604
-0.13899751 -0.33419764 0.52756745 0.097445644 -0.5181978 -0.44248232 -0.24693672 -0.0699997
0.58705175 -0.3152965 0.25657618 -0.10061574 -0.544274 0.08267655 0.24778596 -0.35031047
0.5231745 0.17672274 -0.09225926 0.04908351 0.43849045 0.11521604 -0.13465764 -0.32303238
0.30320793 -0.26018396 -0.09429555 0.2640235 0.2427966 -0.3252499 -0.33498195 0.81259173
-0.41161057 0.4238092 0.012037737 -0.30595163 -0.54389954 -0.19422835 -0.029299285 -0.19116673

weight f4 [8]
00000000: 19d9 b63f 953b c63f d48e e23f 4a53 b43f
00000010: f008 b33f 9a5e bb3f c846 ac3f b64e 9e3f
1.4285003 1.5486933 1.7699838 1.4087918 1.3987103 1.4638245 1.3459101 1.2367771

bias f4 [8]
00000000: c6c8 89be 9a38 77be af1d 18bf c46f c93d
00000010: 8e80 253e 5f3a 92bf 0174 423e e2d5 d0be
-0.2691099 -0.24142686 -0.59420294 0.09835771 0.16162321 -1.1424063 0.18989564 -0.4078818

running_mean f4 [8]
00000000: cce6 82bf 74b7 8cbf 0295 a4bf ce14 bfbf
00000010: 5940 53c0 aa52 b2be d418 96bf 42d2 21c0
-1.0226684 -1.0993485 -1.2857974 -1.4928224 -3.3008025 -0.34828693 -1.1726327 -2.528458

running_var f4 [8]
00000000: 4597 ec40 404a 0841 395f 7341 69b2 2f41
00000010: 09da 2e41 d0a8 0d41 0135 1641 ac46 b840
7.3934655 8.518127 15.210748 10.981057 10.928231 8.853714 9.38794 5.758627

weight f4 [8, 8, 3, 3]
00000000: 965c 293f cfa4 73be 5acc da3e cf34 00bf
00000010: 9a69 13bf 1dc9 5e3e f237 133f 8c8e 00bf
00000020: ba17 6a3e 8f63 7fbe 016a c43e 0e5e 99bd
00000030: e431 95be 0659 94be e638 253e afde 833c
00000040: 47e1 343f 16fa 3e3e d60f 723e 657f 83be
00000050: 80a0 e3be 0b37 a0be 066b 23bf 438e bfbe
00000060: 2b6a 5cbf ac6a 18bf 79ed ac3e 4c9d 393e
00000070: cd01 5abf df9d 3e3f 11da 5f3e 8814 4f3e
00000080: 1206 1dbe 7831 39bf 1d63 8fbe e595 56bf
00000090: 842c e43e 5885 8f3e f5a4 e2be 264b f0be
000000a0: 1332 923e 3b32 9e3e 518d 43bf f4c2 d0be
000000b0: ffab ef3e 181d 6bbe cc92 c0be 17ee 423d
000000c0: dc60 adbe 69b2 0ebe 278f b9be 38f3 163e
000000d0: 7a13 4abf 3637 47bf 779d f0be 641c 85be
000000e0: c2d0 6c3d 86aa ba3e 4aab c1be d439 e83e
000000f0: 7bf0 48be cafa ac3d 8f43 8a3e defe 5a3e
00000100: 9b26 5dbe 21d7 e5be c348 9fbe 55e3 b83e
00000110: 130f eebd 32e8 823e c2d7 c23e 5166 3e3e
00000120: 6ee9 373e 329e 8ebb 88bc ba3e b47e b83e
00000130: 0bee ac3e f7b9 a9bd 2dae 5abf 8566 1d3e
00000140: 1c93 633e 23bf ae3e 82d2 3ebe 070d 78be
00000150: b8ea 42bc b7b0 2abf ac0d ffbd 4e7b cbbe
00000160: b00e 95bd 23b9 9a3d 0bed 51bf 67a3 87be
00000170: fc6f afbe 320f 253f 29cd e8be 6876 1c3f
00000180: 87b2 ad3e be60 bd3e 76b1 203f aeec 2fbf
00000190: a4e5 383f 5622 02be 1638 9b3c 37d6 ad3e
000001a0: 4041 abbd 0cd2 c83e 09dc 1a3f 6027 4cbe
000001b0: 6806 98bd c9ac c4bd ca87 4bbf 848e 673f
000001c0: 74c7 363f c9df 38bf d95a d13d b87d 023f
000001d0: c836 7cbd 0887 d5bd a233 03bf 1844 f6bd
000001e0: 9cf2 ab3e a15b 243d 53ce 74bf 5971 8abe
000001f0: 6f56 6a3e b32d 043e 47ad fc3d 77c6 babe
00000200: 5d13 a73e 976f e93d 812b d53d b0f9 d8be
00000210: 2145 9c3e ec03 96be 074e 133f 63da f139
00000220: 2227 87be 6821 b2be 2f30 073f 46ab 50be
00000230: 66bf 07be a8bc f5bc 542a 343e 9b34 08bf
00000240: 3890 24bf e8a9 13bf 6bae 043f 66eb 043e
00000250: f619 293e e964 1f3d 49df 19be 28cd 0abe
00000260: ec74 0c3e 14e6 d8be 4c63 aabe 3094 0ebd
00000270: 4a8c ebbd 31e6 103f c723 b6be a107 153e
00000280: 7c15 683e a583 1fbf ba4a 08bf 03d7 1abf
00000290: a157 6fbf e9ba 0a3f c3e9 a03d 4427 873e
000002a0: e015 32be 7574 6bbd 7362 19bf 7c41 12be
000002b0: 2b21 12bf 5e63 f7be a34f 81bd aeb6 2f3e
000002c0: aa0d d33c ae68 8abe f7ed 313f 5588 9d3d
000002d0: fdd1 6ebd f3e7 84bf 83d7 cebc 853f be3e
000002e0: af15 7ebe a47d 0ebf deb8 cbbe 033c 16bf
000002f0: d308 423e aa41 96be fa86 9bbf be43 f1be
00000300: f89e ad3e 1320 28be 7ad3 e9be b44f f7be
00000310: 5c0d 12bf 8cae 05bf b071 09be a9f0 28be
00000320: dab8 90bd 94a7 bebe bf52 c03e 8d5d d03e
00000330: 7286 05bf 2ab4 af39 a9e3 a13e 7370 813e
00000340: 2097 f03e 6358 30bf 11c2 29bd 9259 38bf
00000350: 2983 ff3e a97b bb3c 2485 5c3e 7755 9b3d
00000360: d6c8 1c3f 5d34 1ebf dd89 f6be 5c02 06bf
00000370: afe7 e23d 8b78 193f 0896 0ebf f6f1 863d
00000380: e654 2ebe 29b1 533e 915d 08bf 0f5d 753e
00000390: b83c f63d 8aae 753e bbdf 9b3e 5e2c a23e
000003a0: e89d 26bf 6749 8cbd c98d 6f3f 388b e03e
000003b0: f6e6 fdbe b30e 223e 3a93 043e fff9 54bf
000003c0: 8c03 58bf e8ff 843b 019f b73c 82f4 c63e
000003d0: f0e2 b53d e795 dc3e 795b be3e d90e a73e
000003e0: b166 0ebe 8b19 9fbe 19d0 873e 1c67 5b3e
000003f0: 062a 433d e484 fc3e 3ffc 833e e2d6 cf3e
0.661569 -0.23793338 0.42734033 -0.5008058 -0.5758301 0.21756406 0.5750724 -0.5021751
0.22860613 -0.24940322 0.38362125 -0.07488643 -0.29139626 -0.2897417 0.16134986 0.016097395
0.70656246 0.18650088 0.23638853 -0.25683132 -0.4445839 -0.31291994 -0.6383518 -0.37413225
-0.860995 -0.5953777 0.33774927 0.1812641 -0.85159 0.7445964 0.2186053 0.20222676
-0.15334347 -0.7234111 -0.28005305 -0.8382247 0.44565213 0.2803142 -0.44266477 -0.46932334
0.2855383 0.30897698 -0.76387507 -0.40773737 0.4681091 -0.22960317 -0.37611997 0.04759034
-0.3386296 -0.13935246 -0.3624203 0.14741218 -0.7893597 -0.7781862 -0.46995136 -0.25998223
0.057816274 0.36458224 -0.37825996 0.4535662 -0.19622986 0.08446272 0.27004668 0.21386287
-0.21596758 -0.44890693 -0.311102 0.3611094 -0.11623969 0.25567776 0.38055235 0.18593718
0.1796014 -0.0043523544 0.36471963 0.36034167 0.33775362 -0.08287423 -0.8542202 0.1537114
0.22224087 0.341302 -0.1863499 -0.2422372 -0.011896782 -0.66675895 -0.124537796 -0.39742512
-0.07278192 0.07554843 -0.82002324 -0.26491854 -0.34265125 0.6447631 -0.45469025 0.61118174
0.33925268 0.3698787 0.62770784 -0.6872052 0.72225404 -0.1270841 0.018947642 0.33952495
-0.08362055 0.39222753 0.60491997 -0.19936895 -0.07423097 -0.09603269 -0.7950407 0.90451837
0.7139809 -0.7221647 0.10222406 0.5097308 -0.06157568 -0.10426146 -0.5125066 -0.120247066
0.33583534 0.040126447 -0.95627326 -0.27039602 0.22884534 0.12908058 0.123377375 -0.36479542
0.3263196 0.11398237 0.10408688 -0.42377996 0.3052149 -0.29299867 0.57540935 0.00046129813
-0.26397043 -0.34791112 0.528079 -0.20377836 -0.13256606 -0.029997185 0.17594272 -0.5320527
-0.6428256 -0.5768113 0.5182864 0.12980422 0.1651381 0.038914595 -0.15026583 -0.13554823
0.13716477 -0.42363036 -0.33278883 -0.03480929 -0.115013674 0.56601244 -0.3557417 0.14553691
0.22664446 -0.6231025 -0.53239024 -0.6048433 -0.93493086 0.5419145 0.078570865 0.26397145
-0.17391157 -0.05748411 -0.59915847 -0.14282793 -0.5708186 -0.48318 -0.063140176 0.1715953
0.025763351 -0.2703299 0.6950373 0.07692019 -0.05830573 -1.0383285 -0.025249248 0.37157837
-0.24812959 -0.5566046 -0.3978948 -0.5868532 0.18948679 -0.29346973 -1.2150567 -0.47121996
0.33910346 -0.16418485 -0.45669156 -0.48302996 -0.57051635 -0.5221946 -0.13422275 -0.16498055
-0.07066508 -0.37237227 0.3756313 0.40696374 -0.5215827 0.00033512834 0.31619003 0.25281104
0.469903 -0.6888487 -0.04144484 -0.72011673 0.49904755 0.022886114 0.21535164 0.075846605
0.6124395 -0.6179865 -0.48152056 -0.5234735 0.110793464 0.5994956 -0.5569768 0.06589119
-0.17024574 0.2067305 -0.5326777 0.2396128 0.120233 0.23992363 0.3044413 0.31674474
-0.65084696 -0.06849938 0.9357572 0.43856215 -0.49590272 0.1582592 0.12946787 -0.83193964
-0.8438041 0.0040588267 0.022414686 0.3885842 0.088811755 0.43083116 0.37179163 0.32628515
-0.13906361 -0.31074175 0.26525953 0.21426052 0.0476475 0.49320138 0.25778386 0.4059363

weight f4 [8]
00000000: c86f c93f 300c a63f ba29 b03f af4c a33f
00000010: 598f a33f cd2f a93f 1387 b53f ba6d b03f
1.5737238 1.2972469 1.3762734 1.2757777 1.2778121 1.3217713 1.4181846 1.3783486

bias f4 [8]
00000000: a71c 8fbf 669c ccbe 1a60 dcbe a7b0 e5be
00000010: 5c49 29bf 93cb 72bf 27b2 18bf 831e 49bf
-1.1180619 -0.39963073 -0.4304207 -0.44861338 -0.6612756 -0.9484188 -0.5964684 -0.7856218

running_mean f4 [8]
00000000: d496 37c0 94c7 633f c241 99c0 5a69 0dbe
00000010: 3281 b0bf 8bef 643e e01c 1bc0 ea8e 6dc0
-2.8685808 0.8897641 -4.789277 -0.1380972 -1.3789427 0.22357003 -2.4236374 -3.7118478

running_var f4 [8]
00000000: 6096 c440 0481 2641 e067 2641 7087 e340
00000010: ed06 a140 3950 a940 d66d cd40 5ce9 0c41
6.1433563 10.406498 10.40036 7.110283 5.0320954 5.291043 6.4196577 8.8069725

weight f4 [16, 8, 3, 3]
00000000: 8da8 42bc 8a94 443e c3d4 883e 0372 a3be
00000010: d7ab 853e 2b74 f1be 9a86 44be 01d5 81be
00000020: 8615 843d 0b07 08bf d3f9 a43d b30c 93be
00000030: e5f4 a7bd 65fb 9a3e 0d08 513e a1df 67be
00000040: 8df6 413e 118e bd3e 73e5 633c 5582 d63c
00000050: de5e 38be cadd b53e 920e e53c a95a a2be
00000060: 57db ab3d a186 57be 06ff 0e3e f7c3 93be
00000070: e2ca 60be fd11 cdbe 45cf d0bd 3b72 c5be
00000080: fbae 04bf 97b3 913e 6bfb efbd 7b9a bebe
00000090: 3769 293e 24af d13d d19a 873d 7297 793e
000000a0: c9ee 21be 99cb f6bd 8d1d 803e a886 573e
000000b0: 8611 dfbc df21 e83d 2193 dbbe 385e c7bc
000000c0: 46fa 463c a06a 99be 07bd 17be eed1 3bbd
000000d0: bee4 13bf 5edf 59be f6f9 07bf d341 c9bd
000000e0: 027b 3a3e d8c3 c8bd 53ac 8c3e de3c f7bc
000000f0: ed24 953e 5aa7 94be 32e8 ce3e d9e0 55bd
00000100: 0708 b33d d588 653e 97db 69bd 2c08 c9bd
00000110: 496c d2be aa6e a5bc 87d5 8d3e 6cce a7be
00000120: 5b06 8ebe 6630 88be 6ae1 c63e a21f 963e
00000130: b482 ddbd 2885 cebd 9461 8bbb c4ad 8a3e
00000140: 9682 63be b398 f8be 625a 0bbf 0c2e 0e3f
00000150: d4f8 f3be bd3e 07bf c642 85be b10f ea3d
00000160: ecf8 823e 9227 12be ee01 4b3d c690 bf3e
00000170: 47f2 81bc 2257 9bbe da4b f2bd 5bb2 bebc
00000180: 38c5 0a3f 0c51 4bbd 72bf 46bf ef45 013f
00000190: 6940 173f 70dd 22be a131 a5be 640d ebbd
000001a0: 7de7 71be d0d7 abbe 722b 803e f932 08bb
000001b0: d617 08be 8e9b 283e 6142 dbbd a7ab 283e
000001c0: b54c 9ebe ac37 883e 279c b23e ddaf 06be
000001d0: 0bb8 dabe 8828 423e 47e8 f13e 5a56 02bf
000001e0: ec9e ecbe c462 20bf e946 1f3d 1fef 65bd
000001f0: 5f84 f63d 9804 31be eec9 9abe 099a 7d3e
00000200: eeaf d33e 09b9 ffbe 9e8e 03be 8b53 b83e
00000210: 5612 23bf 493c 43bd e643 b43e 688e 093f
00000220: 8cdb 00bf 4245 4fbe 9d78 bc3e c1cf 38be
00000230: b97e ffbe 9025 7dbd 9a3d 3e3e ea99 033e
00000240: 6348 95bd 25b4 15bf 4e88 863e dcf3 90bd
00000250: ec05 493e 694f 9ebe 0340 b03e 47f6 103f
00000260: 1580 a83e 5146 bb3e 034e 3bbf 93e3 c4bd
00000270: c1ba a23d e007 3ebe c506 053f 551a b9be
00000280: 448b 89bc 0547 2b3e b74b e33e 33ad ecbe
00000290: 38fd 0ebe 5546 053e 43bc 7f3d fd00 503d
000002a0: a51e 923d 1f70 95bd 25af ba3e dc89 9fbe
000002b0: 1120 d9bd f540 f3be 0e90 083e 03fc 2fbf
000002c0: 5344 8ebe faac 9fbc db45 0fbf 1e45 afbe
000002d0: cbfd 93be e1a4 483f 244c 73be 1ec8 8dbd
000002e0: 4381 c0be 97b3 143f c644 20be 4835 e4bd
000002f0: 863c 043f bcbb 013e 0086 e2be c2e2 de3e
00000300: c959 ab3e 863c b3be c759 883e 610d 523e
00000310: 6902 86be ad73 4b39 c685 cc3e 19e9 14bf
00000320: 70e8 29be 6360 1e3e 01e3 c23a e909 eabe
00000330: 6577 c53c 255c 983e cf15 9bbd 8241 70ba
00000340: a4b2 4fbf 15ae b9bc 7c9d 1f3e b4b4 24bd
00000350: 2e40 fc3d 7a97 363e 593b 13be 35df fabd
00000360: f022 aa3e 199e 1bbe e264 9c3e 52ad bc3e
00000370: f959 14be a722 15be 5be7 b93e 77d3 9a39
00000380: aab0 b3bd 7516 93be 145d 98bd 54bf 9bbe
00000390: 57b0 1cbf c123 fbbc 1d29 6dbe a267 45be
000003a0: 956a c23e 2d21 853d 5f0d ad3e 8a62 133d
000003b0: bd6f a8bd 4987 cb3e f357 693e 09ab f73d
000003c0: 7759 b2be 75a9 ef3d e092 ac3e ee39 4ebe
000003d0: 5a54 7a3e db5e 96be 3633 b3bd 01bc abbe
000003e0: 89a1 aabe f085 75be a587 1b3e 81b1 cebe
000003f0: bde1 56be c9e2 173e e8e7 d03d 061a 16be
-0.011881006 0.19197288 0.26724824 -0.31922922 0.26107666 -0.47158942 -0.19191971 -0.25357822
0.06449418 -0.53135747 0.08055463 -0.28720626 -0.08201007 0.30269924 0.20413227 -0.22643901
0.18941708 0.3702245 0.013909685 0.026185194 -0.18004939 0.35520774 0.02796105 -0.31709793
0.08391445 -0.2104745 0.13964471 -0.28860447 -0.21952394 -0.40052786 -0.101957835 -0.38563713
-0.518295 0.2845733 -0.11717876 -0.37227234 0.16544043 0.102384835 0.06621326 0.24374178
-0.15813746 -0.12050552 0.25022545 0.21047461 -0.027230036 0.113345854 -0.42885688 -0.02433692
0.012144631 -0.2996416 -0.14818202 -0.0458545 -0.5777091 -0.21276614 -0.53115785 -0.09827008
0.18210986 -0.09802979 0.27475223 -0.03018039 0.29129735 -0.2903393 0.40411526 -0.052216385
0.087417655 0.22415479 -0.057094183 -0.09816012 -0.4109824 -0.02019437 0.2770197 -0.32774675
-0.27739224 -0.26599425 0.38843852 0.2932101 -0.10815945 -0.10083991 -0.0042535756 0.27085698
-0.22217783 -0.48554 -0.5443479 0.5553901 -0.47650778 -0.52830106 -0.26027507 0.11428774
0.25580537 -0.14272907 0.049562387 0.3741514 -0.015862597 -0.30339915 -0.11830874 -0.023278406
0.5420718 -0.04963784 -0.7763587 0.50497335 0.5908266 -0.15904784 -0.32264426 -0.114771634
-0.23623462 -0.3356309 0.25033146 -0.0020782335 -0.13290343 0.1646559 -0.1070602 0.1647173
-0.30917898 0.26604974 0.3488476 -0.13153024 -0.4271854 0.18960774 0.47247526 -0.5091301
-0.46214998 -0.62650704 0.038885985 -0.056136247 0.120369665 -0.17286909 -0.30232185 0.24765791
0.4134516 -0.49945858 -0.12847373 0.36001238 -0.63699853 -0.047664914 0.35208052 0.5373292
-0.50335 -0.20241264 0.3681077 -0.18048002 -0.4990137 -0.0618034 0.18578187 0.12851682
-0.07289197 -0.58478004 0.26275867 -0.070777625 0.19631165 -0.3091996 0.34423837 0.5662579
0.3291022 0.36577085 -0.7316591 -0.09613719 0.07945777 -0.18557692 0.51963454 -0.36152902
-0.01679004 0.1672631 0.44393703 -0.4622589 -0.13963783 0.13015111 0.0624354 0.050782192
0.07134751 -0.07296776 0.3646175 -0.31159866 -0.10601819 -0.47510496 0.13336203 -0.68743914
-0.27786502 -0.019491661 -0.55965966 -0.3423242 -0.28904566 0.78376585 -0.23759514 -0.06922935
-0.3759862 0.5808653 -0.15651235 -0.11142975 0.5165485 0.12669271 -0.4424286 0.43532377
0.33466938 -0.35007113 0.26630995 0.20512916 -0.26173714 0.00019402681 0.3994581 -0.5816818
-0.16592574 0.15466456 0.0014868678 -0.45710686 0.024104783 0.297578 -0.07572519 -0.0009165035
-0.8113196 -0.022666017 0.1558742 -0.040211394 0.12316929 0.17831221 -0.14378108 -0.122496046
0.3322978 -0.15197028 0.30545717 0.36850983 -0.14487447 -0.14564 0.36309323 0.00029530723
-0.0877393 -0.2872807 -0.07439628 -0.3041941 -0.61206573 -0.030656697 -0.23160215 -0.19277814
0.3797194 0.065004684 0.33799264 0.035982646 -0.082244374 0.39751652 0.22787456 0.12093169
-0.3483388 0.11702243 0.33705807 -0.20139286 0.2444624 -0.29369244 -0.08750002 -0.33541873
-0.33326367 -0.23976874 0.15188463 -0.403698 -0.2098455 0.14832605 0.102004826 -0.14658365

weight f4 [16]
00000000: 3bdd ed3f 64f0 fb3f 104e dd3f e922 e53f
00000010: a2a8 ea3f 8c2c e13f 99b2 fd3f f1fd e03f
00000020: d138 2e40 ca0d 1140 d5af 2240 9cce 1440
00000030: 0fe3 3740 38c1 2f40 7010 2c40 a624 2640
1.8583139 1.9682736 1.7289448 1.7901279 1.8332713 1.759172 1.9820129 1.7577497
2.7222178 2.2664666 2.541982 2.3251104 2.8732336 2.7461681 2.6885033 2.5959868

bias f4 [16]
00000000: f611 8b3d 72d4 05be 7814 83be ba98 4d3e
00000010: 37d8 543d 694c 4dbe 2845 813e cd89 323e
00000020: 7cf2 c4bc 352d ea3e 2497 c03e 0dcc 413e
00000030: 9ba3 183d 24e3 5e3e 882f d03e 6c9d 643e
0.06790535 -0.13069323 -0.25601554 0.20077792 0.05196401 -0.2004868 0.25248075 0.1743538
-0.024041407 0.45737615 0.3761531 0.18925495 0.0372654 0.21766335 0.40661263 0.22325677

running_mean f4 [16]
00000000: 4d1c 49bf 035f 9abf 281e 25bf 2f45 cbbe
00000010: 9e9a 39bf 20d7 b1bf b95e 61bf c2b7 e7bf
00000020: 04cc 8cbe 0e36 0abf a2da 4dbf ab7a 9ebe
00000030: 3732 c1bf c08f 56bf 193c 92be a327 b0bf
-0.7855881 -1.2060245 -0.6449914 -0.3970122 -0.7250155 -1.3893776 -0.8803516 -1.8102953
-0.27499402 -0.5398873 -0.8041173 -0.30952963 -1.5093449 -0.83813095 -0.28561476 -1.3762096

running_var f4 [16]
00000000: 62c6 b13f 9204 6340 409f df3f 1cf7 c03f
00000010: 14fe 1540 0335 e83f 5d17 7640 5619 c73f
00000020: 950e a23f 61df 3c3f f539 683f de07 2c3f
00000030: 0f97 b93f e12e 633f e158 f23f 1eb7 c23f
1.3888667 3.547154 1.7470474 1.5075412 2.3436327 1.8141178 3.845176 1.5554607
1.26607 0.7377835 0.90713435 0.67199504 1.4499224 0.88743407 1.8933374 1.5212133

weight f4 [64, 96]
00000000: 2ca4 c93d f559 74bd ad7f 83bd 3fce 563d
00000010: c434 483d 7b0d 23bd 8995 953d cae9 6ebd
00000020: af47 f53d c31b 9d3c cc8f a33d 1c49 743d
00000030: aaa5 983d a86f b9bd 8da8 09be eb75 3a3d
00000040: 9f4a d13c 9c7c 413d d22c 913d 301f ddbc
00000050: 5cb9 693b ae56 cf3c 2d50 97bd 928c 71bd
00000060: 6bfa 703d 3921 833c c246 59bc d3c2 e1ba
00000070: ac6c e83d 10d7 4ebd b13f da3d d998 d03b
00000080: a2a7 c9bd 55cb 9fbd eba7 5a3d 3ae2 603d
00000090: 6e23 a13d 0e43 7ebc 5828 16bd f5c1 ec3d
000000a0: 47ca 233d 9acf 59bd 725a 20bd 1f94 cd3d
000000b0: d279 36bd c6a8 253d 4a6f 273c bddd 43bd
000000c0: 917f e63d 3dbb a23d 285a da3c dbe6 153e
000000d0: 4e11 acbc 08e3 103e df7c 0a3c bec6 713d
000000e0: 961d 243d f78e cf3a d79b 97bd a021 4fbd
000000f0: 4db0 aebb 1f9c 2cbd 583b 393d 5995 ddbd
00000100: 95e6 6b3d 1ecf a23d c782 aabd 3bbf 0f3e
00000110: e298 a53c f4c7 3a3d 9531 5abd c881 613c
00000120: 2a2c f73c 2074 93bd f7f2 cf3b fc93 61bc
00000130: e976 b4bd 89f7 25bd 074e 32bd b3a5 09be
00000140: 5c8b 323c 920f 363d bb4b 893d 5af1 9cbd
00000150: 4150 06bc bc79 c03d 0c29 4ebd d312 54bd
00000160: 8bce e93d d337 373d 21aa 55bd 4af2 913d
00000170: 3dc2 0abd 5031 fc3d e901 f0bd a76f 763c
00000180: 5cde babd dc26 61bd 47e3 40bd 50ec 34bd
00000190: 95a2 4a3d 41ba 3a3d 6aad 883d 3c94 bebd
000001a0: fdb8 c63d d8fb 903d f3ed a23d bd21 553d
000001b0: 57ee 8b3d 1d62 c7bd 8bfb bf3c 33f8 99bd
000001c0: 9be5 da3c 28d9 b9bb b654 27bd 27cd e33b
000001d0: 35f5 bbbc 62f8 2b3d 9eea 6bbd 8122 babd
000001e0: c140 693d e380 6c3d 54de dbbd e667 44bd
000001f0: c7ce 02bd c7ca 673d fc73 b23b 6596 9b3c
00000200: cc95 f7b9 1170 44bd 47c5 1f3d 21b7 0b3d
00000210: e603 b8bd 8aeb 0bbc 111c 8bbc 08e6 48bc
00000220: ebc4 c43d 35db 823d 5ca1 47bd d852 073d
00000230: ad9f 53bd bc4b 983d 651c 033d 01c9 623d
00000240: 0f5f 66bb 0f77 abbd b18f 293d d523 8bbc
00000250: 3be1 b03d 8386 b9bd 56b5 893d 41f0 aa3d
00000260: 3809 90bd a204 10bb e781 f83c 1944 aa3c
00000270: bac8 57bc 2314 56bd 2d4b 623c 348c bcbd
00000280: 6180 bebd 53cb cc3d 61db c13d e4a4 8ebd
00000290: fa18 db3b 65d0 c03c bc1c 633d 7c1b c23b
000002a0: 4c09 d33b a869 5b3d 3e57 413d f3b6 043c
000002b0: ef88 9abb 5674 803d ee3b 0c3c a2d8 86bc
000002c0: 18ea 0fbc e81c 8b3d c4b0 713d d35a a23d
000002d0: c2ca b8bd cae9 a73d b634 9ebd a636 bf3d
000002e0: f4db a63d a109 d13c 0ae3 cb3c 128b 71bc
000002f0: 8129 6dbd 6658 b8bd b366 7b3d be71 a1bc
00000300: 5789 c73b 3ba1 923d 4d90 eb3c 7e4d 8e3c
00000310: 9340 4ebd 4686 f53c 25b0 46bd 1eb0 4ebd
00000320: 4054 69bd baae acbc c42f 173d 5d06 00bd
00000330: e55f 8cbc 3370 16bc 63cd cc3d f468 9abd
00000340: 803c af3d dcc1 8cbd 7083 ae3d 1364 80bc
00000350: c5ac ab3d eb51 45bc 3667 723d bbca 18bc
00000360: aa8a 22bd 1da1 7d3d 8015 ae3d 09ec a9bc
00000370: 9d25 d6bd f374 773c da87 c33d 8bb1 1dbd
00000380: c373 82bd 2ae8 93ba 3fdf 8cbb aed7 96bd
00000390: 70c9 b63c b2a5 f53b 9608 02bd 7b67 dbbd
000003a0: 22ff e7bc 8621 c3bd 0e4a dd3c b6b8 b93d
000003b0: c019 103d 680e da3b 1e91 8bbd d86d 963d
000003c0: be05 b43d 24bf af3d 5b1c 3ebd c033 983d
000003d0: 7d97 0abd 92f9 603d e4b3 aabc d4ff aabd
000003e0: ff68 df3c 1a92 85bd eeb4 a1bd 26dc 783d
000003f0: b5e4 55bd eb2b 83bd 7b1e a0bd fba6 9fbd
0.098457664 -0.059656102 -0.064208366 0.052442785 0.048878446 -0.039807778 0.07303912 -0.058328427
0.11976563 0.019178277 0.079864115 0.059640035 0.07453473 -0.090545 -0.13443203 0.04552261
0.025548277 0.047237977 0.07088627 -0.02699241 0.0035663461 0.025309887 -0.07388339 -0.05897195
0.058832567 0.016007053 -0.013261499 -0.00172242 0.113488525 -0.05049807 0.106566794 0.006365877
-0.098464265 -0.078024544 0.053382795 0.054903246 0.07868086 -0.015518917 -0.03665957 0.11560432
0.03998783 -0.0531765 -0.039148755 0.100380175 -0.04454977 0.040444158 0.0102194045 -0.047818888
0.112548 0.07945869 0.026654318 0.14638846 -0.021004345 0.14149106 0.008452623 0.059027426
0.040067278 0.0015835454 -0.07402771 -0.050569177 -0.0053310753 -0.042141076 0.04522261 -0.108195014
0.057592947 0.07949661 -0.08325725 0.14037792 0.020214502 0.045600846 -0.05326994 0.013763852
0.030172426 -0.071998835 0.0063461023 -0.013768192 -0.08811743 -0.04051927 -0.043531444 -0.13442115
0.010897484 0.044448443 0.067038976 -0.07663222 -0.008197845 0.09398219 -0.050332114 -0.051775765
0.11416348 0.044730972 -0.0521642 0.07126291 -0.033876646 0.12314093 -0.11719114 0.015041268
-0.09124443 -0.0549687 -0.04709175 -0.044170678 0.049471457 0.04558778 0.06673701 -0.09305617
0.097032525 0.070792854 0.079555415 0.05203413 0.06832569 -0.097355105 0.023435375 -0.07518043
0.026720813 -0.005671639 -0.04085227 0.0069519463 -0.022944072 0.041984923 -0.057596795 -0.09088612
0.05694652 0.057740103 -0.10735765 -0.047950648 -0.03193548 0.056589868 0.0054459553 0.018992612
-0.0004722312 -0.047958437 0.039006498 0.034110192 -0.089851186 -0.008540044 -0.016981157 -0.012261875
0.096078716 0.06389467 -0.04873787 0.03303799 -0.05166595 0.0743632 0.0320095 0.055367474
-0.0035151874 -0.08372318 0.0413968 -0.01698486 0.08636709 -0.09058859 0.0672404 0.08346606
-0.07033008 -0.0021975418 0.03033538 0.020784425 -0.013170416 -0.052265298 0.013811869 -0.09206429
-0.0930183 0.099997185 0.09465671 -0.06965044 0.006686327 0.02353687 0.055447325 0.0059236865
0.0064403173 0.05356756 0.04720234 0.008100259 -0.004716031 0.06272189 0.00855921 -0.01646072
-0.00878384 0.06792623 0.059006467 0.079274796 -0.09023048 0.081988886 -0.077248976 0.09336595
0.081474215 0.025517287 0.024888534 -0.01474263 -0.05790091 -0.09001236 0.06137724 -0.019707557
0.00608937 0.071596585 0.028755331 0.017370936 -0.05035455 0.029971253 -0.04850783 -0.050460927
-0.056965113 -0.02107941 0.036910787 -0.03125607 -0.01713557 -0.009182024 0.10000112 -0.075395495
0.08556461 -0.06872913 0.085211635 -0.01567272 0.083825625 -0.012043457 0.05918046 -0.009325678
-0.03968302 0.061921228 0.085001945 -0.020742433 -0.10456393 0.015103566 0.09547396 -0.038499396
-0.06369736 -0.00112844 -0.004299074 -0.073653564 0.02231285 0.007496559 -0.03174647 -0.10713097
-0.028319899 -0.095278785 0.027012851 0.09068434 0.035180807 0.0066545494 -0.06814788 0.0734517
0.08790158 0.08581379 -0.04641376 0.074317455 -0.033835877 0.05492551 -0.020837732 -0.083495766
0.027271746 -0.06522007 -0.07895838 0.060756825 -0.052220065 -0.06404861 -0.07818314 -0.07795521

bias f4 [64]
00000000: 02c4 25bd eb14 083d 084c 363d c8fd c53d
00000010: 2f19 e23c 571a 79bd 89e5 66bd ba33 0d3e
00000020: b04a b9bc ebce 163d b8fc 263e 2456 59bd
00000030: 1508 1ebd 1d98 863d 44e0 443d 1bfb 6d3d
00000040: 79cb 963d 29ab 58b9 765c 143c 0377 58bd
00000050: ad06 e63d 9832 743d 47a3 d2bb 5cb6 e53c
00000060: 9397 503d c718 08bd 94df 2dbd 0d3d c53d
00000070: 3cf2 43bc c12d ed3d 8ee9 c83d d62e 61bd
00000080: b2d2 32bd ff3d 433e 406c c5bb 951a c33d
00000090: 3cf1 9a3d 0ba4 c73d 981b 913d 2de0 e63d
000000a0: aac1 82bd 421b e93d 1525 773d 1e27 c53d
000000b0: 7d15 b83d 7ccd 013e a264 bd3d f24b b83c
000000c0: 666e d2bd 0d43 3abd b522 5eba 0d74 b93d
000000d0: 0009 df3d cfbc 1b3e c168 693e aca1 bd3d
000000e0: 194c 1dbd 1e99 04bd a97c cebd e120 0a3c
000000f0: 9dcb bbbd 4f7b f83d e8a4 fa3c c334 403e
-0.04047013 0.033223074 0.044506103 0.096675456 0.0275999 -0.060816135 -0.056371246 0.13789263
-0.022618622 0.036818426 0.16307342 -0.053060666 -0.038581926 0.06571982 0.04806544 0.0581008
0.07363028 -0.00020663127 0.0090552475 -0.052847873 0.11231742 0.059618562 -0.0064281556 0.028041057
0.050925802 -0.033226755 -0.04244955 0.09630785 -0.011959609 0.115809925 0.09810172 -0.054976307
-0.043657966 0.19066618 -0.0060248673 0.095265545 0.07565543 0.097480856 0.07085341 0.11273227
-0.06384595 0.11382152 0.0603381 0.09626602 0.089884736 0.12676042 0.0924771 0.022497151
-0.10274963 -0.0454741 -0.00084737997 0.09055338 0.108903885 0.15208744 0.22793867 0.09259352
-0.03840265 -0.032372586 -0.10082371 0.0084306905 -0.091696955 0.12132894 0.030596212 0.18770127

weight f4 [1, 64]
00000000: 7954 55be ae12 a73c 2bd8 763d aeba 39bf
00000010: a553 54be 83d6 bdbd ef3d e7bd 3c8b 373f
00000020: c276 17be 3051 463f e30e 8f3f bd01 c23e
00000030: 216e 67bf 57b9 59be d621 07be 0d3c a7bd
00000040: 874b 84bf c2c6 a6bd b56d e4bd 0a89 60be
00000050: d719 22bf 2080 05bf e86e 4dbe 3bf7 66be
00000060: 5f24 8b3f 9828 d0bd 23f3 06be 8e05 013f
00000070: f213 8d3d 1c33 65bf 72b3 613f f9c3 17be
00000080: d135 3abe 2476 3c3f b6d2 25bf 5281 efbd
00000090: e01a b9be f7da fa3e 6916 07be 3d12 59bf
000000a0: 0409 13be f438 903f 9d65 363f 757d 583e
000000b0: 5c4f c73c 020a a23f 09ca 0c3e b65b d13c
000000c0: eae3 63bd f81b edbe 7674 1fbd 796c ce3e
000000d0: 17c3 e13e 9d99 363f 356f 703f 2dec bfbe
000000e0: 92b8 e23d 167d 913d a1a5 40bd cd32 70be
000000f0: ecb9 a13e 5c7b 85bf cdd3 fb3d 3ecb 453f
-0.20833005 0.02039465 0.060264748 -0.72550476 -0.20735033 -0.092694305 -0.1129111 0.7169683
-0.14791396 0.7746763 1.1176418 0.3789195 -0.9040242 -0.21262108 -0.13196501 -0.08165751
-1.0335549 -0.08143379 -0.111537375 -0.21927276 -0.6332068 -0.5214863 -0.20061839 -0.22555248
1.0870475 -0.10163993 -0.13178687 0.503991 0.0688857 -0.8953111 0.88164437 -0.14820851
-0.18184592 0.7361777 -0.64774644 -0.11694588 -0.36153316 0.48995182 -0.13192143 -0.84793454
-0.14358908 1.1267381 0.712488 0.21141608 0.024329834 1.2659304 0.13748945 0.025556426
-0.055637278 -0.463104 -0.038929425 0.40317133 0.44094154 0.71328145 0.9391969 -0.37484875
0.1107036 0.071039364 -0.047032956 -0.23456879 0.3158716 -1.0428271 0.12296257 0.7726325

weight f4 [64, 96]
00000000: 3112 2c3d 152c 7ebb e2ca afbb a5f3 26bc
00000010: f23e 113c be35 8cbc c60e a1bb 24e3 203c
00000020: a7a6 3dbc 5fc1 9a3d fac4 a93c b0bc cfbd
00000030: 6093 4ebc a874 5a3d 7753 223d fd59 cd3d
00000040: 08ca b1bd dd11 913d 91ea cdbc 6dc0 b4bd
00000050: 21ea 63bd b093 9d3c b4ba 903d 2321 89bd
00000060: f5ef c73d 5f3f 28bd e54e ac3d 21fd c63d
00000070: a063 cf3c 171d 3bbd 10f6 a73d 0044 443d
00000080: 31cd bd3d ea3b 2c3d eeb3 64bb 370a 7f3b
00000090: 6978 49bd a644 af3d d4e3 7a3d c3ee 893d
000000a0: 4b03 c73d 4e12 c4bd b45c b9bd 19aa ed3b
000000b0: 92b9 fe3c d5ae b9bd b22e 67bd 77d1 77bd
000000c0: 2157 4fbd 382d 713d efd5 9dbd 275a 61bc
000000d0: 7f7d 91bd dc45 12bd d748 943c 743f 45bc
000000e0: 434c 1cbd 4c14 9ebd d08f 27bc ca6d 923c
000000f0: ca29 473c 7d3a adbd 5186 ad3d dbaa 3b3d
00000100: 6105 46bd a09d 98bd 9f03 a53d 9952 fcbc
00000110: 0dd3 cfbd 58ce d0bc 0d1e 8abd 579e 9ebd
00000120: 6580 10bd 6172 733d 32bd a5bd 2202 233b
00000130: 9953 883d a379 e53b e0cb 6ebd f1ef 703d
00000140: 52d3 ea3d a5f9 8cbd 6cf7 94bd e665 193d
00000150: 63b3 a8bd b826 b43d 420b f3bc 3b86 7c3d
00000160: 272b dabb a425 a93d 752d 44bc bb08 dabb
00000170: 70ea ab3c 9fc6 1fbd cf00 3fbc 9c6a a43c
00000180: 7483 c5bd 2e4c e03c e32d af3d ed2d ed3d
00000190: fc87 583c 9d80 d33d 0bb3 083d 85cc f73c
000001a0: d98f d23d 3aa8 1f3e c62d e93c 7605 50bc
000001b0: 433c 803d 6bf0 7e3d dfd6 80bd fc3f f53d
000001c0: afa4 f23d e8f2 99bd f936 c6bd c8d7 443d
000001d0: 9811 a73d a4af 69bc b39e 00bd 7c3b 15bc
000001e0: df14 b63d 180b 36be d7f8 c03d 078c f2bd
000001f0: ce10 08be 1a0b b4bd 6347 de3d 253e e53c
00000200: b250 593d a636 f1bc 993a d8bd c5e4 7f3d
00000210: 4ec2 37ba 4694 b5bd 2747 09bd 50df 0ebc
00000220: f57e 1f3d 0f90 aa3c 320d 3c3d b425 183d
00000230: da16 363e 0682 babd be6f 4abd 96c2 2b3e
00000240: d09a 183d b82e 6e3d 2d72 fc3d 33b5 283e
00000250: 16f2 013d 229e e7bd a4fb 28bd 91a5 d13b
00000260: 57bc d9bd ac62 833d ddbf 2f3d d594 a13d
00000270: f851 7cbd 12b6 b63d 250c f7bc 9070 063d
00000280: 9fcb 6abd f95d 0e3d ebd7 efbb bb07 69bd
00000290: 3050 36bd f73f c9bd 7195 ef3d e20a ffbd
000002a0: 95c5 f63d d7c1 1b3e 8426 893d 0801 883c
000002b0: 76c1 603e 7d90 0d3d bf36 0fbe 68a0 7cbd
000002c0: 82d0 f13d 17be 2e3d b41c 44be 8295 8b3d
000002d0: 1c97 9a3c b463 283d 1971 213d c68a b13c
000002e0: c3ca 8e3d 0306 0bbe 875d 99bc 552f fb3c
000002f0: 179f f4bb e056 4a3d de02 a8bd 2b96 913c
00000300: b80f 683d 5d2e 643c 40dc 5c3c 00e7 29bd
00000310: 83b9 203d 7d88 afbd 6565 1a3c 5ab2 c4bd
00000320: 5969 68bd b27b 853c 9bef 5a3d e8ab b6bd
00000330: 6e33 82bd c7e9 1dbd f4e9 7cbd 9601 1fbd
00000340: 8008 81bd 384a 35bd 6175 a1bd 8a2a 89ba
00000350: 28b2 3dbd f98a ad3d 1e98 aebd 97e9 3cbd
00000360: e421 abbc a460 183d 093c debd 30df 1ebc
00000370: 3eb2 36bc e2ba 8f3c 164a 843d ec2c 463d
00000380: 68cf 80bd 4bb9 9c3d 4c90 ca3b f22e c53c
00000390: 5372 30bd 0293 82bc 1766 aa3c dafe 34bd
000003a0: 5301 383d 8e25 bf3d 8f87 c2bd ab58 acbd
000003b0: fe2a 473c 0464 acbd 9a68 4a3c de2f 833d
000003c0: 1961 83bd ae28 f8bc 4545 e13d 9aa3 4fbd
000003d0: bc38 ac3d a2b5 2cbd b6f3 c5bd 84f3 40bd
000003e0: ffc1 90bd 4e9c 2b3d eb2c d7bd 9372 563d
000003f0: bb23 0c3b 12ad a13d e869 b0bd efc3 d3bd
0.042009536 -0.00387836 -0.0053647617 -0.010189925 0.008865105 -0.01711547 -0.004915091 0.00981978
-0.011575378 0.07556414 0.020723809 -0.10143411 -0.012608379 0.05333391 0.03963038 0.100269295
-0.086811125 0.07083485 -0.025136264 -0.08825765 -0.055643205 0.019235462 0.07066861 -0.066957735
0.09762565 -0.04107606 0.084134854 0.09716249 0.02531606 -0.04568204 0.082012296 0.047916412
0.09267653 0.042049326 -0.0034897286 0.0038916 -0.049187098 0.085580155 0.06125243 0.06734993
0.09717425 -0.09573804 -0.09050885 0.0072529432 0.031094346 -0.0906655 -0.056441016 -0.060502496
-0.050620202 0.058881015 -0.0770682 -0.013754404 -0.071040146 -0.035711154 0.018101139 -0.012039054
-0.038158666 -0.07718715 -0.010227159 0.017874617 0.012155959 -0.084584214 0.084728844 0.045817237
-0.048344973 -0.074519396 0.08057331 -0.030801104 -0.101476766 -0.025489017 -0.06744013 -0.07745045
-0.035278697 0.059435252 -0.08092727 0.0024873097 0.0665657 0.0070030256 -0.0582999 0.058822576
0.114660874 -0.068835534 -0.072737545 0.037450694 -0.0823734 0.087964475 -0.029668454 0.06165145
-0.006657976 0.082591325 -0.011973728 -0.006653873 0.020985812 -0.03900778 -0.011657908 0.020070367
-0.09644213 0.027380075 0.08553674 0.11581025 0.013216015 0.103272654 0.033373874 0.03024889
0.10281343 0.15591517 0.02846421 -0.0126966145 0.06261494 0.062241 -0.062909834 0.11975095
0.11847817 -0.07517034 -0.09678454 0.048057348 0.081576526 -0.014263067 -0.031401347 -0.00910842
0.088906996 -0.1777767 0.094224624 -0.11843114 -0.1328766 -0.0879118 0.1085346 0.027983734
0.053055473 -0.029445004 -0.105580516 0.06247403 -0.00070098497 -0.088661715 -0.03351512 -0.008720234
0.038939435 0.020820646 0.04591102 0.03714533 0.17782155 -0.09106831 -0.049422972 0.16773447
0.037257016 0.058150023 0.12326465 0.16475372 0.03172501 -0.11309458 -0.04125561 0.006397911
-0.10631626 0.064153045 0.042907584 0.078897156 -0.06160161 0.08921446 -0.030157158 0.03282219
-0.057323094 0.034757588 -0.0073194406 -0.056892138 -0.044510067 -0.098266535 0.116984256 -0.124532476
0.120494045 0.15210663 0.066967994 0.016602054 0.219488 0.034561623 -0.13985728 -0.061676413
0.11807348 0.042661753 -0.19151574 0.06815626 0.018870883 0.04111071 0.0394145 0.021672618
0.069722675 -0.13576512 -0.018721355 0.030662218 -0.007465254 0.049399257 -0.08203672 0.017771801
0.056655616 0.0139270695 0.013480246 -0.041480064 0.039239418 -0.08570955 0.009423588 -0.0960433
-0.056741092 0.016294334 0.05345116 -0.08919507 -0.06357466 -0.038553026 -0.061746553 -0.03881987
-0.06300449 -0.044260234 -0.078837164 -0.0010464948 -0.04631248 0.084737726 -0.08525108 -0.046121206
-0.020890184 0.03720154 -0.108512945 -0.009696767 -0.011150895 0.017545167 0.06459443 0.048382685
-0.062895596 0.07652529 0.0061817523 0.024070237 -0.043077778 -0.01593924 0.020800633 -0.044188358
0.044923138 0.09333335 -0.09498512 -0.084153496 0.012156246 -0.08417514 0.0123540405 0.06405614
-0.06415004 -0.030292835 0.1099954 -0.050693132 0.08409259 -0.042165406 -0.09665625 -0.047107235
-0.07068252 0.04189711 -0.10506614 0.05235536 0.0021383602 0.07894339 -0.0861395 -0.10340106

bias f4 [64]
00000000: af5f 5abd 1f05 593d 8b32 ab3d 74dc 43bd
00000010: cebe 9dbd 70da a9bd 7908 49bb 447f 563b
00000020: 21d5 953d 699b d7bc 03e9 7b3d 4d7e 96bd
00000030: 8122 87bd 419f ab3d 6323 753d 8e40 bfbd
00000040: 4872 9e3d 69c4 63bc 0355 e63d 1a48 553d
00000050: 1f0c 073c 4313 203d ed16 bd3d 0cc2 a73d
00000060: 4f5f 85bd 0624 16bd dd29 80bc 90a7 acbc
00000070: dbd4 22bb 51cf 8c3c 528b ff3c af9f 97bc
00000080: 57e9 5f3c 5450 16bd 76e8 48bd b05b 173d
00000090: 65cd 3a3e a795 1e3d 6ff9 c6bd eb02 1fbd
000000a0: c2df d93c b076 cf3c 329a 47bd d350 263d
000000b0: 8c6f 51bd bfe7 9a3d 0c3b a1bd 48de debd
000000c0: a666 8e3d 8974 4bbd a529 9cbd 0352 863d
000000d0: b0e7 9c3d 0ef3 27bc 6cbf 7b3b 0207 6c3c
000000e0: bfdc e2bc 9730 1f3c 0a18 d23d be3c b83c
000000f0: 6bd6 9a3a 630c 8abd 6c9f 16bd 154a ccbd
-0.053313907 0.0529834 0.0835925 -0.047817662 -0.07702409 -0.08293617 -0.0030675216 0.0032729665
0.07316042 -0.026319223 0.061501514 -0.07348309 -0.06598378 0.08379985 0.0598482 -0.09338485
0.07736641 -0.013901808 0.112466834 0.052070715 0.008242636 0.03908087 0.09232888 0.081913084
-0.06512319 -0.03665545 -0.015644962 -0.021075994 -0.002484611 0.0171887 0.031194363 -0.01850876
0.013666472 -0.0366977 -0.049049817 0.036952674 0.18242414 0.03871694 -0.097155444 -0.038821142
0.026595954 0.02532515 -0.048731036 0.040604424 -0.05113177 0.07563733 -0.078725904 -0.108822405
0.069531724 -0.049671683 -0.076251306 0.06558611 0.076613784 -0.01025082 0.0038413657 0.014405968
-0.02769315 0.009716175 0.10258491 0.022489902 0.0011813169 -0.06740644 -0.03677313 -0.099750675

weight f4 [8, 64]
00000000: 62e8 70bc 2d3f e83e bbc8 abbc aaf5 08be
00000010: 1266 59bd aa58 73be f2de c53c b9a9 843e
00000020: 83f4 7f3a 7f52 41bd 2fc0 4b3e c9f1 6dbe
00000030: 72ae 063e 1cb0 783e 6a58 4e3e 6607 d0bc
00000040: 1003 a7be 66c0 863d cf35 f13e 7a84 d2bd
00000050: 0a42 f7bd 397c b83e e8b8 4ebd d83a 413e
00000060: 5ecf a53e d24a b03c a8dd ef3b fa8d 0bbe
00000070: 022f 883e c23d 1e3e e978 b3bc a8b0 debd
00000080: 76cf d23d fd61 28be 665a 423e 5bc2 453d
00000090: f0ba f23e fb6e eb3d 90d1 a93d b5ef 5cbd
000000a0: a8a4 49be c6cb a2be 426c 30be fc36 273e
000000b0: 755e 03bf 9fd3 ecbe 46fb d2be 2cbc c3be
000000c0: 62e5 443e 8e30 f43d 4cce c5bd 197b 243c
000000d0: cfdb a1bc 717a 06bc 3746 ba3d 6eed 323e
000000e0: b806 f5be 3586 683e 6bd7 f5be 6c2c 30be
000000f0: 2815 b0be 0edc 9a3d 6781 11be 614f d3bc
00000100: 8c49 18be 715f a4bc 82d5 823d efd0 153d
00000110: 11c3 54be a93b 423f ba55 9b3e eb51 813e
00000120: f5a7 bb3e 141d 24be 184e 833e 82c9 c9be
00000130: f2b3 d03e 551a 09bf 211b 833e ca44 a93d
00000140: de5e aa3e a99f 4f3e a3fc c93e 5869 d23d
00000150: d0f5 92be bfa6 7abe 888e 63bc b97c a0bc
00000160: 65d7 ee3e 6dc0 a23d 567a 6b3e ba94 423f
00000170: 71cb f03d 462f 763d 1b79 8cbe 366c fd3e
00000180: b8a2 a63e 1575 253d cb56 91bd d266 a63d
00000190: 0462 62bd 1fd0 3c3d 355c 94be 8592 793e
000001a0: d7d9 fdbd dda1 1cbd 9f9a 1fbe ae8e 143e
000001b0: 1f0c 133e 0840 92bd 3b93 52be f768 60be
000001c0: 4bfa ccbd 77af dcbd 7c95 9fbd 6707 e6bd
000001d0: c281 a3be c568 023e 8d91 80bd 21f4 55be
000001e0: bbf2 42be 276b 803e 61be db3c 7472 5b3f
000001f0: 4364 a8be 25db bc3d 2b10 adbe 68e8 bdbd
00000200: 3387 09be 8e70 6ebe 5f50 3e3c 3909 d43e
00000210: 3b89 933d c35d 7ebf 2cfe 14bf f4b3 c3bd
00000220: 8661 9ebe 584d c1be a63c 423e 594b d93e
00000230: 0419 00bf c62f 7bbe 5d39 153f 867f ea3e
00000240: af03 4ebe d2fd 2ebd c2b2 95be a005 f8bd
00000250: 2388 8a3e a447 eabc 8f68 ee3d 4e8b c9bd
00000260: 7028 833d 0cad b73d 7bf1 d33e 6334 c3be
00000270: 457a 38be 947a 86be 9fe0 d33e 3a71 2fbf
00000280: e1a7 03bd f51d 823e b021 e3bd 7d31 57bf
00000290: d173 bc3e 4279 bebc 23c7 39be d646 cbbb
000002a0: 303d e03d 7d5a 10bd 4934 b0ba 6d08 cbbd
000002b0: a7e0 ffbe 4160 403f 7ec0 713f 95b2 a83e
000002c0: 333d 47bf 0f08 97be cba6 e43e 8906 d73e
000002d0: bd20 58bd 311f 75be d35b d13e 18bc d0be
000002e0: 0efb a4bd fd8a bd3e e71b 02be a9ae 81bf
000002f0: f91e 4b3e 2e01 e6bd 98ff be3e 72c7 d9be
00000300: e700 8d3c 71ae e2bd 3e45 ca3b db77 293d
00000310: 1378 83be c6c2 0cbe d032 153e 786c fbbe
00000320: 2f4b 18bd bcc1 2a3e b72e 993d 1dfa 953e
00000330: 8071 a4be ea23 c8be 69bb 863d a433 73be
00000340: 6b7f fb3e 8e71 90be e6e8 e0be d692 383f
00000350: 5dcf 303e 4a38 c4be 1d4b bbbd b254 6f3d
00000360: 0ef5 3cbf e5ff 16bd 42ec 4cbe 2092 e4be
00000370: ed7b 9dbe afb8 7dbe 608c cd3d 0aae 633c
00000380: cdeb e33b 969c 293f 1da3 dcbe d448 d6be
00000390: 4fa8 803c 26e7 b5be 1af7 543f a9eb 673f
000003a0: cce4 2f3e 6748 6a3f 509f 5e3f f47d 29be
000003b0: 5d31 a6be 5a12 8f3e 2032 0e3f dc6a 133f
000003c0: 0bca 30bf d051 333f 0886 163f 9225 5c3e
000003d0: f0f8 e13e afb1 2fbf c3e2 e73e db3b 2bbe
000003e0: b759 fdbd e6df 1c3e 7308 493e e23d b83d
000003f0: eab1 b53e e025 4abe 90d4 a3bd 6373 d4be
-0.014703842 0.453607 -0.02096974 -0.13374963 -0.053075857 -0.23764291 0.02415416 0.25910738
0.0009763913 -0.047197815 0.19897531 -0.23236765 0.13152483 0.2428593 0.20150915 -0.025394153
-0.32619524 0.06579666 0.47111365 -0.10279174 -0.12073143 0.36032274 -0.05046931 0.18870103
0.3238477 0.021520052 0.0073201247 -0.13628379 0.26598364 0.15453246 -0.02190824 -0.10873538
0.10293476 -0.1644363 0.18979797 0.048281055 0.47408247 0.11495777 0.08291924 -0.05393954
-0.19691718 -0.31796092 -0.17228797 0.16329569 -0.51316005 -0.46255204 -0.4120733 -0.382295
0.19228128 0.119233236 -0.09658489 0.010039114 -0.019758133 -0.008207903 0.09095424 0.17473385
-0.47856688 0.22707446 -0.48015913 -0.17204446 -0.3439114 0.07561503 -0.1420952 -0.025794687
-0.14871806 -0.020065041 0.0638838 0.036576208 -0.20777537 0.75872284 0.30338842 0.2525781
0.3665158 -0.16026717 0.25645518 -0.3941155 0.40762287 -0.53555804 0.25606635 0.082650736
0.33275503 0.2027575 0.3945056 0.10273999 -0.28703165 -0.24477671 -0.013888963 -0.019590722
0.46648708 0.079468586 0.22995886 0.7600819 0.11757553 0.060103677 -0.27436146 0.4949662
0.3254602 0.04039486 -0.070966326 0.0812508 -0.055269256 0.046096917 -0.28976598 0.24372299
-0.12395065 -0.038240302 -0.15586327 0.14507553 0.14360093 -0.07141119 -0.20563976 -0.21915041
-0.10008677 -0.10775655 -0.07792184 -0.11231881 -0.31934935 0.12735279 -0.062777616 -0.20893909
-0.19037907 0.2508175 0.026824178 0.85721517 -0.32888994 0.09221486 -0.33801398 -0.092728436
-0.1343048 -0.23285124 0.011615842 0.41413286 0.07203909 -0.9936182 -0.58200336 -0.09555808
-0.3093378 -0.3775432 0.18968448 0.42440298 -0.5003817 -0.24529943 0.58290654 0.45800418
-0.20118593 -0.04272253 -0.29237944 -0.12110448 0.2705699 -0.028598614 0.11641037 -0.098410234
0.06404197 0.08968553 0.41395172 -0.38125905 -0.18015392 -0.26265395 0.4138231 -0.68532145
-0.032142524 0.2541348 -0.1109041 -0.8405989 0.3680711 -0.02325118 -0.18142371 -0.0062035127
0.109491706 -0.035242546 -0.0013443317 -0.099137165 -0.49976084 0.7514687 0.94434345 0.32948747
-0.7782776 -0.29498336 0.44658503 0.41997173 -0.052765597 -0.2393768 0.4089037 -0.40768504
-0.080556974 0.37020102 -0.12705956 -1.0131427 0.19836034 -0.11230694 0.37304378 -0.42534977
0.017212344 -0.11068428 0.006172805 0.04137407 -0.25677547 -0.13746175 0.14570165 -0.49106193
-0.037181076 0.16675466 0.07479613 0.29292384 -0.32117844 -0.390899 0.065787144 -0.23750168
0.4912065 -0.28211635 -0.43927687 0.72099054 0.17266603 -0.38324195 -0.09145186 0.05843038
-0.73811424 -0.036865134 -0.20012 -0.44642735 -0.3075861 -0.24777482 0.1003654 0.013896475
0.0069556 0.66254556 -0.43093196 -0.41852438 0.015705256 -0.35527915 0.8318955 0.90593964
0.17177123 0.9151673 0.8696184 -0.16551954 -0.32459536 0.2794369 0.55545235 0.5758493
-0.69058293 0.7004671 0.58798265 0.21498707 0.44135237 -0.686305 0.45290193 -0.16722052
-0.123706274 0.15319785 0.1963213 0.08996178 0.354873 -0.1974101 -0.079995275 -0.41494283

bias f4 [8]
00000000: 60cc f63c 5ad6 a0bd 0119 fbbd e857 ca3d
00000010: 6513 afbd 7f10 13be 3e09 bb3c bd16 18bd
0.03012675 -0.07853384 -0.122606285 0.09880048 -0.08548621 -0.14361762 0.022831555 -0.03713106
